3 types of multi-task models for the Polish dataset/non-transferred model.pt (torch, 6517 bytes, 14 tensors)

net.0.weight f4 [20, 6]
0	0x3c20e109	0.009819278
1	0xbaf070a6	-0.0018344119
2	0x38a4ad57	7.8524165e-05
3	0x3bcd9cb8	0.006274786
4	0x3bf3378c	0.007422393
5	0x3c04c21e	0.008102922
6	0x3cbe6bcf	0.023244767
7	0xbb67f6e8	-0.003539497
8	0xba2ac207	-0.00065138977
9	0xbc82dea4	-0.015975304
10	0x3c0a70b6	0.008449724
11	0x38755f8d	5.850154e-05
12	0x3c9b13f2	0.01893041
13	0x3aab84c4	0.0013085832
14	0x3c31eb7d	0.010859367
15	0x3c0179b9	0.007902556
16	0x3b37143a	0.002793564
17	0xbba236aa	-0.004950364
18	0xb87f5250	-6.0873397e-05
19	0x3b673075	0.0035276685
20	0x3b921c7f	0.0044589634
21	0x3b82095c	0.003968401
22	0xbb97aefa	-0.004629013
23	0xbac980e0	-0.0015373491
24	0x3c463dc0	0.012099683
25	0x3b6d7e24	0.0036238516
26	0x3c000f09	0.007816085
27	0x3b4634a3	0.0030243776
28	0x3bae8f75	0.00532716
29	0xb9da9554	-0.00041691458
30	0x3c4cf7ef	0.012510284
31	0x3ba4cf1f	0.0050295736
32	0x3bf2370f	0.0073918174
33	0xb9963b0d	-0.00028654226
34	0x3ba9ad3c	0.005178122
35	0xbb323f90	-0.002719853
36	0x3c3ee051	0.011650161
37	0x3b6a2676	0.003572849
38	0x3bfa9eb7	0.007648315
39	0x3b5b900e	0.0033502611
40	0x3b93533e	0.004496007
41	0xbb618fe5	-0.0034418043
42	0x3cb24feb	0.021766623
43	0xbb6e5391	-0.0036365727
44	0x3acb6796	0.0015518542
45	0xbaf47473	-0.0018650427
46	0x3c1e7d0c	0.009673368
47	0x3a13d921	0.00056399597
48	0x3c3e20ab	0.011604468
49	0x3b1b8eca	0.0023736232
50	0x3bcc8ac9	0.0062421304
51	0x3b89d0ce	0.0042057997
52	0x3b932c6e	0.0044913804
53	0xbb4a9dfd	-0.0030916922
54	0x3aaa02be	0.0012970788
55	0x3b853fd3	0.0040664463
56	0x3bbaf11b	0.0057050115
57	0x3b8e3d2a	0.0043407874
58	0xbbc408e0	-0.0059825033
59	0xbb063dad	-0.002048354
60	0x3b83c9ec	0.0040218737
61	0x3bae257e	0.005314528
62	0x3bffb407	0.0078034434
63	0x3b6d94b8	0.0036251973
64	0xbc0fcfee	-0.008777602
65	0xbb13cb40	-0.0022551566
66	0x3bcc7181	0.0062391167
67	0x39dcf15b	0.00042141494
68	0x3a1d18ca	0.00059927686
69	0x3b3b1b86	0.002855034
70	0x3ba1af2b	0.0049342117
71	0x3ba319f9	0.0049774614
72	0x3cb0671b	0.02153354
73	0x3aa95a42	0.0012920576
74	0x3bc46db4	0.005994523
75	0xbbda3d23	-0.00666012
76	0x3c2eafd0	0.010662034
77	0xbb7645d0	-0.0037578233
78	0x3d0ad463	0.033893954
79	0x3cf13168	0.029442504
80	0x3d1226e6	0.035681628
81	0xbd1b7bdb	-0.037959915
82	0xbd8539dd	-0.06505177
83	0x3b0dc76f	0.0021633764
84	0x3b76dd46	0.003766851
85	0xbb696866	-0.0035615205
86	0xbb674b93	-0.0035292848
87	0x3bca43d3	0.006172636
88	0x3bff2f4d	0.007787621
89	0x3c3b28dd	0.011423317
90	0x3ae1ad10	0.0017217714
91	0x3b8a4b07	0.0042203697
92	0x3bc8a2bd	0.0061229155
93	0x3b937611	0.0045001586
94	0xbbd2ce65	-0.0064332956
95	0xbafa3a06	-0.0019090779
96	0x3ca17d37	0.019713027
97	0x3b95a9d8	0.004567366
98	0x3bdb14de	0.006685837
99	0xbbc727e8	-0.0060777552
100	0x3c116925	0.008875166
101	0xbb19e9b2	-0.002348524
102	0x3cbc4654	0.022982754
103	0xbb802b34	-0.0039114
104	0x3b571a74	0.0032822164
105	0xbb46c2a2	-0.0030328413
106	0x3c2507d0	0.010072663
107	0xbbb97f9d	-0.0056609646
108	0x3c5fe7e2	0.013666125
109	0xba24c998	-0.00062861433
110	0x3b2d69ae	0.0026460695
111	0x3bda900d	0.006670004
112	0x3beeaaac	0.0072835293
113	0x3c110cd1	0.008853153
114	0xbab15e9b	-0.0013532223
115	0x3b295581	0.0025838318
116	0x3b489e0c	0.0030611781
117	0x3b508026	0.0031814664
118	0xbb4f5119	-0.0031634031
119	0xba9bfccd	-0.0011900902

net.0.bias f4 [20]
0	0x3195ec98	4.3633683e-09
1	0x2f7fb136	2.3255073e-10
2	0xb239d156	-1.0816015e-08
3	0xafbae464	-3.3995484e-10
4	0xaf0c7f54	-1.2778162e-10
5	0xb132c741	-2.6015672e-09
6	0xb19a4acf	-4.4904946e-09
7	0x30344a12	6.558888e-10
8	0x2fd81b8f	3.9309753e-10
9	0xaf88cd9e	-2.4884356e-10
10	0xb108292c	-1.9814008e-09
11	0x3052bd12	7.666624e-10
12	0xb104d47b	-1.932931e-09
13	0x32d4eabf	2.4786798e-08
14	0xb0b4e60b	-1.3162106e-09
15	0xb0885a6a	-9.921e-10
16	0xb044be17	-7.157452e-10
17	0x30c19aed	1.4086631e-09
18	0xb11f50b1	-2.3183413e-09
19	0x30dccbcf	1.6065033e-09

net.1.weight f4 [20]
0	0x3d27bee3	0.040953528
1	0x3d013160	0.03154123
2	0x3d80e3b5	0.06293432
3	0x3cb6a7b0	0.022296757
4	0x3d23535d	0.039874423
5	0x3d284623	0.041082513
6	0x3d0ddf99	0.034637067
7	0x3d4014dd	0.046894897
8	0x3d02e644	0.03195788
9	0x3ce8a31d	0.028398091
10	0x3d123a5a	0.03570018
11	0x3ca3f9f0	0.02001664
12	0x3d491e86	0.049101375
13	0x3e0de865	0.13858183
14	0x3d12ec92	0.035870142
15	0x3cf44861	0.02981967
16	0x3d2482e4	0.04016389
17	0x3d46566c	0.048422262
18	0x3d62a24d	0.055330563
19	0x3c7bb8f4	0.0153639205

net.1.bias f4 [20]
0	0x3c9fcbe2	0.019506399
1	0xba44d116	-0.0007507963
2	0x3c475214	0.012165565
3	0x3c03b122	0.008037837
4	0x3c0ac7cc	0.008470487
5	0xb90b9d5e	-0.00013314697
6	0x3b681435	0.0035412435
7	0x3a83f001	0.0010066034
8	0x3b6ddf62	0.0036296477
9	0x3c347f01	0.011016608
10	0x3c82c732	0.015964124
11	0x3c0ad1d7	0.008472881
12	0xbb3b0afb	-0.002854048
13	0x3d679418	0.056537718
14	0x3c80ae1d	0.015708024
15	0x3c440b1a	0.011965537
16	0xba52c218	-0.00080397865
17	0xbbc0c728	-0.0058831163
18	0x3cd6f086	0.026237737
19	0x3bae4afd	0.005318998

net.1.running_mean f4 [20]
0	0x3c801516	0.015635055
1	0x3cf09532	0.029368017
2	0x3c761d3b	0.0150216175
3	0xbb8e4823	-0.0043420955
4	0x3bcbf2b9	0.006224003
5	0x3bf2b4ba	0.007406798
6	0x3bb3be3d	0.0054853247
7	0x3cf06fab	0.029350122
8	0x3bff32a5	0.0077880197
9	0xbb63dd38	-0.0034769308
10	0xbafae0ec	-0.0019140518
11	0x3c01e07e	0.007927058
12	0x3ca4dc1a	0.020124484
13	0x3beb9dfb	0.0071904636
14	0x3c55435e	0.01301655
15	0xbb52b422	-0.0032150825
16	0x3c730915	0.014833708
17	0x3ce76ad4	0.028249182
18	0x3c93828c	0.018006586
19	0xbb9e51e9	-0.004831542

net.1.running_var f4 [20]
0	0x38b9b043	8.854319e-05
1	0x3a9999a2	0.001171876
2	0x38abfcf8	8.2010345e-05
3	0x385f1dde	5.319516e-05
4	0x38848914	6.319783e-05
5	0x391343cf	0.00014044273
6	0x385b9f08	5.236178e-05
7	0x3a1fcb7e	0.00060956914
8	0x38545f9d	5.0633786e-05
9	0x387b0ab5	5.9853035e-05
10	0x386e63ac	5.683645e-05
11	0x381ac253	3.689744e-05
12	0x3a384cb5	0.0007030473
13	0x38887e5c	6.5085216e-05
14	0x3899c963	7.33312e-05
15	0x388021ff	6.109848e-05
16	0x39f7fef8	0.00047301478
17	0x3a41955d	0.00073846226
18	0x39038ec2	0.00012546315
19	0x38278d98	3.9947772e-05

net.3.weight f4 [6, 20]
0	0xbc78137b	-0.015141363
1	0xbb596ddc	-0.0033177054
2	0xbb0cec9d	-0.0021503337
3	0x3c13cb7d	0.009020683
4	0xbba5e761	-0.005062983
5	0xba956ddf	-0.0011400542
6	0xba8c0d93	-0.0010685198
7	0xbba60f70	-0.0050677583
8	0xb9ca2a55	-0.00038559982
9	0x3c3088fd	0.010774848
10	0x3c82ae14	0.015952148
11	0xbbf82a9c	-0.007573439
12	0xbadcccf3	-0.0016845748
13	0x3db66dc5	0.089076556
14	0xbc887a2d	-0.01665982
15	0x3c4972c5	0.01229543
16	0xbb07aa73	-0.002070096
17	0xbac99a66	-0.0015381097
18	0xbca4fb59	-0.020139383
19	0x3bcd7914	0.006270537
20	0xbca2c37d	-0.019868607
21	0xbb47e62c	-0.0030502183
22	0xbace852e	-0.0015756243
23	0x3c5cebc3	0.013483944
24	0xbbc57f2a	-0.006027122
25	0xb9d5b90f	-0.00040764405
26	0xba06c13c	-0.00051404885
27	0xbbb6a715	-0.005574117
28	0x39e23153	0.00043142829
29	0x3c8e3f40	0.017364144
30	0x3cb7b271	0.022423955
31	0xbc141504	-0.009038214
32	0xb8790b30	-5.9376645e-05
33	0x3dab62ef	0.083684795
34	0xbcaa9439	-0.020822631
35	0x3c93470d	0.017978216
36	0xbad10ece	-0.0015949847
37	0x37ba6c0c	2.2223241e-05
38	0xbcc8a36c	-0.024491988
39	0x3c14d6ff	0.009084462
40	0xbc755dae	-0.014975948
41	0xbb377f3e	-0.0027999426
42	0xbb423d85	-0.002963872
43	0x3c12260d	0.008920205
44	0xbbb6f818	-0.0055837743
45	0xbae19bb1	-0.0017212537
46	0xbabc1532	-0.0014349578
47	0xbbac208e	-0.0052529043
48	0xba842f63	-0.0010084923
49	0x3c37cb60	0.011217922
50	0x3c78d82c	0.015188258
51	0xbbdec812	-0.0067987526
52	0xbb0d94f0	-0.0021603666
53	0x3d65f657	0.05614313
54	0xbc73ff90	-0.014892474
55	0x3c3daa1c	0.011576202
56	0xbb331cf0	-0.002733048
57	0xbae652dd	-0.0017572303
58	0xbca42b07	-0.020040048
59	0x3bc096a1	0.0058773314
60	0xbc4f77f7	-0.012662879
61	0xbb27379e	-0.0025515328
62	0xbb3e5286	-0.0029040887
63	0x3be766d2	0.0070618177
64	0xbba630a8	-0.0050717182
65	0xbb06fcaa	-0.0020597377
66	0xbaec7c9b	-0.0018042506
67	0xbb9a5c51	-0.004710712
68	0xbaba9eed	-0.0014238037
69	0x3c111043	0.008853975
70	0x3c46c5fd	0.012132165
71	0xbbb889e2	-0.0056316713
72	0xbb29c0f6	-0.0025902367
73	0x3cfc19d4	0.030774035
74	0xbc57121f	-0.013126879
75	0x3c23bc49	0.009993621
76	0xbb277c48	-0.0025556255
77	0xbb13b217	-0.002253657
78	0xbc86a9fc	-0.016438477
79	0x3b9e3858	0.004828494
80	0xbc6bfd8f	-0.014403715
81	0xbb43cd6e	-0.0029877084
82	0xbb4af552	-0.0030968976
83	0x3c00175c	0.007818069
84	0xbbb8f6fc	-0.005644677
85	0xbb16d079	-0.0023012443
86	0xbafd2bd5	-0.0019315431
87	0xbbb4678b	-0.0055055073
88	0xbac3a864	-0.0014927504
89	0x3c29306f	0.010326489
90	0x3c633a61	0.013868899
91	0xbbd85118	-0.006601464
92	0xbb3d4056	-0.0028877459
93	0x3d4648f8	0.048409432
94	0xbc64f93d	-0.013975439
95	0x3c373e68	0.011184312
96	0xbb441872	-0.0029921797
97	0xbb22d410	-0.0024845637
98	0xbc9e98e0	-0.019360006
99	0x3bb22958	0.0054370575
100	0x3cdf864a	0.027285714
101	0x3cdc2437	0.026872737
102	0x3d8bc3ca	0.06824453
103	0x3b9bbe8f	0.004752941
104	0x3d18e1d3	0.037324738
105	0x3d1d5049	0.038406644
106	0x3d1284ba	0.03577111
107	0x3d35b82f	0.044365104
108	0x3d07c76d	0.03314917
109	0x3bed5dc9	0.007243846
110	0x3c001440	0.007817328
111	0x3c5ea35f	0.013588755
112	0x3d3b9731	0.045798484
113	0x3b999c05	0.0046877884
114	0x3c3ff856	0.011716923
115	0x3c0d701d	0.008632687
116	0x3d18e0f0	0.037323892
117	0x3d42e648	0.047582895
118	0x3d22e20e	0.039766364
119	0x3b12785f	0.0022349579

net.3.bias f4 [6]
0	0xb3a6343b	-7.739478e-08
1	0x3479536e	2.3220284e-07
2	0xb3e344c6	-1.0583021e-07
3	0xb203b382	-7.666019e-09
4	0x2da3b800	1.8612667e-11
5	0x33039020	3.0631895e-08

net.4.weight f4 [6]
0	0x3ec66408	0.38748193
1	0x3ec58f6b	0.38585982
2	0x3e469806	0.1939393
3	0x3dbea707	0.09309202
4	0x3e21ee21	0.15813495
5	0x3f3700d9	0.7148567

net.4.bias f4 [6]
0	0x3eadc617	0.33940193
1	0x3eb89411	0.36050466
2	0x3e43357d	0.19063373
3	0x3dd0b13b	0.10190054
4	0x3e229b99	0.15879668
5	0x3eb59e58	0.3547237

net.4.running_mean f4 [6]
0	0x3ba79448	0.005114112
1	0x3ba10823	0.0049143
2	0x3b385756	0.0028128228
3	0x3a96a4ad	0.0011493169
4	0x3b133cba	0.0022466616
5	0x3c211d9c	0.00983372

net.4.running_var f4 [6]
0	0x39364975	0.00017384237
1	0x392d94a8	0.00016553944
2	0x38ae292d	8.304636e-05
3	0x380bc6aa	3.3325203e-05
4	0x388ad989	6.620872e-05
5	0x399425fc	0.0002825706

net.6.weight f4 [17, 6]
0	0xbe298f24	-0.1655851
1	0xbe484506	-0.1955758
2	0xbde0b464	-0.10971907
3	0xbd931b9c	-0.071830004
4	0xbdc21604	-0.094768554
5	0x3f015f38	0.5053592
6	0xbd51d0b8	-0.05122444
7	0xbd9769bd	-0.07393215
8	0xbd35bce7	-0.044369604
9	0xbd007169	-0.031358156
10	0xbd29f27b	-0.041491013
11	0x3ecc87ba	0.399473
12	0xbccb3f6c	-0.024810515
13	0xbcd8fdec	-0.026488267
14	0xbc662050	-0.01404579
15	0xbbfb1c6b	-0.0076633
16	0xbc427147	-0.011867828
17	0x3c8af5ac	0.016962849
18	0xbc912484	-0.017717607
19	0xbc9b0a70	-0.018925875
20	0xbc24dc14	-0.010062236
21	0xbbb2c133	-0.00545516
22	0xbc09d107	-0.008411652
23	0x3c35ea9c	0.0111032985
24	0xbc10a937	-0.008829406
25	0xbc1d04f8	-0.009583704
26	0xbba40e41	-0.005006582
27	0xbb32475c	-0.0027203178
28	0xbb88fac4	-0.004180284
29	0x3d06d2b7	0.032915797
30	0xbcf2e1d2	-0.029648695
31	0xbd023b8c	-0.03179507
32	0xbc8abb2d	-0.016934955
33	0xbc143567	-0.009045935
34	0xbc683489	-0.014172682
35	0x3cf4e377	0.02989362
36	0xbbae07b2	-0.005310976
37	0xbbb86939	-0.005627778
38	0xbb4381c8	-0.0029831994
39	0xbacb8271	-0.0015526545
40	0xbb214027	-0.0024604888
41	0x3ba77add	0.005111082
42	0xbd3524ca	-0.044224538
43	0xbd4e7039	-0.050399993
44	0xbce0f405	-0.027460108
45	0xbc85dd3b	-0.016340842
46	0xbcc1d9c7	-0.023663415
47	0x3e3f5b20	0.18687105
48	0xbad68d51	-0.001636902
49	0xbae64bbe	-0.001757018
50	0xba77b503	-0.0009449275
51	0xba0629a8	-0.00051179016
52	0xba4f8755	-0.00079165894
53	0x3b070731	0.0020603652
54	0xbd2a9681	-0.041647438
55	0xbd4607c5	-0.048347253
56	0xbcda0a08	-0.026616111
57	0xbc86e194	-0.016464986
58	0xbcba45fb	-0.022738447
59	0x3e57b264	0.21064144
60	0xbc99842e	-0.018739786
61	0xbca90df0	-0.020636529
62	0xbc357f4d	-0.011077714
63	0xbbc527a2	-0.0060166875
64	0xbc1a26bd	-0.00940865
65	0x3d8d04e5	0.06885699
66	0xbef02c92	-0.46909004
67	0xbeee792b	-0.4657682
68	0xbe701540	-0.23445606
69	0xbdd3da0f	-0.10344326
70	0xbe411578	-0.18855846
71	0x3e99fb01	0.30074313
72	0xbc6cbe26	-0.014449632
73	0xbc7cb576	-0.015424123
74	0xbc030438	-0.007996611
75	0xbb87713b	-0.004133371
76	0xbbd907b2	-0.006623232
77	0x3d674b6a	0.056468405
78	0xbb41a3fb	-0.0029547203
79	0xbb4f5ca3	-0.003164091
80	0xbadcde92	-0.0016850999
81	0xba70f54f	-0.0009191827
82	0xbaba8c09	-0.0014232408
83	0x3bd23824	0.006415384
84	0xbad867dd	-0.0016510446
85	0xbae96ddf	-0.0017809233
86	0xba78786f	-0.0009478395
87	0xba0b1954	-0.00053062034
88	0xba535970	-0.00080623385
89	0x3b115130	0.0022173636
90	0xbc458163	-0.012054774
91	0xbc5477ef	-0.0129680475
92	0xbbe406c4	-0.0069588143
93	0xbb802a3f	-0.003911286
94	0xbbc1f299	-0.0059188125
95	0x3c3c7ef6	0.011504879
96	0xbdb53f55	-0.0884997
97	0xbdc3ede3	-0.09566858
98	0xbd53dc61	-0.05172384
99	0xbcf4e315	-0.029893437
100	0xbd362bea	-0.044475473
101	0x3e4c78a9	0.19967903

net.6.bias f4 [17]
0	0xbe20b26b	-0.15693061
1	0xbcd1f5ba	-0.025629867
2	0xbd3f4ac3	-0.046702158
3	0xbd0ec15f	-0.03485238
4	0x38f0c2ba	0.000114803624
5	0xbd51c66c	-0.05121462
6	0xbc0765c5	-0.00826401
7	0xbc85e388	-0.016343847
8	0xbb359703	-0.0027708418
9	0xbc1dd214	-0.009632606
10	0xbbc2fcde	-0.0059505543
11	0xbea2b0e1	-0.31775573
12	0x3bbabade	0.005698546
13	0xbb539759	-0.0032286255
14	0xbb2322a5	-0.0024892476
15	0xbcbc3404	-0.022974022
16	0xbdeb6837	-0.11494487
