3 types of multi-task models for the Polish dataset/present model.pt (torch_old, 4405 bytes, 14 tensors)

net.0.weight f4 [20, 6]
0	0x3e81f837	0.25384685
1	0xbb804625	-0.003914612
2	0xbde4fba7	-0.111808114
3	0x3dc39d6b	0.095515095
4	0x3c1e01db	0.009643997
5	0x3d9f474e	0.07777272
6	0xbb002a66	-0.0019556521
7	0xb8d8a08c	-0.00010329587
8	0xbb05683a	-0.0020356313
9	0xbbb55190	-0.0055334046
10	0xbac9c05e	-0.0015392413
11	0xbbf39332	-0.0074333185
12	0xbe240a34	-0.16019517
13	0xbe0deb2a	-0.13859239
14	0x3d3366cb	0.043799203
15	0x3e213e2b	0.15746371
16	0xbc8a9d94	-0.016920842
17	0x3d4c0fa3	0.0498196
18	0xbe15f040	-0.1464243
19	0xbcc05171	-0.023476334
20	0xbd1d4045	-0.03839137
21	0x3c54e95c	0.01299509
22	0xbd770b3f	-0.06031346
23	0xbca5a213	-0.020218885
24	0xbd445858	-0.047935814
25	0xb90708b6	-0.00012877848
26	0xbdd7d2d1	-0.10538257
27	0x3d9bc31d	0.07605574
28	0x3ce8354d	0.028345728
29	0xbc704b04	-0.014666323
30	0xbcb0e5ba	-0.021593917
31	0x3dbff09e	0.09372066
32	0x3cb8954e	0.022532132
33	0x3cad4530	0.021151155
34	0xbd3cf049	-0.04612759
35	0xbdbd9fc4	-0.092589885
36	0xbde82cfb	-0.11336704
37	0x3db84689	0.089978285
38	0x3d68c55b	0.056828838
39	0xbdc61dc8	-0.09673649
40	0xbdc6cb37	-0.09706729
41	0xbda59557	-0.08085125
42	0xbc4c2bd1	-0.0124616185
43	0x3d8bb07c	0.06820771
44	0xbcc169e9	-0.023610072
45	0xbd5123f3	-0.051059674
46	0x3e4cce31	0.20000531
47	0xbd9686e1	-0.07349945
48	0x3d6bb1da	0.05754266
49	0x3c364e74	0.011127103
50	0x3c19a620	0.009377986
51	0xbd8a749a	-0.06760521
52	0xbe2dbea9	-0.16967262
53	0x3e0ba3c6	0.13636693
54	0x3e01efa7	0.12689076
55	0xbd55c00a	-0.052185096
56	0x3d9ef1b5	0.07760946
57	0x3e0596c9	0.13045801
58	0x3d3e80cc	0.04650955
59	0x3ca307b1	0.019901128
60	0xbd9f0f84	-0.07766631
61	0xbd82de21	-0.06390024
62	0x3d8484f1	0.06470669
63	0x3dba5ed5	0.09100119
64	0xbceb5db0	-0.028731197
65	0x3ccca149	0.02497925
66	0xbd188ff0	-0.037246644
67	0xbd5e26c7	-0.0542362
68	0xbe4df719	-0.20113792
69	0xbc8fa073	-0.017532563
70	0x3cbef91c	0.023312144
71	0xbcfb8954	-0.030705132
72	0xbcfa1e55	-0.030532042
73	0x3be53448	0.006994758
74	0xbd338508	-0.04382804
75	0x3d4cd704	0.050009742
76	0xbc31fad6	-0.010863027
77	0x3c3d3145	0.011547391
78	0x3aa25199	0.0012383937
79	0xbd12ad48	-0.035809785
80	0xbc2feb84	-0.010737304
81	0x3db46f17	0.08810251
82	0xbe0e2a39	-0.13883294
83	0xbd935106	-0.07193188
84	0xbd3c0d54	-0.04591115
85	0x3da9a397	0.082831554
86	0xbe031181	-0.12799646
87	0xbd602330	-0.054721057
88	0xbd0a801f	-0.033813592
89	0xbd03cd11	-0.03217799
90	0xbd588d4e	-0.052869134
91	0xbcf8d368	-0.030374244
92	0xbd73f44f	-0.059559163
93	0xbe09378e	-0.13400099
94	0xbd4d20f4	-0.050080255
95	0xbc9f08f5	-0.01941345
96	0xbe495e52	-0.19664887
97	0xbbb8c7a8	-0.0056390353
98	0x3d259af2	0.04043097
99	0xbd5f779a	-0.05455742
100	0x3e014442	0.12623695
101	0xbdb7c67f	-0.08973407
102	0x3d9d3f69	0.0767811
103	0xbd41f991	-0.047357146
104	0x3e1b88aa	0.15188852
105	0x3e4abed0	0.19799352
106	0x3d88b978	0.06676
107	0x3d72932d	0.05922239
108	0x3d8d79dd	0.06908009
109	0xbd04153f	-0.032246824
110	0xbbe5a2e4	-0.0070079435
111	0xbd2c30af	-0.042038616
112	0xbdaa0f65	-0.083037175
113	0xbe125653	-0.14290743
114	0x3de8e835	0.11372415
115	0xbe6374ba	-0.22212496
116	0x3a80403b	0.0009784767
117	0x3d1ab675	0.03777166
118	0x3e2c9b2c	0.16856068
119	0xbb90a309	-0.0044139666

net.0.bias f4 [20]
0	0x332526c7	3.8452324e-08
1	0x239eefa5	1.7231888e-17
2	0x3422e4a3	1.5170603e-07
3	0xb3873e44	-6.2977534e-08
4	0x34195aa0	1.4282205e-07
5	0xb50c0430	-5.216016e-07
6	0x32f64b10	2.8672304e-08
7	0x347ffa36	2.3839752e-07
8	0x34802a32	2.387256e-07
9	0xb3a4265c	-7.6438226e-08
10	0xb400ab59	-1.1983265e-07
11	0xb528c7c2	-6.2875563e-07
12	0xb141cef6	-2.820284e-09
13	0xb4d52fa8	-3.9709016e-07
14	0xb3772d9b	-5.7550647e-08
15	0xb41493ec	-1.3837388e-07
16	0xb441d31f	-1.8051331e-07
17	0xb4bf8e44	-3.5680034e-07
18	0x3402f1de	1.2195184e-07
19	0xb529d691	-6.326964e-07

net.1.weight f4 [20]
0	0x3e326e33	0.1742485
1	0x3a7b6d22	0.0009591152
2	0x3e1d8925	0.15384348
3	0x3e3a2955	0.1817983
4	0x3e393356	0.1808599
5	0x3df18511	0.117929585
6	0x3df8a409	0.12140662
7	0x3e160f31	0.14654233
8	0x3dea1ab9	0.11430878
9	0x3e202794	0.15640098
10	0x3df16933	0.11787643
11	0x3e1ed957	0.15512596
12	0x3db6eb18	0.08931559
13	0x3df1e439	0.11811108
14	0x3e17f8aa	0.14840952
15	0x3dd92c19	0.10604114
16	0x3e1f3ee1	0.1555133
17	0x3e2ed466	0.17073211
18	0x3e358e4d	0.17730065
19	0x3e998c34	0.2998978

net.1.bias f4 [20]
0	0x3db394d5	0.08768622
1	0xbbfe4647	-0.0077598426
2	0x3d490ae2	0.049082644
3	0xbd62cd14	-0.05537136
4	0xbe1693df	-0.14704846
5	0xbd44c1cc	-0.04803638
6	0x3d860547	0.06543975
7	0xbc872ca9	-0.016500788
8	0x3d33882d	0.04383104
9	0xbd38996b	-0.045068186
10	0xbd8bded9	-0.06829614
11	0xbbd51e90	-0.0065038875
12	0xbdaa6555	-0.08320109
13	0x3c3b02da	0.011414254
14	0xbdbb1833	-0.09135475
15	0x3d3221ad	0.043489147
16	0xbd1d6a52	-0.038431473
17	0xbc0c3294	-0.008556981
18	0xbdd16c3f	-0.102257244
19	0x3cc2410f	0.023712663

net.1.running_mean f4 [20]
0	0x3b029b65	0.0019929048
1	0x3895827a	7.129177e-05
2	0xbb194a25	-0.002339014
3	0x380a0589	3.290692e-05
4	0x3a06904e	0.00051331974
5	0x39a7c323	0.0003199811
6	0x396f7762	0.0002283729
7	0xba1325d5	-0.00056132424
8	0x3aafed21	0.001342211
9	0xba9f5ac1	-0.0012157784
10	0xbac92715	-0.001534673
11	0x3b06bbe0	0.002055876
12	0x3938acf0	0.00017612032
13	0x3a63b321	0.0008686055
14	0x3b05f437	0.0020439753
15	0x3aabd7d0	0.0013110582
16	0xbafecdfd	-0.0019440051
17	0xbb41f757	-0.002959689
18	0x3ad8bd54	0.0016535916
19	0xba9388ca	-0.0011255976

net.1.running_var f4 [20]
0	0x3d859278	0.06522077
1	0x38b5bda9	8.6660795e-05
2	0x3ce2d326	0.027688574
3	0x3d113924	0.035454884
4	0x3d0fc8bb	0.03510354
5	0x3cd40b47	0.025884284
6	0x3d40daa8	0.047083527
7	0x3ca5dbf6	0.020246487
8	0x3cab0e09	0.020880716
9	0x3cbe3137	0.023216827
10	0x3c2a5fee	0.010398848
11	0x3d00c5bb	0.03143857
12	0x3c59d546	0.013295477
13	0x3cd55e16	0.02604584
14	0x3d02e8f9	0.03196046
15	0x3c788bf5	0.015170087
16	0x3c9413b4	0.018075801
17	0x3cdbb349	0.026818888
18	0x3d3e7d47	0.046506193
19	0x3e04ead4	0.12980205

net.3.weight f4 [6, 20]
0	0xbd15e680	-0.036596775
1	0x3b42c2c5	0.0029718142
2	0xbd25ba3b	-0.040460806
3	0xbd0dfcd0	-0.03466493
4	0xbcf419b3	-0.02979741
5	0x3d8b792c	0.06810221
6	0xbd53bed3	-0.051695656
7	0xbdb219d6	-0.08696334
8	0xbd5d0a17	-0.0539647
9	0x3db99b48	0.09062821
10	0xbbd414f5	-0.006472225
11	0x3dddc27c	0.108281106
12	0xbc4a80f4	-0.012359846
13	0x3c679930	0.014135644
14	0xbad1e597	-0.0016013858
15	0x3d23137b	0.0398135
16	0xbd2b146b	-0.04176752
17	0x3d72d807	0.05928805
18	0xbe0b8872	-0.13626269
19	0x3e10aace	0.14127657
20	0x3d4917d7	0.049095
21	0xbc2d9e26	-0.010596788
22	0x3cdc5191	0.026894363
23	0xbdbd8537	-0.09253924
24	0xbdb01302	-0.085973755
25	0xbd9a4e2e	-0.07534443
26	0x3d1e003b	0.03857444
27	0x3d21b7a2	0.039481767
28	0x3dbbac22	0.09163691
29	0x3cb7f7c2	0.022457007
30	0xbd4c5b70	-0.04989189
31	0xbc2af4e3	-0.010434362
32	0xbd4da237	-0.05020353
33	0x3d18c8a3	0.037300717
34	0xbcbe8839	-0.023258315
35	0x3c55d05b	0.013050164
36	0xbda5a57c	-0.08088204
37	0xbd1d4f15	-0.038405497
38	0x3dd0bc25	0.10192136
39	0xbde4eb5e	-0.11177705
40	0x3d421051	0.04737884
41	0xbbaf0264	-0.005340861
42	0x3bd7e76b	0.0065888665
43	0x3ce6c02a	0.028167803
44	0x3e36ce01	0.17852022
45	0xbd94eb93	-0.07271495
46	0xbd51994f	-0.051171597
47	0x3cc7446e	0.024324622
48	0x3da7a271	0.0818528
49	0x3d0f6e56	0.035017334
50	0xbdc5a2b2	-0.09650172
51	0x3d59a232	0.053133197
52	0x3d84ed82	0.064906135
53	0x3ca13e35	0.019682983
54	0x3dcdae67	0.1004303
55	0xbdb50837	-0.088394575
56	0x3d04475c	0.032294616
57	0xbd6149a5	-0.055001874
58	0x3d47e6e1	0.048804168
59	0xbdf40809	-0.11915595
60	0x3e5135f3	0.20430736
61	0x3b2b0842	0.0026097451
62	0xbce78b9d	-0.028264815
63	0x3df84487	0.121224456
64	0x3d1eb9f5	0.03875156
65	0x3a83965c	0.0010039317
66	0xbdbe13ca	-0.09281118
67	0xbdd20cc4	-0.10256341
68	0xbd2f6432	-0.042820163
69	0x3d86d367	0.065832905
70	0x3c9cb68f	0.01913002
71	0x3df14b95	0.11781994
72	0x3d82b697	0.063824825
73	0xbdb2a37b	-0.08722588
74	0x3d92030e	0.07129489
75	0x3d86f893	0.065903805
76	0xbd440748	-0.047858506
77	0x3d8f2275	0.06988994
78	0x3bfe8b21	0.0077680503
79	0x3d3cf100	0.046128273
80	0x3d8c729c	0.068577975
81	0xb95fa170	-0.00021327077
82	0x3d4b6b30	0.04966277
83	0x3e010094	0.12597877
84	0xbd017034	-0.031601146
85	0xbc55cf6f	-0.013049944
86	0xbd9dbccb	-0.07702025
87	0x3d264bb4	0.04059954
88	0x3d785554	0.06062825
89	0x3d8d0fdd	0.06887791
90	0xbdb2aaaf	-0.087239616
91	0x3d0389c9	0.032113824
92	0xbd3ca38b	-0.046054404
93	0x3dc4112b	0.09573587
94	0x3e054303	0.13013844
95	0xbda41772	-0.08012284
96	0x3cccf2b0	0.025018066
97	0xbd87df47	-0.06634384
98	0x3cac3f77	0.021026356
99	0xbe184b13	-0.14872389
100	0xbd915009	-0.070953436
101	0x39547779	0.00020262403
102	0x3e161f27	0.14660321
103	0x3bfe9fdf	0.007770523
104	0xbd6da0e3	-0.05801476
105	0xbd1fc098	-0.03900203
106	0x3de9e0ef	0.11419856
107	0xbd37ccc1	-0.044873003
108	0xbc9b490d	-0.018955732
109	0x3d76e8e3	0.06028069
110	0xbd61674a	-0.055030145
111	0x3c61050f	0.013734116
112	0xbcc5fae5	-0.024167487
113	0x3c78fc42	0.015196862
114	0xbd206c9b	-0.039166074
115	0x3c9d8725	0.019229481
116	0x3e1baf7b	0.15203659
117	0xbd1b264b	-0.037878316
118	0xbce89580	-0.0283916
119	0x3de54fdc	0.111968726

net.3.bias f4 [6]
0	0x36906cfc	4.304222e-06
1	0x35700256	8.9410366e-07
2	0x35b5da29	1.3549044e-06
3	0xb631583b	-2.6426412e-06
4	0x36d81164	6.439326e-06
5	0xb623abb1	-2.438883e-06

net.4.weight f4 [6]
0	0x3f8346d9	1.0255996
1	0x3f0107ab	0.50402325
2	0x3f49a9f3	0.78774947
3	0x3f812bc4	1.0091481
4	0x3f668a76	0.90055025
5	0x3f134b92	0.57537186

net.4.bias f4 [6]
0	0x3efd42af	0.49464938
1	0x3df0527f	0.11734485
2	0x3ec17fa8	0.37792706
3	0x3ec467fe	0.3836059
4	0x3f013f37	0.50487083
5	0x3ebc5cd9	0.36789587

net.4.running_mean f4 [6]
0	0x3c347939	0.01101523
1	0xbbe174e5	-0.00688039
2	0xbb802ba6	-0.0039114533
3	0x3d0dd4cd	0.03462677
4	0x392a87c9	0.00016263047
5	0x3d06981a	0.0328599

net.4.running_var f4 [6]
0	0x3aab38d0	0.0013063196
1	0x39df973d	0.00042646556
2	0x3a7c0057	0.0009613088
3	0x3b101243	0.002198354
4	0x3ab80017	0.0014038113
5	0x3a11b090	0.0005557621

net.6.weight f4 [17, 6]
0	0x3e984b22	0.29744822
1	0xbe919f27	-0.28441736
2	0xbec3d287	-0.38246557
3	0x3ecbb44a	0.39785987
4	0xbe9bd3b2	-0.30434948
5	0xbe923e09	-0.28562954
6	0x3ebda299	0.37038115
7	0xbe3fe23d	-0.18738647
8	0xbe3ebb52	-0.18626145
9	0x3eb87f0e	0.36034435
10	0xbebdb09a	-0.370488
11	0xbe944e6a	-0.28966075
12	0x3e99ec42	0.30063063
13	0xbd85ebbd	-0.06539104
14	0xbe3cf0f8	-0.18451297
15	0x3e747941	0.2387438
16	0xbe7c0dca	-0.24614635
17	0xbdfb1779	-0.122603364
18	0x3e81d482	0.25357443
19	0xbd5a1b3d	-0.053248633
20	0xbe2c42f6	-0.16822419
21	0x3e3fac3e	0.18718049
22	0xbe567f59	-0.20947017
23	0xbd998f03	-0.074979804
24	0x3e667cdf	0.22508572
25	0xbd78e299	-0.060762975
26	0xbdc7d619	-0.09757633
27	0x3e5c28de	0.21499965
28	0xbe209528	-0.15681899
29	0xbdfe5225	-0.124180116
30	0x3ea16a2f	0.31526324
31	0xbd9a503f	-0.07534837
32	0xbe3aedd5	-0.18254788
33	0x3e86f844	0.26361287
34	0xbe786a4c	-0.24259299
35	0xbe0a5b30	-0.13511348
36	0x3e0f334c	0.13984412
37	0xbcde9ead	-0.027175272
38	0xbdb6a70c	-0.089185804
39	0x3dd96aac	0.10616049
40	0xbde6d5dd	-0.1127126
41	0xbd23fa8d	-0.040033866
42	0x3eb721bb	0.35767922
43	0xbe1686cd	-0.1469986
44	0xbe249a71	-0.1607454
45	0x3ec2d082	0.38049704
46	0xbea86c5c	-0.32895172
47	0xbe89d0d5	-0.2691714
48	0x3d87f76c	0.06638989
49	0xbc452de2	-0.012034865
50	0xbd375021	-0.04475415
51	0x3d4a9dbd	0.049466837
52	0xbd6296e4	-0.05531968
53	0xbc804af7	-0.015660746
54	0x3ebb4a92	0.3658033
55	0xbe021bf3	-0.12705974
56	0xbe52f81e	-0.20602462
57	0x3eb321cb	0.3498672
58	0xbea7878d	-0.32720605
59	0xbe780083	-0.24218945
60	0x3eab31d4	0.33436453
61	0xbdaa2f68	-0.08309823
62	0xbe371146	-0.17877683
63	0x3e9539e8	0.2914574
64	0xbe8a07df	-0.2695913
65	0xbe245b42	-0.16050437
66	0x3ebdbd04	0.3705827
67	0xbe37a90c	-0.1793558
68	0xbf003c73	-0.5009224
69	0x3e6de756	0.23232779
70	0xbe8fd582	-0.2809258
71	0x3d92dea7	0.07171374
72	0x3ea16c25	0.3152782
73	0xbd9de6b4	-0.07710019
74	0xbe3679cb	-0.17819898
75	0x3e886823	0.2664195
76	0xbe7c1ac1	-0.24619581
77	0xbe12780f	-0.14303611
78	0x3e06438c	0.13111705
79	0xbcccd1ee	-0.025002446
80	0xbda080c6	-0.078370616
81	0x3dd224fc	0.102609605
82	0xbdcf43ef	-0.10120379
83	0xbd216926	-0.039406918
84	0x3d8fd82b	0.07023653
85	0xbc5645c9	-0.0130781615
86	0xbd3b6c61	-0.045757655
87	0x3d56bbcd	0.052425195
88	0xbd6a403f	-0.057190176
89	0xbc88e4cd	-0.016710663
90	0x3e6ec01a	0.23315468
91	0xbd3b110e	-0.04567056
92	0xbe263378	-0.16230571
93	0x3e2bb9e5	0.16770132
94	0xbe4ec752	-0.20193222
95	0xbd80c52d	-0.06287608
96	0x3ebf82e5	0.37404552
97	0xbe1c9f60	-0.15295172
98	0xbea20576	-0.3164479
99	0x3ea24de6	0.31700057
100	0xbe94dbb6	-0.29073876
101	0xbe7b7768	-0.24557269

net.6.bias f4 [17]
0	0x3e2492d6	0.16071638
1	0x3d806742	0.06269695
2	0xbc61fe6c	-0.013793569
3	0xbc3392fd	-0.010960338
4	0xbca40cd9	-0.020025657
5	0xbca1caae	-0.019749966
6	0xbbb3d2ed	-0.005487791
7	0xbbfedb24	-0.0077775884
8	0xbb09eb16	-0.0021044663
9	0x3c8f6f5f	0.01750916
10	0xbc74f748	-0.014951535
11	0x3d4f726e	0.050646238
12	0xbc810bf2	-0.015752766
13	0xbb7c3397	-0.0038482898
14	0xbae0cd03	-0.0017150942
15	0xbbf37c51	-0.007430591
16	0x3d1d3e51	0.038389508
