3 types of multi-task models for the Polish dataset/transferred model.pt (torch, 6761 bytes, 14 tensors)

net.0.weight f4 [20, 6]
000000 70 fb 49 bc 0f b5 1a 3d 9d f6 83 3d 38 52 09 be
       -0.012328014 0.037770327 0.06443522 -0.1341027
000010 10 e9 5f be 45 2c 09 3e eb 46 11 3c f9 d0 aa bd
       -0.2186625 0.13395794 0.008867006 -0.083406396
000020 44 48 38 3d cb f7 1b 3d 6a bd 2b 3d eb b8 33 bc
       0.044990793 0.03807811 0.041928686 -0.010969381
000030 13 59 fd 37 5f f6 6d ba 75 ac 8c 3a 72 01 52 b9
       3.0201429e-05 -0.00090775447 0.0010732549 -0.00020027699
000040 93 b7 d9 3a 80 7c 10 bb a8 c2 d2 3b b0 4d 87 bd
       0.0016610496 -0.0022046864 0.0064318962 -0.066066146
000050 8f 38 12 bd 2a 4c aa bb ba 1d aa 3d 80 61 a1 bc
       -0.03569847 -0.0051970677 0.08306451 -0.019699812
000060 5b e1 42 3e 17 d9 94 3d ae 84 d6 bd 98 49 64 3c
       0.19031279 0.07267969 -0.104745254 0.013933562
000070 45 97 80 bc 44 c3 57 3d 0b a2 0c 3d 9d 86 56 be
       -0.015697131 0.052676454 0.034334224 -0.20949788
000080 0f 5b 32 3d 9d 6a 91 3d 94 07 83 3d e9 36 f8 3c
       0.04354387 0.07100413 0.0639793 0.03029962
000090 b9 40 22 3e e7 6f 90 3d a0 77 28 3e 6a ea 1d 3e
       0.15845002 0.07052594 0.16451883 0.15421453
0000a0 3b b7 12 3d 26 c9 c3 3d 58 a9 26 3d e2 bc ff 3c
       0.035819273 0.095598504 0.040688843 0.031217996
0000b0 64 7a 43 be b8 a6 f8 bd cc 47 bd 3b 6f a9 fc bc
       -0.19089657 -0.12141174 0.005776381 -0.030842511
0000c0 ca 4d f0 bc 4d ea f2 bb 77 0e 9b 3d a5 47 9f 3d
       -0.029333968 -0.0074131847 0.07571118 0.07777337
0000d0 0d 73 a7 bd c5 71 e5 3a 8e a9 02 3e ed 4d 0a 3e
       -0.08176241 0.001750522 0.12759992 0.13506289
0000e0 87 0f 9e bd 7b 26 f9 bd 02 05 32 bd 8e e5 03 bd
       -0.07717805 -0.12165543 -0.043461807 -0.032201342
0000f0 5d 0e be bd c4 0e e8 bd b5 f8 f8 3c 8f e3 a7 3d
       -0.09280083 -0.11330941 0.03039203 0.081977
000100 c4 51 a7 3c bc a8 24 be 5e 2d 8a bd 58 0b 46 3d
       0.020424731 -0.16079992 -0.06746934 0.048350662
000110 98 70 b8 bd fa d0 6d bc b1 a4 ed 3c 17 10 b0 bc
       -0.090058506 -0.014515156 0.029009195 -0.021492047
000120 8b 36 ba 3d 77 e2 0f be 46 6a e1 bc 36 db 7b bd
       0.090924345 -0.14051233 -0.027516495 -0.061488353
000130 27 a2 b4 3d bd db f8 bc 26 fd 8f 3c 98 83 d2 3d
       0.088199906 -0.030378217 0.017576765 0.10279006
000140 37 99 8a 3d e3 b1 39 bc 41 ad 85 bd 35 2f 47 bd
       0.06767505 -0.011333915 -0.06527186 -0.048629005
000150 bd 3e 28 bc 02 6a 2e 3d d2 ce 10 be 62 ca fc 3c
       -0.010268864 0.042581566 -0.14141396 0.030858222
000160 3c 86 04 be 8c a1 f7 3c e6 bb 62 3c 78 47 d1 3d
       -0.12941831 0.030228399 0.013838744 0.1021871
000170 fa 7d 52 3d c4 21 a0 3d 64 2b bb 3d ef a4 d4 3c
       0.05138967 0.0781894 0.091391355 0.025957553
000180 c5 b4 7c 3e c9 c4 56 be ed 0e 89 bd c0 ef 33 3e
       0.24678333 -0.20973505 -0.066923 0.17571926
000190 0d 67 0f 3c 88 79 86 3d 78 e4 53 3c e3 36 38 bc
       0.008752597 0.06566149 0.012932889 -0.011243555
0001a0 86 4a c1 3c cf 16 d8 bc 62 a8 a6 bc 43 8d e5 3b
       0.023595106 -0.026378063 -0.020343963 0.007005365
0001b0 e7 bb 45 bc 65 a3 2f 3c 78 9d 62 be 68 27 38 bd
       -0.012068725 0.010720109 -0.22130382 -0.044959456
0001c0 68 39 9c bb a6 c5 7e bd eb 5c 07 be 13 56 3f 3c
       -0.0047675855 -0.06220021 -0.13219039 0.011678237
0001d0 58 f8 02 3b 6f 66 d5 bd 29 6d 13 3d 8c d5 c1 bd
       0.001998445 -0.10419928 0.035992775 -0.09464559

net.0.bias f4 [20]
000000 79 43 15 b4 c1 73 68 34 c3 01 00 80 1e 1e 1d b4
       -1.3901253e-07 2.1648795e-07 -6.32e-43 -1.4632721e-07
000010 a0 39 bd b2 fc c5 69 b4 0f 72 3e 34 52 02 a4 b3
       -2.20287e-08 -2.1771842e-07 1.7736623e-07 -7.637267e-08
000020 12 97 05 33 27 e3 29 34 ed f7 89 31 d3 06 f5 b5
       3.1103873e-08 1.5821989e-07 4.0154107e-09 -1.8255909e-06
000030 4f 67 bc b2 64 ce 02 b3 82 e6 01 b5 1b 7c a6 33
       -2.193306e-08 -3.0455695e-08 -4.839168e-07 7.752552e-08
000040 47 0c 2c 34 10 e4 17 b3 10 ca f5 33 ba 51 09 b4
       1.6023215e-07 -3.536485e-08 1.14454565e-07 -1.2788851e-07

net.1.weight f4 [20]
000000 62 d6 0a 3e e9 5e e5 3d 55 f3 ed 39 b2 7f d9 3d
       0.13558343 0.11199743 0.0004538546 0.10620059
000010 73 12 20 3e 06 80 66 3e 20 30 49 3e 4a 6c 1d 3e
       0.15632038 0.22509775 0.19647264 0.1537334
000020 af b8 fa 3d 0f a2 53 3e b1 b2 2f 3e 9f b2 fb 3d
       0.12242257 0.20667289 0.17158009 0.12289929
000030 ea 31 50 3e 8b c4 9c 3d ff 42 50 3e d4 31 f8 3d
       0.2033154 0.07654675 0.20338057 0.12118879
000040 2a b5 c0 3e 46 4d 43 3d ef 24 29 3e d8 53 f3 3d
       0.37638217 0.047681116 0.16517995 0.11881226

net.1.bias f4 [20]
000000 ab 62 83 3d ec 19 80 bd de 8f 17 bb 40 4e 16 bd
       0.06415304 -0.06254944 -0.0023126523 -0.03669572
000010 27 75 79 3d ad 1a c3 bc 8a 9d 06 3d 5f ec 8b bd
       0.06090274 -0.023816431 0.032865085 -0.068321936
000020 17 bd 1c bc 6b 4a b3 bd 85 0d 86 bd 42 46 9a bd
       -0.009566567 -0.087544285 -0.065455474 -0.07532932
000030 4f dc 09 3c 11 bb fe 3b 93 4c 58 bd 63 a3 de 3d
       0.008414342 0.007773765 -0.052807402 0.10871007
000040 f9 80 17 be bf 46 22 3b de 7e bf 3c 5b 5a 43 3d
       -0.14795293 0.0024761406 0.023375925 0.04769359

net.1.running_mean f4 [20]
000000 c8 ab c6 bd b6 d7 41 3c 32 0f f4 b8 a9 b0 84 3d
       -0.097007334 0.011831215 -0.00011637657 0.06479008
000010 72 28 5f 3e 45 33 a1 3d d6 d3 02 3d 7e 2d 1a 3e
       0.21792772 0.07871107 0.031940304 0.15056416
000020 73 34 bf bd ac 6b f5 3d 13 f0 a4 bd 15 03 78 bc
       -0.09336176 0.119834274 -0.08053603 -0.015137454
000030 39 53 26 3e 65 f2 93 bd 60 40 13 3d 0f 26 f2 bc
       0.16242684 -0.072239675 0.035950065 -0.029559163
000040 f2 a5 a7 3e 90 ff 12 bb f4 d7 f2 3d 13 b0 f4 bd
       0.32743794 -0.002243016 0.11857596 -0.11947646

net.1.running_var f4 [20]
000000 91 cb c3 3d 00 b9 90 3b 12 95 24 37 b1 1a 34 3c
       0.095603116 0.004416585 9.80987e-06 0.010992692
000010 d5 83 b6 3c 46 d1 de 3c db f4 a3 3c b5 63 b3 3c
       0.02227966 0.027199399 0.020014217 0.02189813
000020 a9 a1 db 3c 84 af 81 3c c9 53 a8 3c 08 ab 87 3c
       0.026810484 0.015830763 0.020547764 0.016561046
000030 b6 81 3b 3d 31 09 d6 3b 0c ca 1f 3d f8 2c 0a 3d
       0.045778 0.0065318574 0.039011046 0.03373429
000040 9e 6d b2 3d 43 33 22 3b 0c 25 93 3c 38 88 b8 3c
       0.08712314 0.0024749793 0.017962001 0.022525892

net.3.weight f4 [6, 20]
000000 3a eb 3a 3b fe 96 16 3d aa 2b 6a b8 60 24 4c bd
       0.0028521554 0.03676509 -5.5830613e-05 -0.049839377
000010 00 1e 5e 3d a6 1e ae bb 49 1b 2a bd 6c 61 ad ba
       0.05422783 -0.005313712 -0.041529927 -0.0013227887
000020 c9 cb 10 bd 24 3a 3e bd 16 c2 9b 3c c7 dd 5d 3c
       -0.035350595 -0.046442166 0.019013446 0.013541645
000030 49 5e 90 bd 28 46 ff 3b 1b e0 8d 3d 57 e8 0c 3d
       -0.070492335 0.0077903457 0.0692751 0.034401264
000040 fe 36 ab 3c f9 d6 2b 3d 00 3f 12 3d bc 96 20 bd
       0.020900246 0.04195306 0.035704613 -0.03920625
000050 50 1d ab 3d 47 75 93 bd 9a 96 0e bb 8e 0a 42 bd
       0.083552 -0.07200103 -0.0021757246 -0.047373347
000060 01 ae e6 3c b5 2b 3a be 0d 57 6e bd 69 a6 a8 bd
       0.028159143 -0.18180735 -0.058188487 -0.08234865
000070 8f a6 77 3c 72 ca bc bc ff 38 7c 3c 04 24 91 bd
       0.015115394 -0.023045752 0.015394448 -0.070869476
000080 1e b9 a9 bd 80 48 2f 3d 8e 3e c7 bd 27 56 c2 3c
       -0.082872614 0.04279375 -0.09728728 0.023722721
000090 fc ac bf 3d 94 36 0b 3d ae e6 1e 3d 1e af 64 3c
       0.09359166 0.033987597 0.038794212 0.013957767
0000a0 70 e8 47 3d 19 e4 4a 3c 29 79 77 ba b9 82 7c bc
       0.048805654 0.012383484 -0.00094403565 -0.015412026
0000b0 e9 fd 94 3d f6 08 8c 3b e6 c0 bf bc 56 1b 00 bd
       0.07274992 0.004273529 -0.02340741 -0.03127607
0000c0 d7 75 83 bd 6d d3 c8 bd 43 78 99 3d af 04 bb 3d
       -0.064189605 -0.09805951 0.07493641 0.09131753
0000d0 81 31 03 be 6d 34 c1 bd 75 65 26 3e 5d b6 84 3d
       -0.12811853 -0.094338275 0.1624964 0.064800955
0000e0 26 7c f2 3c f5 87 9c 3c aa c3 e7 3d db a8 3a bd
       0.029600214 0.019107798 0.11316617 -0.04557119
0000f0 f6 51 52 3d 67 d3 1e ba e3 3e cd ba 3b f0 99 3d
       0.051347695 -0.0006058723 -0.0015659 0.075165235
000100 fc 1a 31 be 66 03 98 bd 02 61 6c bd 97 0b 82 bd
       -0.1729545 -0.07422523 -0.0577097 -0.06349867
000110 f8 a2 7f 3d e0 c5 f9 3c d5 08 ec 3d 9f 24 bf bc
       0.06241128 0.030489862 0.11525122 -0.023332892
000120 06 92 7a 3c e5 0e 0f bd 8e 1e 22 3d 3f a0 a4 3c
       0.015293604 -0.034926314 0.03957992 0.020095943
000130 76 e7 0c 3e fc 3f 18 3c 35 b9 c6 bc 36 20 08 3e
       0.1376017 0.009292599 -0.024258235 0.13293537
000140 fa c4 a2 bd da fa 70 3d 8d 9d b8 bb eb 26 94 bc
       -0.079477265 0.05883298 -0.005634016 -0.018084964
000150 9a 27 91 3b 9e 97 21 3d 25 34 96 3d 1c 37 50 3d
       0.0044297697 0.039451234 0.073341645 0.050833806
000160 3b ac 2e bd df a9 12 be 95 ea a0 bd 77 db 40 bd
       -0.04264472 -0.14322613 -0.07857243 -0.047084298
000170 61 86 80 3d dc 45 8b 3b a1 86 5d bd 25 8a d5 bd
       0.06275631 0.0042502712 -0.05408347 -0.104267396
000180 77 0d 4b 3e 54 80 ac ba 89 0e 02 3e cc 4a 61 bd
       0.19829355 -0.0013160803 0.12700857 -0.055002972
000190 8a 10 39 3d 81 cd d1 3c 67 71 1b 3a 0a 8d 25 3d
       0.04518179 0.025610687 0.0005929679 0.04041771
0001a0 a8 71 c2 bd 84 a0 a1 bd ca dc dd bd 43 a0 be bd
       -0.094943345 -0.07891944 -0.10833128 -0.09307911
0001b0 33 83 b2 bd 8b 9b f5 bd 1c 6c d9 3a 11 5a 73 3d
       -0.087164305 -0.11992558 0.0016588005 0.059412066
0001c0 83 4c c3 bd 5b a9 01 bd 3f d2 18 3d bd b2 b8 3d
       -0.09536078 -0.03165565 0.03730988 0.090184666
0001d0 45 90 38 3e dd eb 5c 3b cb 7d 93 3d a2 7b ca 3c
       0.18023784 0.0033709921 0.072017275 0.024717156

net.3.bias f4 [6]
000000 46 2a e2 35 88 f5 13 36 1a 0b 21 37 1b 14 f5 36
       1.6850615e-06 2.2047625e-06 9.598933e-06 7.3039096e-06
000010 b5 59 47 b6 23 f1 62 36
       -2.9705527e-06 3.3816984e-06

net.4.weight f4 [6]
000000 12 d0 ed 3e b9 49 1f 3f a2 ee 61 3f 26 57 11 3f
       0.46447808 0.62221867 0.8825475 0.567736
000010 c1 65 a9 3f 73 78 14 3f
       1.3234178 0.5799629

net.4.bias f4 [6]
000000 89 cc 56 3e 81 37 e7 3e 81 5f d8 3e f5 3c c9 3e
       0.20976461 0.45159534 0.42260364 0.3930432
000010 e6 c9 02 3f 14 e4 9b 3e
       0.5108932 0.30447447

net.4.running_mean f4 [6]
000000 a7 1d 13 3b af 30 3b bc 9d d5 8b 3c 8c f7 27 3c
       0.0022448094 -0.011425181 0.017069632 0.010251891
000010 ee e5 82 3b 8b c6 a2 bb
       0.003994695 -0.004967516

net.4.running_var f4 [6]
000000 81 55 10 39 e4 6e 2f 3a 35 ab 60 3a ce d4 62 3a
       0.00013764763 0.0006692244 0.0008570434 0.0008652926
000010 6d 04 4a 3b 1f c1 39 3a
       0.0030825392 0.0007085967

net.6.weight f4 [17, 6]
000000 a2 3c 81 be fd a5 39 be d8 7c af be 41 88 46 be
       -0.25241572 -0.18129726 -0.34274936 -0.19387914
000010 56 14 ca 3e 1f 41 1c be 80 86 cb b8 c3 50 37 be
       0.3946864 -0.15259217 -9.704847e-05 -0.17901902
000020 67 88 83 be ce 88 8b be eb b5 ca 3e c9 6c ef bd
       -0.25690004 -0.2725281 0.39591917 -0.11690671
000030 9d 54 3c be fa c3 57 be 7a 0b a0 be 51 20 35 be
       -0.18391652 -0.21070853 -0.31258756 -0.17688109
000040 ed 88 8e 3e 5f de 5e be 61 5c 3c be b2 ca 51 be
       0.2783884 -0.21764515 -0.18394615 -0.20487478
000050 81 be 91 be 62 68 1f be b3 22 56 3e fd f5 48 be
       -0.28465655 -0.15567163 0.20911674 -0.19625087
000060 65 e2 16 be 51 e7 f1 bd ce fd 5f be 0a 06 58 be
       -0.147348 -0.11811698 -0.21874163 -0.21096054
000070 f4 f4 cc 3e 44 e2 ba 3b 10 9a 39 be f1 63 63 be
       0.40030634 0.0057032425 -0.18125176 -0.22206093
000080 84 70 99 be 3f 1e 3e be ce 04 a3 3e 3f ad 50 be
       -0.29968655 -0.18566225 0.31839603 -0.20378588
000090 6f 4d 0e be 47 ed 1c be e0 2d 46 be 5d 0a 03 be
       -0.13896726 -0.15324889 -0.19353437 -0.12796922
0000a0 c8 e2 49 3e c0 58 17 be 56 bd c8 bc 63 aa fd bd
       0.19715416 -0.14779949 -0.024504345 -0.12386014
0000b0 95 8d 1a be d7 fe 51 be c9 79 d8 3e c7 4c 0e be
       -0.15093072 -0.2050737 0.42280415 -0.13896476
0000c0 08 f1 ea bd c4 25 f9 bd 83 0a 15 be 6a 32 e0 bd
       -0.11471754 -0.12165406 -0.14554791 -0.10947116
0000d0 05 09 34 3e 59 ef f8 bd 2f 45 20 bd 0d 91 f6 bd
       0.17581566 -0.12155027 -0.03912848 -0.12039385
0000e0 8e c1 54 be c8 31 2d be 30 9c d3 3e 0b 7e 09 be
       -0.2077696 -0.16913521 0.413301 -0.13426988
0000f0 c7 bd c6 bd 08 bd ca bd 64 38 22 be 74 19 9a bd
       -0.09704166 -0.09899336 -0.15841824 -0.07524386
000100 37 05 b5 3e cd 69 84 bd 2f 44 d8 be c4 43 c5 be
       0.3535554 -0.064654924 -0.4223952 -0.38528264
000110 99 14 00 bf 6b f5 53 bd 61 d2 8f 3e c0 23 94 be
       -0.5003143 -0.05174772 0.28090194 -0.28933525
000120 ca 55 53 bd e4 a6 a5 bd 3b d5 41 be 5e 08 64 bd
       -0.051595487 -0.080884725 -0.18928997 -0.055672042
000130 e5 00 a6 3e 91 8e 6c bd ed c7 fb bd 17 83 08 be
       0.32422557 -0.05775315 -0.12293992 -0.13331257
000140 f7 17 2e be a6 f6 e3 bd 2e 02 85 3e 19 41 e9 bd
       -0.1700133 -0.11131029 0.25978225 -0.113893695
000150 51 7b e1 bd c7 41 f6 bd 5f e6 14 be e7 c6 e0 bd
       -0.11009849 -0.12024265 -0.14541005 -0.109754376
000160 6a ce 38 3e 68 a0 f9 bd 21 e8 34 be 58 cb 45 be
       0.1804749 -0.12188798 -0.17666675 -0.1931585
000170 1d d4 8d be 08 83 12 be 83 54 43 3e 49 9e 41 be
       -0.27700892 -0.14307797 0.19075207 -0.18908037
000180 55 73 09 be 2a 45 2f be 7c 4f cc be c4 4b f4 bd
       -0.13422902 -0.17116228 -0.39904392 -0.11928514
000190 5f e4 c0 3e 50 09 93 be
       0.37674233 -0.28718042

net.6.bias f4 [17]
000000 2b 8f 31 3e e4 d6 b0 3e 66 4a 7a bd 71 2a a5 bd
       0.1733977 0.3453895 -0.061106108 -0.08064736
000010 3f 4a bf 3d 09 c1 84 bd ff ab bc bd 33 be 56 3e
       0.09340333 -0.06482131 -0.09212493 0.20970993
000020 15 2e c3 bd 17 00 3f 3e 43 bb ca 3d bc aa 2e 3e
       -0.09530274 0.18652378 0.098989986 0.17057317
000030 69 d6 a7 3d b3 12 6d bd d3 30 bd bd 53 2d 9f bd
       0.08195192 -0.05787916 -0.09237828 -0.07772317
000040 b7 3d 27 3d
       0.04083034
