30 weight-optimized multi-task models/model_2.pt (torch_old, 4405 bytes, 14 tensors)

net.0.weight f4 [20, 6]
0	0x3dae5957	0.08513134
1	0xbda46ea3	-0.08028915
2	0x3c9e4f7e	0.019325014
3	0xbcd3898b	-0.025822422
4	0x3d91ea17	0.07124727
5	0x3d5a255a	0.053258277
6	0x3d4d4d2e	0.050122432
7	0x3e50a54f	0.2037556
8	0x3c1fe79d	0.009759811
9	0xbe338675	-0.1753176
10	0x3d49b1b6	0.049241744
11	0xbdd3ca22	-0.10341288
12	0x393f05e2	0.00018217371
13	0xba5865d9	-0.00082549226
14	0xbafd165e	-0.0019309034
15	0xba610880	-0.00085843354
16	0xba3ff831	-0.0007323055
17	0x39eb7eea	0.0004491725
18	0xbdae6681	-0.08515645
19	0xbca67b71	-0.020322533
20	0xbcdc02ee	-0.026856866
21	0xbd1bf32e	-0.03807371
22	0x3e33dc82	0.17564586
23	0xbdddf7fa	-0.108383134
24	0xbe1843d3	-0.14869623
25	0xbda753a3	-0.08170249
26	0x3e172399	0.14759673
27	0x3e21ea80	0.15812111
28	0xbcd53813	-0.026027715
29	0x3cc9ccda	0.024633814
30	0xb433c3dd	-1.6741929e-07
31	0x383f97ce	4.5679328e-05
32	0xba097f47	-0.0005245101
33	0x3805eea8	3.1931937e-05
34	0x3aa62001	0.0012674333
35	0xb93005de	-0.00016786854
36	0xbce6efa7	-0.028190447
37	0x3d3ff843	0.04686762
38	0xbd09a406	-0.03360369
39	0x3d77b251	0.06047279
40	0xbca5a514	-0.020220317
41	0x3b565b1e	0.0032708119
42	0x3dadf760	0.08494449
43	0xbe2299dd	-0.15879007
44	0x3ca6e74b	0.020373961
45	0xbd9cd58a	-0.07657917
46	0x3da2a39c	0.07941362
47	0x3d434f07	0.04768279
48	0x3dafac52	0.08577789
49	0xbe30ab1f	-0.17252778
50	0x3ccba10c	0.024857067
51	0x3bafb9ca	0.005362724
52	0x3daf997c	0.08574197
53	0xbb4b5b06	-0.0031029596
54	0xb9280611	-0.00016023988
55	0x3b12accc	0.0022380827
56	0x3b5777bc	0.0032877764
57	0xbb390251	-0.002823014
58	0xbb6e126b	-0.0036326896
59	0xba086213	-0.00052026025
60	0xbdf3df4a	-0.119078234
61	0xbc8db482	-0.017297987
62	0xbe275a20	-0.16342974
63	0x3df0908c	0.1174632
64	0xbdbe40df	-0.09289717
65	0x3c9b3d78	0.018950209
66	0xbd15d34d	-0.036578465
67	0x3dbd9ac2	0.09258033
68	0x3d36d739	0.044638846
69	0x3da6383e	0.08116196
70	0x3d82ad08	0.06380659
71	0x3cd974bd	0.026544923
72	0x3e75c8db	0.24002402
73	0xbe30bbec	-0.17259187
74	0xbdd0b43b	-0.10190626
75	0x3e22693d	0.15860458
76	0x3c271ea6	0.010200178
77	0x3d617b2a	0.0550491
78	0x3d8f276d	0.06989942
79	0x3c953f4f	0.018218664
80	0xbe26ab1d	-0.16276212
81	0xbe3c0ae5	-0.18363531
82	0xbd32fdbd	-0.043699015
83	0xbd9ce0e4	-0.07660082
84	0x3d50b767	0.050956156
85	0xbd1f64a8	-0.038914353
86	0x3cf95dbc	0.030440204
87	0xbd0e220c	-0.03470044
88	0xbdda6275	-0.106633104
89	0xbdeb9bc9	-0.11504323
90	0x35dc9286	1.6433921e-06
91	0xb6b5931d	-5.4113466e-06
92	0xb66ffc88	-3.5760768e-06
93	0x378066b8	1.5306621e-05
94	0xb9114d12	-0.00013856989
95	0x3985a1b7	0.00025488224
96	0x3deabff0	0.114623904
97	0x3d3127b7	0.043250766
98	0x3e382ffd	0.17987056
99	0x3e280b50	0.16410565
100	0x3d666b19	0.05625448
101	0x3d32a442	0.04361368
102	0x3e0d1d22	0.13780645
103	0xbc7d1fef	-0.015449508
104	0xbe4c818b	-0.19971292
105	0x3ca17e00	0.019713402
106	0x3ba4d82d	0.005030653
107	0x3d6f5db2	0.058438964
108	0xbe60a930	-0.2193954
109	0xbe1c3a15	-0.15256532
110	0x3d1f0d9c	0.03883134
111	0x3d6b8d3b	0.057507735
112	0x3d1f299f	0.038858052
113	0xbdb0dd69	-0.08635981
114	0xbcbb17ee	-0.022838559
115	0x3e157050	0.14593625
116	0x3d32052b	0.04346196
117	0xbe0a18dc	-0.13486046
118	0xbe5ed019	-0.2175907
119	0xbc69c60e	-0.014268411

net.0.bias f4 [20]
0	0xb2abf384	-2.0017758e-08
1	0x344ed1d5	1.9261581e-07
2	0x12118ef9	4.593016e-28
3	0x342ae26b	1.5914854e-07
4	0xb41ecc42	-1.4789205e-07
5	0x9fdc8f65	-9.341085e-20
6	0x340bf6fe	1.3035239e-07
7	0xb57a7fb6	-9.33181e-07
8	0xb4a4e276	-3.0712152e-07
9	0x146a8e13	1.1842e-26
10	0xb4b1e4fe	-3.3135433e-07
11	0x34117617	1.3547138e-07
12	0x34b06340	3.2854769e-07
13	0xb4e307d4	-4.228774e-07
14	0x348ba976	2.6014067e-07
15	0x80000914	-3.257e-42
16	0x33a4f38b	7.681145e-08
17	0xb31fb15a	-3.7181373e-08
18	0x348386e7	2.4498806e-07
19	0xb40c7b67	-1.308341e-07

net.1.weight f4 [20]
0	0x3e1f7bd7	0.15574585
1	0x3e0aefd0	0.13568044
2	0x3ab1aed5	0.0013556132
3	0x3e00f48b	0.12593286
4	0x3e4488e8	0.1919285
5	0x36ee4193	7.1005866e-06
6	0x3cdae815	0.026721993
7	0x3e352b9d	0.17692418
8	0x3e27c819	0.16384925
9	0x3b875223	0.0041296645
10	0x3e665660	0.22493887
11	0x3dcddbe3	0.10051706
12	0x3e8f0eaa	0.27940875
13	0x3e18b081	0.14911081
14	0x3e1fe3fb	0.15614311
15	0x38b36803	8.554759e-05
16	0x3e0637e9	0.13107266
17	0x3e1f79b0	0.15573764
18	0x3e10edd2	0.14153221
19	0x3e11357e	0.14180562

net.1.bias f4 [20]
0	0xbd95685d	-0.07295296
1	0xbcaffbf3	-0.021482443
2	0xbb81e649	-0.0039642197
3	0xbd49abc5	-0.049236078
4	0xbdacb231	-0.08432425
5	0xba4e5356	-0.00078706944
6	0x3d443817	0.047905054
7	0x3d21dcfe	0.039517395
8	0x3c563828	0.013074912
9	0xbc37cacb	-0.011217783
10	0xbdbdf670	-0.0927552
11	0x3cf629d4	0.030049242
12	0xbd801849	-0.06254632
13	0x3c93b538	0.018030748
14	0xbdc8ea45	-0.09810308
15	0xb9050745	-0.00012686577
16	0x3c4d800a	0.012542734
17	0x3c061086	0.00818265
18	0xbcc62374	-0.024186827
19	0x3da92d29	0.08260567

net.1.running_mean f4 [20]
0	0x3b54dd5f	0.003248058
1	0x3b8188d8	0.0039530806
2	0x377d70ec	1.5106267e-05
3	0x3c8db325	0.017297337
4	0xbbf0d7d4	-0.0073499475
5	0x38e028ec	0.00010688775
6	0xbab45972	-0.0013759567
7	0x3bb4e95f	0.005520984
8	0x3c1a36ea	0.009412507
9	0xb9c5ae8c	-0.00037704816
10	0xbae9a55a	-0.0017825768
11	0xba98f8dd	-0.0011670847
12	0x3c08a42e	0.008339925
13	0x3be9ae57	0.0071313786
14	0x39f4c023	0.0004668246
15	0xb7c4f5f1	-2.3479546e-05
16	0xbb94d0d3	-0.0045414953
17	0x3bca515e	0.0061742505
18	0x3be16bb4	0.0068792943
19	0xbc95b302	-0.018273834

net.1.running_var f4 [20]
0	0x3d4efb84	0.050532833
1	0x3c568f2d	0.013095659
2	0x366753a8	3.4470377e-06
3	0x3cf0600c	0.029342674
4	0x3d34b739	0.044120047
5	0x361f8141	2.3768082e-06
6	0x3cc52a4c	0.02406802
7	0x3de7c1d3	0.11316266
8	0x3da951ec	0.082675785
9	0x3824572e	3.918184e-05
10	0x3df137e3	0.11778238
11	0x3d15e323	0.036593568
12	0x3dad3aaf	0.08458459
13	0x3d1afb5e	0.03783738
14	0x3d59e27b	0.053194504
15	0x338c5981	6.535539e-08
16	0x3ce6ac3c	0.0281583
17	0x3d78c657	0.060736027
18	0x3d00a440	0.03140664
19	0x3d9075a8	0.07053691

net.3.weight f4 [6, 20]
0	0xbd416c42	-0.047222383
1	0xbd536ea7	-0.0516192
2	0x39aca279	0.00032927448
3	0xbda78dd2	-0.08181347
4	0xbd0cf8ab	-0.034416836
5	0x3a502419	0.0007939949
6	0x3936be6e	0.00017427813
7	0x3d09972b	0.03359143
8	0xbc5cc511	-0.013474719
9	0x3915f733	0.00014301836
10	0x3d330ab2	0.04371137
11	0x3a6609db	0.0008775272
12	0xbdb7fd13	-0.08983817
13	0x3c7b5c1a	0.015341783
14	0xbc342b46	-0.010996645
15	0x3ad4118a	0.0016179543
16	0x3df98023	0.12182643
17	0x3e46cf38	0.19414985
18	0xbe01dcb4	-0.12681848
19	0xbe0a6eb9	-0.135188
20	0xbcb385b2	-0.021914337
21	0xbd88e170	-0.06683624
22	0x3b929fcc	0.0044746157
23	0x3dc19a6a	0.0945328
24	0xbe262c1f	-0.16227768
25	0x3b81039f	0.0039371992
26	0x3d8c14de	0.068399176
27	0xbe232277	-0.15931116
28	0xbdb95abc	-0.09050509
29	0xbb00c2ce	-0.0019647363
30	0x3e5a8c3a	0.21342555
31	0x3c54eb96	0.012995621
32	0x3da6750d	0.081277944
33	0xbe141008	-0.1445924
34	0x3d290bfd	0.0412712
35	0x3b2462d0	0.002508331
36	0xbdac2f80	-0.084074974
37	0x3d1be53a	0.038060404
38	0x3d95d809	0.07316596
39	0xba8a436e	-0.001054866
40	0xbd0ddd6f	-0.034635004
41	0xbd627c07	-0.055294063
42	0xb91ca86d	-0.00014940063
43	0x3d4c9cc1	0.04995418
44	0xbc7c3335	-0.015393068
45	0x3a073f6d	0.00051592925
46	0x3c8fb2af	0.017541258
47	0xbd07fa2c	-0.033197567
48	0x3cb48780	0.022037268
49	0xb99cb92f	-0.0002989261
50	0xbbeb45d3	-0.0071799546
51	0xbd258b76	-0.040416203
52	0x3e325d5a	0.17418423
53	0x3d988358	0.07446927
54	0xbcc77c02	-0.024351124
55	0xba611c34	-0.00085872714
56	0x3d198df9	0.03748891
57	0xbd2949e9	-0.04133025
58	0xbd080aad	-0.033213306
59	0xbd4b03cf	-0.04956418
60	0x3dda0edb	0.10647365
61	0xbdc14c81	-0.0943842
62	0xb99dc51a	-0.00030092226
63	0x3c8a989a	0.01691847
64	0xbc04e239	-0.008110576
65	0x38aef8fd	8.343344e-05
66	0xbd8432a1	-0.06454969
67	0x3df3f1a9	0.119113274
68	0x3e055b8a	0.130232
69	0xbb9503b7	-0.004547562
70	0xbbe99f96	-0.00712962
71	0xbe033ed6	-0.12816939
72	0xbde93dc5	-0.11388735
73	0xbcd35c1c	-0.025800757
74	0xbe004cc6	-0.12529287
75	0xba6aea43	-0.00089612993
76	0x3c5b76e2	0.013395043
77	0x3d1c18ce	0.038109593
78	0x3db0133f	0.08597421
79	0xbdd2db97	-0.1029579
80	0x3da7d541	0.08194972
81	0xbdbfe7ce	-0.09370385
82	0x386ad4fb	5.59883e-05
83	0x3d95fa08	0.0732308
84	0xbc5a607d	-0.013328669
85	0x36c37750	5.8253427e-06
86	0x3cadb70d	0.02120545
87	0x3da52e08	0.080654204
88	0x3da15c63	0.078789495
89	0xb93df527	-0.00018115771
90	0x3c496765	0.012292718
91	0xbd8af500	-0.06785011
92	0x3c606441	0.013695777
93	0x3cbca002	0.023025516
94	0xbdca2e2c	-0.09872088
95	0x38dde871	0.00010581397
96	0x3bc0e54e	0.0058867102
97	0xbbcb8f31	-0.006212138
98	0xbbe3b547	-0.0069491
99	0xbd63ea78	-0.05564353
100	0xbde13403	-0.109962486
101	0xbc984519	-0.018587636
102	0xb91f1f80	-0.00015175156
103	0xba9b04d1	-0.0011826997
104	0x3c987b8a	0.018613596
105	0x3a6f91f1	0.00091388734
106	0x3a5c1a3c	0.0008396243
107	0xbb2a8ff7	-0.002602575
108	0x3d8e1a0b	0.06938561
109	0x39b34d0e	0.0003419895
110	0x3e135e53	0.1439145
111	0xbd30c6b7	-0.04315826
112	0x3e3d9036	0.18512043
113	0x3d65eee0	0.056136012
114	0x3cc3b8a1	0.023891749
115	0xba0ad513	-0.0005296033
116	0x3d75a2e4	0.059969798
117	0xbc892556	-0.016741436
118	0xbd91319e	-0.07089542
119	0xbd81b088	-0.06332499

net.3.bias f4 [6]
0	0x36ffb9f0	7.621238e-06
1	0xb611a10f	-2.1700432e-06
2	0xb5c4516b	-1.4626834e-06
3	0x361bd7d0	2.322242e-06
4	0xb6de38ea	-6.6227412e-06
5	0xb65c937b	-3.28684e-06

net.4.weight f4 [6]
0	0x3f171821	0.5902119
1	0x3f8d4dd6	1.1039379
2	0x3f3f1238	0.74637175
3	0x3f209c44	0.6273844
4	0x3f2afedb	0.6679513
5	0x3f619011	0.8811045

net.4.bias f4 [6]
0	0x3eb7deaf	0.35912082
1	0x3f26b916	0.6512617
2	0x3e9796e4	0.29607308
3	0x3eaae475	0.33377424
4	0x3e93e4a9	0.2888539
5	0x3ece8572	0.40336186

net.4.running_mean f4 [6]
0	0xbc3dcb20	-0.011584073
1	0xbc5a08c6	-0.013307756
2	0x3c067ac2	0.008207979
3	0xbbfe3ab7	-0.007758464
4	0x3beb5882	0.007182182
5	0x3cb71638	0.022349462

net.4.running_var f4 [6]
0	0x3a3f977c	0.00073086447
1	0x3b06331a	0.0020477236
2	0x3aa93791	0.0012910237
3	0x3a569067	0.000818497
4	0x3a8310ec	0.000999955
5	0x3aa49af3	0.0012558385

net.6.weight f4 [17, 6]
0	0x3eaac910	0.33356524
1	0xbee44a92	-0.44588143
2	0x3eadc470	0.33938932
3	0x3ea72c2a	0.32650882
4	0x3e16fede	0.14745662
5	0x3e8e7847	0.2782614
6	0x3ebf9ffc	0.37426746
7	0xbed93030	-0.42419577
8	0x3e3e6290	0.18592286
9	0x3e6c7e9d	0.23095174
10	0x3e9df4b5	0.3085076
11	0x3eae64d1	0.34061292
12	0x3d6914b1	0.0569045
13	0xbeaa1200	-0.33216858
14	0x3e49872b	0.19680469
15	0x3dded901	0.10881234
16	0x3e2ac621	0.16677143
17	0x3e6148f9	0.22000493
18	0x3caffc91	0.021482738
19	0xbe8b97d8	-0.27264285
20	0x3e261741	0.16219808
21	0x3dd2a5b1	0.102855094
22	0x3e10e5ac	0.14150113
23	0x3e31cbad	0.17362852
24	0x3d8f7065	0.070038594
25	0xbe53dcca	-0.20689693
26	0x3e1f7790	0.15572953
27	0x3d8c36f8	0.06846422
28	0x3e041c83	0.12901501
29	0x3e3e3029	0.18573059
30	0x3d9e6cd4	0.07735601
31	0xbea9de51	-0.33177426
32	0x3e5a1e23	0.21300559
33	0x3de11be3	0.10991647
34	0x3e386450	0.18007016
35	0x3e78f4af	0.2431209
36	0x3be2c71f	0.0069207097
37	0xbe121192	-0.14264515
38	0x3dbd9010	0.09255993
39	0x3d76334d	0.060107518
40	0x3da65a7d	0.08122728
41	0x3dcbe183	0.09955122
42	0x3e9bab45	0.30404106
43	0xbecb0b3f	-0.39657018
44	0x3e81d73b	0.2535952
45	0x3e3081f1	0.17237069
46	0x3e725c93	0.23668127
47	0x3eaab348	0.33339906
48	0x3a230c4f	0.00062197907
49	0xbd8b8c21	-0.06813837
50	0x3d3472fb	0.044054966
51	0x3d019088	0.031631976
52	0x3d216056	0.039398514
53	0x3d3fb032	0.046798892
54	0x3e7f1725	0.24911173
55	0xbedc6a57	-0.4304988
56	0x3e837eb3	0.256826
57	0x3e1c8f96	0.15289149
58	0x3e692708	0.22768795
59	0x3ea514a8	0.32242322
60	0x3dfcb6bc	0.12339541
61	0xbeb7a4c9	-0.3586791
62	0x3e6ce266	0.23133239
63	0x3e039f99	0.1285385
64	0x3e4dbf27	0.2009245
65	0x3e898ff7	0.2686765
66	0xbc8b9032	-0.017036531
67	0xbef09080	-0.46985245
68	0x3e40bdb9	0.18822373
69	0x3ecb283b	0.3967913
70	0x3e5adcfb	0.2137336
71	0x3e27558f	0.16341232
72	0x3dba1f2d	0.090879776
73	0xbeadd030	-0.33947897
74	0x3e606d72	0.2191675
75	0x3de1d128	0.110262215
76	0x3e3cc5d5	0.18434842
77	0x3e7f3527	0.2492262
78	0x3c24efcf	0.01006694
79	0xbe042160	-0.12903357
80	0x3db68b02	0.089132324
81	0x3d6168fa	0.055031754
82	0x3d9eab10	0.07747471
83	0x3dc65598	0.096842945
84	0x3a964794	0.0011465424
85	0xbd918ccc	-0.07106933
86	0x3d3fab56	0.046794258
87	0x3d046772	0.032325216
88	0x3d2aa6de	0.041663043
89	0x3d4c810b	0.049927752
90	0x3c736f51	0.014858083
91	0xbe83eed9	-0.25768164
92	0x3e1a093c	0.15042585
93	0x3dcdeb58	0.10054654
94	0x3e07cea8	0.13262427
95	0x3e22e01b	0.15905802
96	0x3e354fce	0.17706224
97	0xbeea0cb3	-0.45712814
98	0x3e8150eb	0.25257048
99	0x3e1e38a9	0.15451302
100	0x3e4de9ab	0.20108669
101	0x3e98e146	0.2985937

net.6.bias f4 [17]
0	0xbe99682e	-0.29962295
1	0xbea0d162	-0.31409746
2	0xbd6d2cd3	-0.057904076
3	0xbd0a2dc2	-0.033735044
4	0xbd7d6859	-0.06186709
5	0xbda880a7	-0.082276635
6	0xbc603713	-0.013685006
7	0xbe7fd189	-0.24982275
8	0xbb5ecb87	-0.0033995823
9	0xbe4a08b8	-0.19729888
10	0xbddd593c	-0.10808036
11	0xbd2782ba	-0.040896155
12	0xbdaf6502	-0.085641876
13	0xbc6777bd	-0.014127669
14	0xbb889ce8	-0.0041690953
15	0xbcc33f6a	-0.02383395
16	0xbe22c680	-0.15896034
