30 weight-optimized multi-task models/model_26.pt (torch_old, 4405 bytes, 14 tensors)

net.0.weight f4 [20, 6]
00000000: f475 84be 5292 9cbd d876 ea3d 93f2 5b3d
00000010: 4611 d53c bb91 88bd 80f2 cb3d 515a 253e
00000020: 3622 f13d 0cf1 b5bc f2a1 d23c 19a9 0a3d
00000030: f17f 0b3e ecd7 1a3d 0474 ef3d c4bc b53d
00000040: 3369 da3c a2c3 c0bc 6661 78bc da22 34be
00000050: d69f 273c 1656 593d d963 4a3d caab 7f3c
00000060: ad9d 3e3d 7c8b b0bd 92fe 10bd e89c d33d
00000070: b543 9fbb b760 ec3c eab9 3d3b d8fb 953d
00000080: 75cb 6abd 9c66 993d 3896 ba3d 1e03 b33d
00000090: 1ad0 973d aa0d ba3d b726 23bd b978 13be
000000a0: 957b 353d 8f35 8ebd a26a 233e 2f45 693d
000000b0: 8633 d0bc 897f b23c e95e 1cbc 6926 f13d
000000c0: 79a0 2dbc cd07 51bd 378c fb3d bec9 c5bc
000000d0: bd4f a2bd 4c27 b23d 7ab6 4ebe 2429 13bd
000000e0: 7ce3 b2bd 130a e93a 2112 053c 656b acbc
000000f0: 6b8f eebb 8a6b 243d 7024 453d 05de 1a3d
00000100: 2673 393d 882e a43d 7f3c d63c a153 6cbd
00000110: dc13 2fbe 50bf a03c ac8d e6bc 88c2 20bd
00000120: da83 54bd 3262 02be 90f2 19be 9f29 d4bb
00000130: 9e0b ebbc 0397 143d fa7b 013e 97d7 7bbe
00000140: 6bc9 d6bb a66e be3d c997 743c e48c 9e3b
00000150: 35b9 9dbb f16c df3d 90e3 ddbd cb09 d1bc
00000160: 62e5 e1bc 0b3e abbc 0ba9 d13c daa6 09bd
00000170: 673d cbbd d6b7 e7bc c199 ae3c 019d 0c3d
00000180: 3040 babd b63d 7abd 3244 b0bc d163 57bd
00000190: f06d cbbd 14d6 ee3d 1626 c2bb 462c 0c3e
000001a0: 6723 11b9 32d2 f4bd 80c1 37be beaa 0d3c
000001b0: 3fb1 bfbd 7bd9 563d 4a82 c53d 7c7f e63c
000001c0: c27d 29bd d7b2 8d3c 2898 d23d d44c 49bc
000001d0: fb61 9fbc cf50 7dbd a5b0 a7bd 202a 9fbd
-0.2587124 -0.07645096 0.11448449 0.053698134 0.026009213 -0.06668421 0.099583626 0.16147734
0.11774103 -0.022209667 0.025711987 0.03385267 0.13623025 0.037803575 0.1169205 0.08873895
0.026661491 -0.023530785 -0.01515994 -0.1759142 0.010230979 0.053060614 0.04941163 0.015604923
0.04653709 -0.086203545 -0.035399027 0.10332662 -0.004860366 0.028854711 0.0028949925 0.07323426
-0.057322938 0.07490274 0.09110683 0.08740829 0.07412739 0.090846375 -0.039831843 -0.14401521
0.04430731 -0.06943809 0.15958646 0.056950744 -0.025415193 0.02178933 -0.009544113 0.11774904
-0.010597342 -0.05103283 0.12282603 -0.02414405 -0.07925365 0.086989015 -0.20186797 -0.035927907
-0.087347955 0.0017779492 0.008121998 -0.021047303 -0.0072802803 0.04014162 0.048130453 0.03780939
0.04527583 0.08016688 0.026151894 -0.057696942 -0.1709742 0.019622475 -0.028143726 -0.03924802
-0.051883556 -0.12732771 -0.15033937 -0.006474688 -0.028692063 0.03627683 0.1264495 -0.2459396
-0.0065547726 0.09298448 0.0149287665 0.004838573 -0.004813338 0.10909451 -0.1083442 -0.025517365
-0.027575199 -0.020903608 0.025593301 -0.033606388 -0.09923821 -0.028285902 0.02131355 0.034329418
-0.09094274 -0.06109401 -0.021516893 -0.052585427 -0.09933078 0.11661926 -0.0059249504 0.13688764
-0.00013841466 -0.11954154 -0.17944908 0.008646665 -0.09359979 0.0524535 0.09643991 0.028136961
-0.041379698 0.017297192 0.10282928 -0.012286384 -0.0194559 -0.061844643 -0.08187989 -0.077717066

net.0.bias f4 [20]
00000000: c8f2 36b5 7dbd ac33 6ea0 10b4 0183 f333
00000010: 8792 15b2 bbed 0531 45ee 8034 9274 ccb3
00000020: 825c e133 4048 36b4 f5e0 8cb2 a560 5ab1
00000030: 9e30 83b2 b3e7 0435 75b3 0234 fdb3 2bb4
00000040: 7d74 db33 d7ba 7134 128d eeb2 1af2 68b3
-6.8153577e-07 8.043842e-08 -1.3469409e-07 1.1339399e-07 -8.706258e-09 1.9489181e-09 2.4015222e-07 -9.520694e-08
1.0494206e-07 -1.6976355e-07 -1.6400444e-08 -3.1778111e-09 -1.5272516e-08 4.9511e-07 1.217248e-07 -1.5991095e-07
1.0219171e-07 2.2512846e-07 -2.7770998e-08 -5.42369e-08

net.1.weight f4 [20]
00000000: 071d 2b3e 575e c33d 1517 cb3d 7763 023e
00000010: 00c0 283d f10b f53d c330 e53d fbb4 083e
00000020: efad d33d d5cb 473e 6175 b53d 2d8e d73d
00000030: 783a 083e 04aa 903e bc1b 203e 0675 803d
00000040: 4e0f 173e 4707 0a3e dbff 003e daac 363e
0.16710292 0.09539478 0.09916512 0.12733255 0.04119873 0.11965168 0.11190941 0.13350289
0.103359096 0.1951135 0.08860279 0.10525165 0.13303554 0.28254712 0.1563558 0.062723204
0.14751932 0.13479339 0.12597601 0.17839375

net.1.bias f4 [20]
00000000: cc53 e83d 3db5 f93c 3273 0fbb 0b3e e73c
00000010: cb0d 303d 85f5 9f3d b9d1 3e3d c218 a0bc
00000020: 2ff2 8f3c 9581 48bd 51f3 f4bc 2af9 773d
00000030: e99d f9bc 639f 6bbd 01e6 0ebe bede 1abc
00000040: a26b afbd 992d b13c bfec 4fbd 1760 f7bd
0.11344108 0.030481929 -0.002188873 0.028227827 0.042981904 0.07810501 0.046586726 -0.019543055
0.017571537 -0.048951704 -0.029901179 0.060540356 -0.030470805 -0.05752505 -0.13954927 -0.00945252
-0.08565451 0.021628188 -0.050762888 -0.120788746

net.1.running_mean f4 [20]
00000000: be64 59bb 9cf6 253c fd12 a13b 68b4 1dbb
00000010: c18b 0e3b ab0d a03c e8b7 a5bb 6e40 333c
00000020: 4a5e 22bb 1d33 9fba 41c4 483c 28ba cabb
00000030: 8991 a9bb 6be1 fbbb 91ec d43a 3d88 533a
00000040: 79d1 30bb 6061 16bc af97 433b a739 74bc
-0.003317162 0.010129597 0.0049155937 -0.002406383 0.002175078 0.019537767 -0.0050573237 0.010940654
-0.002477544 -0.001214597 0.012253822 -0.0061867423 -0.00517482 -0.007686784 0.0016244819 0.00080693123
-0.0026980324 -0.009178489 0.002984505 -0.0149063235

net.1.running_var f4 [20]
00000000: 3d0c 6e3d e944 7c3c 6c6d b23c b154 993c
00000010: fcc5 e63b aa44 8e3d 528e b63c 7e0c 0d3d
00000020: d0b6 013d c63c 433d ad26 883c 191a b23c
00000030: 1d54 933c ef19 ab3d 99c7 f53c 6d43 523c
00000040: 3267 c73c 2c91 283d f510 f13c 6f52 1b3d
0.05811714 0.015397289 0.021780692 0.018717142 0.0070426445 0.069466904 0.02228466 0.03443574
0.031668484 0.04766538 0.016620005 0.02174096 0.017984444 0.08354556 0.030002402 0.012833458
0.0243412 0.04115407 0.029427031 0.03792041

net.3.weight f4 [6, 20]
00000000: 423d e53c bfb2 963d 5a9e ad3d 39d2 5d3d
00000010: e614 70bc 5352 8ebd b99b 93bd f877 f4bb
00000020: 6ef3 6fbd 987d 15bd b8e9 0cbb 15a9 d63c
00000030: 9c8a 7b3d 8beb 0a3e 3c51 6fbd d9bb f03c
00000040: 254e ecbb ef3e b5bd 1572 d5bc 87bd d7bd
00000050: 3767 3cbd 3b5b 913d 04a9 303d a3f9 8e3c
00000060: 43e5 8f3c b8ae 7abd 9098 3fbc f749 e63c
00000070: 9f79 2a3b fd40 e13c 884c 483c 8448 843d
00000080: b8b7 4d3d 7f4c 3c3e 1576 9bbc 7a65 3a3c
00000090: cbf1 31bd 8bc2 11bd 1dbe 3dbd 80fe 74bd
000000a0: 7e59 76bd 9762 22bd b38a 433a 3ba5 a3bd
000000b0: 444a ba3c d848 873d a02a 82bd 9d21 2d3d
000000c0: 61c7 4e3d a3d5 093e c177 acbc 6b3c b53d
000000d0: 5768 ddbc 2925 05be 2617 323a 6899 7bbc
000000e0: f909 213e c174 02bd c52c acbd 1225 e8bc
000000f0: 2c0b 483e e21c 59bd 93f0 7bbc d041 a5bc
00000100: 3d3c 9f3c c48b 7c3c b17b aabc f4cf b5bc
00000110: 91f0 643d c097 843c caf2 5abb 8576 623d
00000120: 88e3 87bd b3e1 013e d597 cbbd b219 41bd
00000130: 127c 10bd b7de 6f3d ad2f a4bc 5fad ca3c
00000140: fa95 b5bd f9e5 aa3c 7719 413d 97f6 473d
00000150: da06 773d 7ae7 83bd 60c6 6ebc 2b24 213e
00000160: 6d59 093d 0ca5 a13d 101d 723d fbf8 1c3d
00000170: c2c3 633d fc53 6cbc 759f 763d c9c6 2f3d
00000180: f35a 183d dae3 bebd 488c d93c 4b23 73bc
00000190: 3064 87bd de3f 10bc 0eb7 05bd 1cc7 afbd
000001a0: e839 2ebd 78e3 793d bce7 f6bd 9b5f 553c
000001b0: 052c a93d 5b9f c93c 2a07 8cbd 11cf 933d
000001c0: 30a2 57bc ffb3 2bbc f25f 293e 93bc 033c
000001d0: 6704 b4bd 87b5 853d 3ab9 95bd c06b cd3d
0.027983312 0.07358312 0.08477469 0.054155562 -0.01465342 -0.06949296 -0.07207436 -0.0074605905
-0.058581762 -0.03649673 -0.0021501612 0.026203671 0.061411485 0.13566415 -0.05842708 0.029386448
-0.007211464 -0.08849894 -0.026055375 -0.10534196 -0.04599687 0.07097479 0.043129936 0.01745302
0.017565375 -0.06120178 -0.011694089 0.028111441 0.0026012433 0.02749681 0.012225278 0.06459144
0.050224036 0.18388556 -0.018977204 0.011376733 -0.043443482 -0.03558592 -0.046323884 -0.059813023
-0.06014394 -0.039644804 0.00074593275 -0.079904996 0.02274049 0.06605691 -0.06355786 0.042268384
0.05048311 0.13460402 -0.021053197 0.088494144 -0.027027292 -0.13002457 0.00067936105 -0.015356399
0.1572646 -0.031849626 -0.084069766 -0.028337989 0.19535512 -0.05300606 -0.015377182 -0.020172983
0.019437904 0.015414182 -0.020810934 -0.022193886 0.055893485 0.016185641 -0.0033408874 0.05528881
-0.06635195 0.12683754 -0.09941069 -0.047143646 -0.035274573 0.058562007 -0.020042265 0.024740873
-0.088664964 0.020861613 0.047143426 0.04881915 0.06030927 -0.06440635 -0.0145736635 0.15736453
0.03353255 0.07892808 0.059109747 0.038323384 0.05560661 -0.01442432 0.060210664 0.042914186
0.03719611 -0.09320803 0.02655615 -0.0148399575 -0.06610906 -0.00880429 -0.032645278 -0.08582899
-0.042535692 0.061007947 -0.120559186 0.013023282 0.08260349 0.02461212 -0.06837304 0.07217229
-0.013161227 -0.010479926 0.16540506 0.008040565 -0.08789902 0.06528764 -0.0731072 0.10030317

net.3.bias f4 [6]
00000000: d42b 3eb7 dc5b 07b6 8387 1736 0456 a135
00000010: 97bf 20b6 c845 23b4
-1.1335087e-05 -2.0170037e-06 2.2579632e-06 1.2020469e-06 -2.3953378e-06 -1.5205944e-07

net.4.weight f4 [6]
00000000: 523a 493f 635b 833f 2f8d 673f e526 293f
00000010: b9a5 2c3f 6dbf 473f
0.78604615 1.0262264 0.90449804 0.66074973 0.6744037 0.7802647

net.4.bias f4 [6]
00000000: e380 d63e a95a dc3e 9301 073f c363 df3e
00000010: 9287 893e c347 cb3e
0.41895208 0.43037918 0.5273678 0.436308 0.26861244 0.39703187

net.4.running_mean f4 [6]
00000000: 4f4b da3b 6ad1 933c 2003 14bc b2d4 293d
00000010: 3e6c cf3b 92a7 17bc
0.0066618095 0.018044192 -0.009033948 0.041462608 0.006330042 -0.0092562605

net.4.running_var f4 [6]
00000000: e49f 623a 1ce7 bb3a 8f4e ce3a 8e7b 123a
00000010: 308d 353a 6f45 da39
0.00086450414 0.0014335844 0.0015739965 0.0005587869 0.00069256406 0.00041631932

net.6.weight f4 [17, 6]
00000000: 053b c53e e2f4 573e fc9e e7be 17d0 a6be
00000010: b72a b43e 29ed 64be 6b47 543e 36da b93e
00000020: 8a6e d5be 2067 c0be 771f a03e 829c 42be
00000030: 857b 543e 4e18 943e 8f1a 7abe a033 08be
00000040: 4e31 0a3e 2ac4 3bbe 7ef8 353e 4f39 743e
00000050: ff53 53be 1972 a6bd f106 c63d 59b5 29be
00000060: 64c9 203e 18b0 653e db77 0fbe aa4d 0bbe
00000070: 9d57 0b3e 066f f2bd 2609 5b3e 5a34 9b3e
00000080: a73e 75be 89ed 1bbe 0cfc 1d3e 27e0 3fbe
00000090: 2f23 ce3d e3ce 093e 330f e3bd 5148 2cbd
000000a0: 48bd 5a3d 10b9 b3bd 150e 8a3e 7eb0 b33e
000000b0: a7bb 97be 2220 b0be f606 963e c152 42be
000000c0: 1bd8 4a3d 1f58 833d d656 61bd 6a69 81bc
000000d0: 8754 c13c 4a83 33bd 4dea 8b3e 5d10 b23e
000000e0: a190 abbe 08bb 97be 12f1 803e 2b7b 48be
000000f0: a7c5 753e 85f9 a63e 29bf 83be c080 4dbe
00000100: 7d8f 383e ae8a 3abe 8d75 b03e 3ad1 7d3e
00000110: c677 90be f942 c13a f5f6 083e 24c7 0cbf
00000120: 8e70 5f3e 8265 9d3e 3817 78be e926 2abe
00000130: 2b1f 213e 8808 39be 43d2 bf3d 0e10 023e
00000140: 94a4 ccbd 9b80 31bd 620b 593d 6ba7 9fbd
00000150: 82a5 543d a472 8b3d 16ea 6abd 3a43 97bc
00000160: 73b9 ce3c 8d2a 3bbd 9d0d 2a3e 29eb 613e
00000170: 9aec 49be f06c 8cbd 0d25 ac3d 9ce0 23be
00000180: 5acc 733e b2d1 b03e 8c99 c9be 2ac7 5fbe
00000190: 9c16 643e 04e9 64be
0.3852159 0.21089509 -0.45238483 -0.32580635 0.3518884 -0.22356094 0.20730369 0.36299294
-0.41685897 -0.37578678 0.31274006 -0.19005015 0.20750244 0.28924793 -0.24424194 -0.13300943
0.13495371 -0.1833655 0.17770573 0.23849986 -0.2063751 -0.08127231 0.09669293 -0.16573085
0.15701824 0.22430456 -0.14010565 -0.13603845 0.1360764 -0.11837582 0.21390209 0.3031338
-0.23949681 -0.15227331 0.1542818 -0.18737851 0.100653045 0.13457827 -0.110868834 -0.042061154
0.05340317 -0.08775532 0.2696387 0.3509559 -0.29635355 -0.34399515 0.29302186 -0.1897688
0.0495225 0.06413292 -0.055014454 -0.015797336 0.023599876 -0.04382638 0.27327195 0.3477811
-0.3350878 -0.2963488 0.25183922 -0.19578235 0.2400118 0.32612243 -0.2573178 -0.20068645
0.18023486 -0.18216965 0.34464684 0.24786845 -0.2821638 0.0014744691 0.13375457 -0.54991364
0.2182028 0.30741507 -0.24227607 -0.16616406 0.15734546 -0.1806966 0.09366276 0.12701437
-0.09992328 -0.04333554 0.05298937 -0.07795604 0.051915653 0.06808975 -0.057352148 -0.018464673
0.025234913 -0.045694876 0.16606756 0.22062363 -0.19719163 -0.06856716 0.084055044 -0.1600365
0.23808423 0.34534985 -0.3937496 -0.21853319 0.2227425 -0.22354513

net.6.bias f4 [17]
00000000: aaf3 c73d 12f2 d93d 6a88 9bbc b1c0 6fbc
00000010: 16f3 a7bc 2fce e0bc 6ed6 f3bb 416c 1cbc
00000020: bf73 40bb 6090 113c d05b d7bc a088 783d
00000030: 5fb3 c8bc 08c5 d9bb f44a 4fbb b943 49bc
00000040: 031c 713d
0.09763272 0.106418744 -0.018985946 -0.014633344 -0.020501655 -0.027442066 -0.0074413335 -0.009547294
-0.0029365865 0.008884519 -0.026288897 0.06067717 -0.024499593 -0.0066458024 -0.003163037 -0.012284213
0.058864605
