30 weight-optimized multi-task models/model_8.pt (torch_old, 4405 bytes, 14 tensors)

net.0.weight f4 [20, 6]
000000 9a 50 54 be 1a 43 ce bd 2b 3d 85 3d 2f f5 fa 3c
       -0.20733872 -0.10071392 0.065058075 0.03063449
000010 b5 2a 85 3d bf 19 18 bd 53 b3 10 bd b1 6f a8 3c
       0.06502286 -0.03713393 -0.035327267 0.020561071
000020 31 a4 95 bc 5e b6 2f bc ab f8 be bd 4c 73 1f bd
       -0.01826677 -0.010724632 -0.093247734 -0.038928315
000030 0d d0 66 3d e2 41 47 bc 7a 50 e1 bc 15 d8 09 bd
       0.056350756 -0.012161704 -0.027504195 -0.033653338
000040 96 98 87 ba 6d 2f 47 bc 85 6d 68 3e d3 3e 05 be
       -0.0010345157 -0.012157303 0.22698028 -0.13012247
000050 e1 19 4d bd 33 64 af 3d 56 66 ca 3d 1f e6 63 3e
       -0.05007351 0.08564033 0.098828 0.22255753
000060 d1 49 19 3d e0 74 df 3a b5 96 71 be 80 48 0c bd
       0.037423912 0.0017048381 -0.23592646 -0.03424883
000070 bf fc 6b bc af ff 81 bd 09 01 a1 3d ba 85 20 bd
       -0.014403521 -0.06347596 0.078615256 -0.03919003
000080 e4 a0 03 bd 70 8f cc bc 20 71 8a 3b 70 af a4 3c
       -0.03213586 -0.02497074 0.0042249113 0.020103186
000090 73 b7 39 bc 18 41 1c 3d d4 b1 c9 bd 7a f5 40 3d
       -0.011335242 0.038148016 -0.09848371 0.047109105
0000a0 a6 c9 02 be 88 17 11 3c 57 6b a3 3d aa 1e 55 be
       -0.12772235 0.008855708 0.07979458 -0.20812479
0000b0 71 ec 8a 3c 6c 2a 80 bc d2 6f af 3d 9a 69 cb 3c
       0.016958447 -0.015645228 0.0856625 0.024830628
0000c0 ba 1f ac 3d 35 36 96 bd 8f 3b 04 3e 58 e0 84 3c
       0.08404489 -0.07334558 0.12913345 0.016220257
0000d0 dd 59 70 3d 51 1c 68 3c 30 af c6 bd 39 c9 a4 bd
       0.05867945 0.014166907 -0.09701383 -0.08046193
0000e0 5a b5 b4 3b f5 e2 0a 3d 81 5c 06 3d fb d3 04 be
       0.005514783 0.03390785 0.032803062 -0.12971489
0000f0 95 1a 62 3d c1 7b 93 3d ae 85 3b 3c 12 89 a4 bd
       0.05520113 0.072013386 0.011445446 -0.080339566
000100 f7 61 28 be 30 65 07 3e d2 e4 a8 3d ad 6d 27 3e
       -0.1644362 0.13222194 0.08246769 0.16350432
000110 a0 39 be 3b 29 4e 05 be 8f d4 3f bd 43 e1 9d bd
       0.0058052093 -0.13018097 -0.04683357 -0.07708981
000120 d9 68 0b bd e0 b0 a2 bd 47 99 bc 3c d9 0b ab bd
       -0.034035537 -0.079438925 0.023022307 -0.08351869
000130 d4 71 46 bd 33 10 5e bc cd 7b 42 bd 26 ad 50 bd
       -0.0484484 -0.013553667 -0.047481347 -0.050946377
000140 d0 7a 96 bc 7e b6 41 3d 8e 6e 19 bd 7d eb 48 bb
       -0.018369108 0.04729318 -0.03745895 -0.003065794
000150 28 c8 b7 3d 2b 6b a7 3c da a9 31 3e 7f 2e 39 3e
       0.08973724 0.020436844 0.1734995 0.18084143
000160 59 b1 8e 3d d3 72 a5 3d 51 0c 50 bd 7b c9 b1 3c
       0.0696742 0.080785416 -0.050792996 0.021702519
000170 f1 ef ca 3c d6 a0 8c 3d cb 4f bf 3d 41 d4 28 3d
       0.024772616 0.068666145 0.09341391 0.041218046
000180 3b 48 a3 3c 4f 42 63 bd bb dd 72 be 55 ad 64 bd
       0.019931903 -0.05548316 -0.23717396 -0.055829365
000190 2f aa b5 bb 34 d8 23 bd 0a 64 01 be 46 59 00 bd
       -0.005543969 -0.04000111 -0.12635818 -0.031335138
0001a0 9a 26 89 3d 05 c0 d5 bd 5a f3 f9 bd db 05 83 3d
       0.06696816 -0.104370154 -0.12204619 0.06397601
0001b0 34 89 fd ba 36 87 ac 3d ce 4d dc ba 10 54 79 3d
       -0.0019343258 0.08424227 -0.0016807856 0.060871184
0001c0 bf 9f 60 3d 5e 69 cb 3b 75 61 bb bd 1a 17 98 ba
       0.054839846 0.006207629 -0.09149448 -0.0011603564
0001d0 93 22 e8 3d fb 66 9b 3d 69 67 49 bd 3f 52 0a 3b
       0.113347195 0.07588001 -0.049170885 0.0021106151

net.0.bias f4 [20]
000000 ac bf f7 b3 45 55 d7 33 37 4c 97 32 bb 04 20 31
       -1.1536699e-07 1.0027228e-07 1.7613372e-08 2.3285753e-09
000010 d0 ac 74 b4 33 bb 7c 32 f1 70 71 b2 d7 3e 9b b5
       -2.278714e-07 1.4710895e-08 -1.4053726e-08 -1.1566689e-06
000020 ee 85 b9 33 df 53 e3 32 5a 52 e0 b2 79 fa 2e 33
       8.6390955e-08 2.6464418e-08 -2.6114481e-08 4.0740336e-08
000030 6e 8d c5 34 bb 5d cf 32 5d 3c 7e 32 62 76 82 b3
       3.6797013e-07 2.4140595e-08 1.4798471e-08 -6.0751304e-08
000040 6a 66 48 b4 68 7c 18 32 a3 d2 0c b2 6e ba 65 33
       -1.866371e-07 8.875851e-09 -8.196966e-09 5.3487774e-08

net.1.weight f4 [20]
000000 02 69 2e 3e 90 43 c3 3d 91 dd 6c 3d a3 5e 83 3e
       0.17032245 0.09534371 0.05782849 0.2565814
000010 e2 2d 3d 3e 4e 58 d1 3d 45 a5 08 3e d4 61 7f 3e
       0.18474534 0.10221921 0.13344295 0.24939662
000020 95 c7 53 3e 68 33 07 3e 79 e2 de 3d 71 4e 29 3e
       0.20681603 0.13203204 0.1088304 0.1653383
000030 63 24 0a 3e 8f 2d 9b 3d 36 81 48 3e de e1 cc 3d
       0.13490443 0.07577049 0.1958054 0.10004018
000040 38 d4 59 3e b1 c7 cc 3d 52 7c e3 3d 86 16 13 3e
       0.21272361 0.099990256 0.111076966 0.14364061

net.1.bias f4 [20]
000000 d9 83 b5 bc c7 ae a6 3c 08 93 dd ba f8 9d 9f 3d
       -0.022157596 0.020347012 -0.0016904781 0.07793802
000010 38 65 4d 3b 84 e4 f2 bc 8a df a1 bb 1c 51 96 3c
       0.0031340849 -0.02964998 -0.004939978 0.018349223
000020 e8 47 9e bd 67 d3 96 bd b6 4c 10 3d 15 3b 8a bd
       -0.07728559 -0.073645405 0.035229407 -0.0674955
000030 6c 14 a9 bd f3 54 1e bd 0a c8 11 bb 39 b4 64 3d
       -0.08255848 -0.038655233 -0.0022244477 0.055835936
000040 74 f1 9c bd 12 d2 37 3d 90 cf ff 3c f4 fe 11 bd
       -0.07663241 0.044878073 0.031226903 -0.035643533

net.1.running_mean f4 [20]
000000 8a 5c 85 3b 2a ad 52 ba 55 bc 57 bb 14 c8 84 3b
       0.0040698694 -0.0008036668 -0.003291865 0.0040521715
000010 db 80 1f 3b 0e c5 42 bb 67 70 a7 3b a5 b7 d3 bb
       0.0024338278 -0.0029719505 0.005109835 -0.006461101
000020 00 f5 ee bb 23 04 01 bb 39 9c dc b9 5d b0 0d bc
       -0.00729239 -0.0019686304 -0.00042078065 -0.008648005
000030 a6 91 b0 bb 0a 84 31 3b 2b a1 06 3b cc 7a e6 3b
       -0.0053884564 0.0027086758 0.002054284 0.0070336815
000040 09 e2 10 3b 34 62 31 ba 45 db a9 3b 0e 78 0a 3b
       0.0022107384 -0.00067666476 0.0051836097 0.0021128687

net.1.running_var f4 [20]
000000 9f 33 a7 3c de 65 8d 3c 74 a3 e8 3b a8 d0 17 3e
       0.020410357 0.017260488 0.0070995633 0.1482569
000010 17 ee 34 3d c4 cf 6f 3c 88 34 35 3d 8a 70 c2 3d
       0.044172373 0.0146369375 0.04423955 0.094941214
000020 68 32 63 3d 1a 6a a1 3c 43 6a ec 3c 51 fa 32 3c
       0.055467993 0.019703913 0.028859263 0.010923938
000030 98 83 e3 3c 5a ed c4 3b 14 d6 3d 3d 84 c6 be 3c
       0.02777271 0.00600974 0.04634674 0.023288019
000040 ac 22 30 3d 1b 40 2f 3d df c2 c3 3c 49 29 e1 3c
       0.043001816 0.042785745 0.023896633 0.027485507

net.3.weight f4 [6, 20]
000000 15 87 05 3e 6f 05 44 3d d7 f0 4c bd ba 01 ac 3d
       0.13039811 0.047856744 -0.05003437 0.08398767
000010 a1 09 83 3d c2 f9 cb bd 7c dd d0 bb d5 5a fc bd
       0.06398321 -0.09959747 -0.0063740592 -0.12322012
000020 99 cd 4b 3d 95 5d a0 3d 31 29 b5 bc e4 5e ba bc
       0.04975662 0.07830349 -0.022114368 -0.022750326
000030 e8 73 01 bd ea ec d2 3c 63 a1 11 bc 35 af ca bc
       -0.031604677 0.025747735 -0.008888575 -0.024741748
000040 09 d7 da bc 80 eb 18 3d f1 21 45 bd e8 c7 6b bc
       -0.026713865 0.037333965 -0.048128072 -0.014390923
000050 a9 74 db 3c be dc a7 3c b4 aa ab 3b 8e 27 a6 bd
       0.026789026 0.020491 0.0052388553 -0.08113013
000060 8b ce 26 3d 79 5f 5a 3d a7 27 f9 bc 09 5d a4 bc
       0.04072432 0.053313706 -0.030414416 -0.020063894
000070 50 ab a7 3d 3c e0 10 ba 6e 08 5c 3d af 16 b3 bc
       0.08186972 -0.00055265776 0.053718977 -0.021861402
000080 d7 85 55 3d 78 47 dd bc 6e f0 cb bd 5b ad a1 3d
       0.052129593 -0.027011618 -0.09957968 0.07894393
000090 09 b9 96 bd e8 9c ef 3d 53 70 00 bd 3a 03 55 bc
       -0.073595114 0.11699849 -0.03135712 -0.013001258
0000a0 3e c7 49 3b a3 44 90 bd 68 fb d1 bc 5f 42 0f bd
       0.0030788924 -0.070443414 -0.025632575 -0.034975406
0000b0 26 ca 42 3d 05 40 50 bc 11 ea 04 bd e6 62 13 3e
       0.047556065 -0.012710576 -0.032449786 0.14393196
0000c0 a9 11 17 3e 99 9a 88 bd 8f 4a 0d bd 67 e7 12 be
       0.1475283 -0.06670112 -0.034494933 -0.14346085
0000d0 a9 63 51 bc 0a 35 60 bd 83 b9 f8 3c 3b 57 53 bd
       -0.0127801085 -0.054738082 0.030361896 -0.05159686
0000e0 db 85 57 3c d2 6f c9 bb 76 d5 74 bd 6e aa 56 3d
       0.013154472 -0.006147363 -0.059773885 0.05240863
0000f0 65 75 ee bd 51 b6 92 bd ba 83 ac 3c 38 e0 4a 3e
       -0.11643485 -0.0716368 0.021058906 0.19812095
000100 e4 bd 1e 3e ba 18 fe 3b a7 96 50 bc 44 f4 99 bc
       0.15502125 0.0077544125 -0.012731231 -0.018793233
000110 d0 65 90 3d 39 90 41 bc 3b e9 7d 3d 87 04 37 3b
       0.07050669 -0.0118141705 0.061990004 0.0027926282
000120 f7 36 78 ba c1 75 41 bd 24 10 8d 3d 22 a1 c9 bd
       -0.00094686396 -0.04723144 0.06887844 -0.09845187
000130 56 c8 c2 3d f2 1d 3f bd 79 f2 83 bc 57 0e ad bd
       0.09510867 -0.046659417 -0.01610683 -0.08450001
000140 88 4c 77 bd d3 04 74 3c 57 86 14 bd f3 fd 3d 3d
       -0.06037572 0.014893728 -0.03626093 0.046384763
000150 30 55 aa 3d c9 e0 03 bd 67 1b b7 3d 77 13 10 be
       0.083170295 -0.032196794 0.089407735 -0.14069925
000160 04 21 c7 3d dc 37 c7 3c d0 ad 85 3d e9 77 8a bd
       0.09723094 0.024318628 0.06527293 -0.06761152
000170 de da c0 3d 3d a5 80 bc 13 75 80 bd 20 72 f8 bc
       0.094167456 -0.015703792 -0.0627233 -0.030327857
000180 0e f5 60 bd 0f df e8 bc dd 1d ca 3d ee a2 4d bd
       -0.054921202 -0.028426675 0.09868977 -0.05020421
000190 79 39 8b 3b 4e 81 6d bc 7e 9d 88 bc 41 82 f1 3c
       0.0042487946 -0.014496161 -0.01667666 0.029481055
0001a0 0d da 91 3d 3d a4 2c bd 23 0f d9 3d fc d9 c6 bd
       0.07121668 -0.042148817 0.1059859 -0.09709546
0001b0 40 a3 82 3d aa 53 4e 3d a3 a2 98 3d f9 1e 71 bd
       0.06378794 0.050372757 0.074528955 -0.05886743
0001c0 13 13 51 3d 21 c8 16 3d 2b b8 1b bd fe 39 42 3d
       0.05104358 0.03681195 -0.038017433 0.047418587
0001d0 47 f0 a0 bc 3a e1 d7 bb 67 f4 74 3d 9e f6 c7 bd
       -0.019645823 -0.0065881284 0.059803393 -0.09763835

net.3.bias f4 [6]
000000 ae f6 92 36 1b 5c 11 b6 cf 45 59 b6 4e bd c3 b6
       4.3798564e-06 -2.1660296e-06 -3.2376154e-06 -5.833491e-06
000010 9f 61 0a 36 92 f4 f4 35
       2.0620425e-06 1.8250596e-06

net.4.weight f4 [6]
000000 5f 9c 2a 3f d1 c5 1b 3f ec 65 75 3f d0 0b 88 3f
       0.66644853 0.6084872 0.95858645 1.0628605
000010 43 ac 38 3f 65 9c 36 3f
       0.7213785 0.7133239

net.4.bias f4 [6]
000000 78 d1 d1 3e c9 ab df 3e e2 d4 05 3f 14 d6 b5 3e
       0.40980124 0.4368575 0.5227796 0.3551489
000010 4e ff 98 3e cb 8b b8 3e
       0.29882282 0.36044154

net.4.running_mean f4 [6]
000000 fb eb aa 3b 82 33 9f ba 75 a6 b9 3b d0 82 ff 3c
       0.0052161193 -0.0012146088 0.005665595 0.031190306
000010 26 31 0b bb fc 6b 15 3c
       -0.0021239012 0.009119984

net.4.running_var f4 [6]
000000 1f 90 1a 3a f4 db 37 3a 72 b3 c0 3a ff 77 52 3b
       0.00058961095 0.00070136716 0.0014701916 0.003211498
000010 56 c4 4d 3a 89 ea 50 3a
       0.0007849386 0.0007969519

net.6.weight f4 [17, 6]
000000 72 9d 82 be fc 58 62 be 1f 96 ae 3e b8 3f e1 3e
       -0.25510746 -0.22104257 0.34098908 0.43993926
000010 e3 76 9a be b5 c5 69 be 28 42 a1 be cd fd 73 be
       -0.30168828 -0.22829325 -0.31495786 -0.23827286
000020 23 be ac 3e f9 34 dd 3e 6e 65 3d be 4a 17 83 be
       0.33738813 0.43204477 -0.18495724 -0.25603706
000030 b8 07 38 be e3 21 1a be 18 88 84 3e 55 b3 8c 3e
       -0.17971694 -0.1505199 0.2588508 0.2748057
000040 30 8d 2e be 0c ae 40 be 05 62 06 be a5 ae e2 bd
       -0.17046046 -0.18816394 -0.13123329 -0.11068467
000050 54 5e 61 3e e1 06 5e 3e b7 73 19 be e1 be 24 be
       0.2200864 0.21682312 -0.14985548 -0.1608844
000060 aa 5e 16 be 2a ed 10 be c3 fe 3b 3e f5 c4 6b 3e
       -0.14684549 -0.14152971 0.18358903 0.23024352
000070 48 f1 ba bd 86 b7 ce bd 49 7a 3d be ac 6f 2d be
       -0.09128052 -0.10093598 -0.1850368 -0.1693713
000080 97 33 88 3e 59 e2 9c 3e bc 9e 2b be 60 21 3b be
       0.2660186 0.3064144 -0.16759771 -0.1827445
000090 ee af 92 bd 5e 8e 6a bd 2d 4e f6 3d 70 70 f1 3d
       -0.07162462 -0.05726468 0.120266296 0.11789024
0000a0 38 ad 9e bd 33 cd aa bd 27 b9 95 be 40 b7 85 be
       -0.077478826 -0.0833992 -0.29242823 -0.2611637
0000b0 d8 32 a4 3e de a8 da 3e 5e 32 27 be 4a aa 4e be
       0.3207004 0.4270696 -0.16327807 -0.20182148
0000c0 1d 0e f5 bc 84 9b c2 bc ba f6 6a 3d 99 27 5a 3d
       -0.029913956 -0.023755796 0.057364203 0.05326042
0000d0 3a cb 18 bd 1d 53 22 bd 34 69 90 be f6 ad 78 be
       -0.037303187 -0.039630044 -0.28205264 -0.24285111
0000e0 52 c5 a3 3e 29 05 cb 3e 78 b4 46 be 29 a7 76 be
       0.3198648 0.39652374 -0.19404781 -0.24087204
0000f0 f7 c8 60 be 45 5a 39 be c3 d2 94 3e 01 cb aa 3e
       -0.21951662 -0.18100841 0.29067048 0.33358005
000100 20 4f 2e be 4c eb 45 be 6a 81 25 3d d5 85 25 be
       -0.17022371 -0.1932804 0.040406622 -0.16164334
000110 cc 56 d6 3e b3 c9 75 3e a4 80 df be 71 15 a3 be
       0.41863096 0.24002723 -0.43652833 -0.31852296
000120 fb 20 46 be 46 39 2e be a8 7b 88 3e f6 0c 9e 3e
       -0.19348519 -0.17014036 0.26656842 0.30869263
000130 1f 74 2c be 25 a0 3d be 0e 6b 8b bd b6 86 64 bd
       -0.16841172 -0.18518122 -0.068075284 -0.055792533
000140 c9 45 e3 3d 35 b8 e9 3d 83 61 8c bd 42 78 97 bd
       0.11097295 0.11412088 -0.068545364 -0.07395984
000150 86 a2 09 bd ec bc d4 bc 4e 12 7a 3d 22 aa 6b 3d
       -0.03360226 -0.025968991 0.061052613 0.0575353
000160 89 7b 1f bd 65 f0 29 bd fa bb f4 bd 89 6c c6 bd
       -0.03893617 -0.041489024 -0.11949916 -0.0968867
000170 3e fe 52 3e 34 3b 48 3e f0 dd 13 be c5 80 1c be
       0.20604798 0.19553834 -0.14440131 -0.15283497
000180 88 aa 5b be f8 7e 90 be 20 41 9b 3e 13 84 ba 3e
       -0.21451771 -0.2822187 0.30323124 0.3642889
000190 4d 85 79 be 37 65 98 be
       -0.24367256 -0.2976472

net.6.bias f4 [17]
000000 65 04 66 bc 66 d0 2d ba 0a 33 67 bc 10 6f 43 bc
       -0.014039134 -0.000663048 -0.01411129 -0.011928335
000010 8e f6 2b bc 06 cf 7f bc 98 fa d7 bb 55 20 8d bc
       -0.010495795 -0.015613323 -0.0065911524 -0.017227331
000020 8e b0 03 bb de 84 77 3c 1b 30 75 bc 3b 2f 55 bc
       -0.0020094248 0.015107362 -0.0149650825 -0.013011749
000030 1c f7 63 bc 2a b0 b1 bb 2a 09 05 bb c5 14 44 bc
       -0.013913896 -0.0054226117 -0.0020299652 -0.0119678425
000040 48 e2 92 3d
       0.07172066
