30 weight-optimized multi-task models/model_5.pt (torch_old, 4405 bytes, 14 tensors)

net.0.weight f4 [20, 6]
000000 bd 92 0c 3e 85 ba dd 3d 9b 8f d6 bd 97 b4 22 be
       0.13727851 0.108265914 -0.10476609 -0.15889202
000010 7b 26 6b bc 20 0e 01 bd 78 a4 63 3d 9c 39 9e bd
       -0.014352436 -0.03150761 0.05557677 -0.07725832
000020 43 69 93 3d 78 21 c6 3d 7e ad 51 bb aa 4c d4 bc
       0.071978115 0.096743524 -0.0031994279 -0.025915463
000030 54 eb 8e 3c a1 4b 18 3d 9b 65 2d 3d 1b 42 3b 3d
       0.017446198 0.0371815 0.042333227 0.04571734
000040 db 65 38 bd 2d 09 ce bc cd 92 b2 3d 14 16 69 be
       -0.045019012 -0.02515086 0.08719406 -0.22762328
000050 3b a1 74 ba 51 39 58 bd ad 9a fd 3d 3e 56 3d 3b
       -0.00093318865 -0.052789036 0.12383018 0.0028890516
000060 5b dc f7 bd 79 6d 85 bd 03 79 5b 3d e3 7a 8a bc
       -0.12102576 -0.06515021 0.053582203 -0.0169043
000070 1f 31 80 3b a4 94 e3 bb a3 06 52 bd 91 b5 07 bd
       0.0039121057 -0.0069452096 -0.05127586 -0.03313214
000080 ce c8 8f bd d5 31 c3 3d 52 2b 14 3c 76 92 6b bd
       -0.07020722 0.09530989 0.0090435315 -0.057512723
000090 5d 22 8d 3d 3f 77 40 3d f8 cf f0 3d 06 e7 05 bc
       0.0689132 0.046988722 0.11758417 -0.008172756
0000a0 10 ac 96 bd dd 17 e2 3d 45 ad 45 3e 96 cb 91 bc
       -0.07357037 0.11039708 0.19304378 -0.017797273
0000b0 5e 19 36 bd 04 3f 9a bb 64 10 b0 3d ef 3e f4 3b
       -0.044457786 -0.004707219 0.08596876 0.0074537913
0000c0 a1 0f 37 be ef 92 43 3d 04 20 08 3e b8 eb ad 3c
       -0.17877056 0.04774755 0.13293463 0.021230564
0000d0 c6 5f 20 3c 5f dc 7c 3d f1 69 30 be 09 11 85 bd
       0.009788459 0.0617336 -0.17227913 -0.0649739
0000e0 3b b7 c9 3b b8 d0 2d 3c 86 cd 4f 3d dd 4b e8 bc
       0.006155876 0.010608844 0.05073311 -0.028356487
0000f0 04 ad 73 3d 7c de 05 3e fc c5 14 3d c1 af 8f bd
       0.059491172 0.13073152 0.036321625 -0.07015944
000100 c0 5e 1b 3d d8 ae d3 bd 36 5d 62 bc 45 24 d6 bc
       0.037932158 -0.10336083 -0.0138161685 -0.026140342
000110 e6 71 aa bd 98 34 82 bc 6b ff 28 bc 0a 66 1a bd
       -0.08322506 -0.01589422 -0.010314803 -0.03769497
000120 37 8b 94 3d 30 af 5b bd 67 c6 29 3e f9 97 59 3e
       0.072531156 -0.05363387 0.1657959 0.21249379
000130 3d ce 25 3d 04 93 8f 3d 40 15 81 3e 6a 84 f5 3c
       0.040479887 0.07010463 0.25211525 0.029970367
000140 84 88 3d be 66 4a b0 3c d8 85 7f 3c ac bf 84 3d
       -0.18509108 0.021519851 0.015595876 0.06481871
000150 14 51 cf bd 9c e5 55 bd f1 9e f7 3c 12 f7 1a 3c
       -0.10122886 -0.052220926 0.030227156 0.00945832
000160 b5 9a 25 be dc 3d 56 3c c0 67 fd bd a1 c9 18 bd
       -0.16172297 0.013076272 -0.12373304 -0.037301663
000170 0d f1 02 be f2 c8 a3 3c f8 40 bf bc d8 68 b1 bc
       -0.12787266 0.01999328 -0.02334641 -0.021656439
000180 54 e5 35 bd 79 da 2c 3d 53 c8 8c bd 47 1a 09 3e
       -0.044408157 0.04220054 -0.06874146 0.1338893
000190 89 d9 7f 3d 75 2f 3c 3d c3 ed 80 3d 7a cd 53 be
       0.062463317 0.045943696 0.062953494 -0.20683852
0001a0 17 ef 9d 3d 76 68 07 3e 5f 15 ea 3d bd d7 28 bc
       0.077116184 0.13223442 0.114298575 -0.010305342
0001b0 04 73 54 bd a0 51 a6 3c 5a 6b 6a bd 98 1a fd bc
       -0.0518675 0.020302594 -0.057231285 -0.03089647
0001c0 bb c9 0a be c7 d0 9a 3d a3 41 db bd b4 5f e4 bd
       -0.13553517 0.07559352 -0.107058786 -0.111510664
0001d0 f5 ba 1c 3d ea 65 9f 3d de 91 fd 3c 99 5e 32 be
       0.038264234 0.077831104 0.030953344 -0.17418899

net.0.bias f4 [20]
000000 c8 49 34 34 58 39 2c b5 bd 33 8f 33 40 86 7f 33
       1.6790648e-07 -6.415844e-07 6.6683675e-08 5.9493914e-08
000010 c1 a7 33 33 77 58 8d b3 0c eb 95 33 e8 5b 2a 33
       4.1829257e-08 -6.581916e-08 6.981108e-08 3.9664798e-08
000020 98 f6 2a b4 ca c5 ea 32 e9 dc 58 33 2d fb f0 32
       -1.5922194e-07 2.733113e-08 5.0492336e-08 2.8053899e-08
000030 68 c8 96 b4 40 b8 31 b4 75 66 aa 34 4e 30 c8 34
       -2.8085492e-07 -1.655144e-07 3.1739515e-07 3.728805e-07
000040 73 c4 42 32 ec a9 e0 b3 34 ba ad 31 5d 68 93 b3
       1.1336954e-08 -1.04617214e-07 5.0561315e-09 -6.8642045e-08

net.1.weight f4 [20]
000000 77 ce 40 3e e0 73 b7 3d dd 08 83 3d b3 84 82 3e
       0.1882876 0.08957648 0.06398175 0.25491866
000010 cf 74 83 3d 55 12 9a 3d bc 20 14 3e 4a 40 55 3e
       0.06418764 0.07523028 0.14465612 0.20825306
000020 e9 67 42 3e 11 30 0f 3e 6d 3e 08 3e 20 16 90 3d
       0.18984951 0.1398318 0.13305064 0.0703547
000030 b6 10 37 3e a3 7e 57 3e a9 3c 0c 3e 39 ee 39 3e
       0.17877468 0.21044402 0.13695015 0.18157281
000040 ae b3 3d 3e 7a a9 46 3e 53 8e 13 3e 10 20 26 3e
       0.18525574 0.19400588 0.14409761 0.16223168

net.1.bias f4 [20]
000000 94 a0 8a 3c 85 e6 88 3c 32 60 16 3a 6a ce 34 3d
       0.016922273 0.016711483 0.000573638 0.044142164
000010 48 d4 b4 3c 05 b2 3e 3d ab 27 5e bd 06 0a d8 bd
       0.02207388 0.04655649 -0.05423705 -0.10548787
000020 4f 14 a9 bd e9 56 13 bd 45 be fe bc 73 61 bb 3c
       -0.08255827 -0.035971556 -0.031096587 0.022873616
000030 a5 2f 88 3b 69 34 39 3d dc 44 a6 3d a2 89 b7 bd
       0.0041560703 0.045215998 0.08118603 -0.08961798
000040 c0 95 95 bc 67 f3 4e bd 7c f5 52 3c fe da 99 bd
       -0.018259883 -0.050525095 0.012875911 -0.075124726

net.1.running_mean f4 [20]
000000 fe b0 0f 3c bb 81 45 bb c3 56 17 bb 58 48 df 3b
       0.008770226 -0.003013714 -0.0023092485 0.006814044
000010 f0 e9 cf b8 88 f7 76 bb 45 13 36 bb 7b ac 91 3b
       -9.9141034e-05 -0.0037684161 -0.0027782482 0.00444561
000020 08 47 6f bb ce 43 06 ba 34 20 f3 3b 29 6e 41 3a
       -0.0036510844 -0.0005121798 0.0074196104 0.0007378781
000030 b8 55 0f bc 04 c2 ce 38 67 2a c7 bb 73 2b 4d bb
       -0.008748464 9.858984e-05 -0.006078053 -0.0031306415
000040 28 88 d4 bb 60 62 da ba 98 fb 9b bb 7a 2d 4c b7
       -0.0064859577 -0.0016661398 -0.004760217 -1.2169936e-05

net.1.running_var f4 [20]
000000 2f b5 a1 3c 2d e5 41 3c 9e 90 b9 3b 2e 0f 17 3e
       0.019739715 0.011834425 0.0056629917 0.14751884
000010 73 3f 13 3c cd fc b9 3c 61 d1 bc 3c 59 51 80 3d
       0.008987295 0.022703553 0.023049058 0.06265516
000020 1d fd 40 3d d7 73 61 3c e0 2f 4a 3c 68 ba c2 3b
       0.047116388 0.0137605285 0.012340516 0.0059426315
000030 6c f0 df 3c e2 84 97 3d 45 79 35 3d a6 94 27 3d
       0.027336322 0.07398392 0.044305105 0.040913247
000040 d3 3b 93 3d c0 d8 73 3d d9 ee 04 3d 66 59 0f 3d
       0.07189145 0.05953288 0.032454345 0.034997366

net.3.weight f4 [6, 20]
000000 5e de c3 bd 06 40 49 3d 96 17 83 bc 53 ef 0c 3e
       -0.095638976 0.049133323 -0.016002458 0.1376317
000010 98 7a ab 3c cd 1c c0 3d b1 4b f7 3b 5b ac a5 bd
       0.02093248 0.09380493 0.007546865 -0.08089515
000020 84 34 f1 3c fc 87 a4 bd a3 d4 cd bd 77 d1 4a 3d
       0.029443987 -0.080337495 -0.10050323 0.049516167
000030 40 7a 00 3b 93 29 23 3d 46 db 98 bd 90 81 fa bb
       0.0019604117 0.03983457 -0.07463698 -0.0076448396
000040 f6 d6 90 bd 4f d0 28 3e a5 f6 8a 3c 10 dc e5 3c
       -0.070722505 0.16485713 0.016963312 0.028059036
000050 5f 14 26 3c 6b 85 d4 bc 69 06 0b 3d c1 88 80 3d
       0.010136693 -0.025942525 0.03394166 0.06276084
000060 95 7e 85 3d 1b 95 c8 bc 81 33 90 3d 58 89 73 3d
       0.06518284 -0.024485162 0.070410736 0.059457153
000070 74 7c 53 3d 58 77 f1 3d a4 dd 84 bd 61 f1 2d 3c
       0.05163236 0.11790341 -0.06487587 0.010616631
000080 9d 1e 9d bd 56 90 9e bd ce 22 ee 3d 64 1b af 3b
       -0.07671855 -0.07742374 0.11627732 0.0053438414
000090 fd 00 85 3b 2f a4 43 3d 2a e8 95 bd b2 9f d5 3d
       0.0040589557 0.047764 -0.073196724 0.1043085
0000a0 f9 ae ec bd 0d f4 83 3a b5 97 4c bd b0 de 29 be
       -0.11556811 0.001006724 -0.049949367 -0.16588855
0000b0 0c d5 a9 bc 6e 7c 14 bc 3b 2c 04 3e 5c 4d ab 3d
       -0.020731471 -0.0090628695 0.12907498 0.083643645
0000c0 5b 58 0f be a9 e5 49 3d 2d 28 d5 bc 71 d5 4b 3d
       -0.13998549 0.049291287 -0.026020134 0.0497641
0000d0 7d 19 e7 bd 4a 53 cf 3d 0b 81 96 bd 2c 01 0e 3e
       -0.112841584 0.10123308 -0.07348832 0.13867635
0000e0 a4 f8 e1 3d 08 61 d8 3c 03 f3 03 3e 96 86 9f 3d
       0.110337526 0.026413456 0.1288567 0.07789342
0000f0 05 ec 27 3d 91 44 86 3c ec bb 12 bd 25 07 c2 3d
       0.04099657 0.016390117 -0.035823748 0.09474019
000100 3b 60 06 bc b0 59 22 3d 4b 14 f3 3b 25 ff 84 3c
       -0.008201654 0.039636314 0.0074181906 0.016234944
000110 89 37 08 bd 70 da 2d 3d ea a4 47 bc cd 36 c1 3c
       -0.033256087 0.042444646 -0.012185315 0.023585701
000120 6e 26 36 3d 29 32 fe bc cd 32 94 bd 50 ed 97 3d
       0.044470243 -0.031029778 -0.07236252 0.07418311
000130 ce 03 8e 3c 20 49 b8 3d 17 e2 67 3d bb d3 b6 bd
       0.017335799 0.089983225 0.0566121 -0.08927103
000140 d6 6b f7 bb 3b a7 a0 3d 32 3a 04 bd 85 c3 76 3d
       -0.007550697 0.07844397 -0.032282062 0.060245056
000150 28 a9 2f 3c 27 94 eb 3c 97 4b 0c 3b a0 47 e0 bd
       0.010721482 0.028757168 0.002140736 -0.109511614
000160 88 61 b0 3c 76 f6 20 3d 45 16 10 bd fe fb 90 bb
       0.021530882 0.039297543 -0.035177488 -0.004424571
000170 bd ac 72 3d dc d4 32 3e dc 7e 39 bd fa 88 c4 3d
       0.059246767 0.17464012 -0.045287 0.09596439
000180 d7 75 1f bc d7 ee 8f bd fe aa 36 3d 0f 86 48 bd
       -0.009732685 -0.07027977 0.044596665 -0.048955973
000190 ae a4 01 3e 86 81 04 3d be 54 b1 b9 99 e5 24 3d
       0.12660477 0.032350086 -0.0003382321 0.040258024
0001a0 82 4a 75 bd 41 71 6a 3c 0f f6 e2 3c 05 c3 89 3d
       -0.05988551 0.014309228 0.02770522 0.0672665
0001b0 1b 42 f5 3c cc de 7a bc cb 78 aa bd 48 32 43 3d
       0.029938748 -0.015311908 -0.08323821 0.047655374
0001c0 96 12 d0 3b b0 99 c1 3d e4 c9 06 bd 75 b8 a2 3d
       0.006349872 0.09453142 -0.03290738 0.07945339
0001d0 62 08 a7 bd 84 b0 94 3c 80 d4 98 bb 54 3d 2a 3c
       -0.08155896 0.018150575 -0.004664004 0.010390598

net.3.bias f4 [6]
000000 b8 6c f2 36 1c 0f de b5 e1 48 a8 b6 d4 96 5f b5
       7.2248185e-06 -1.6544686e-06 -5.0152744e-06 -8.329346e-07
000010 f1 ea 0c 36 8e 9f 24 b6
       2.099838e-06 -2.4530777e-06

net.4.weight f4 [6]
000000 30 34 6a 3f 1d 9a 1e 3f 99 f5 8f 3f e4 fc 0f 3f
       0.9148588 0.6195391 1.1246825 0.56245255
000010 95 d4 25 3f be e6 6c 3f
       0.647775 0.92539585

net.4.bias f4 [6]
000000 62 36 e2 3e 66 1e b3 3e f6 f9 17 3f 2c 60 9f 3e
       0.44182116 0.3498413 0.59365785 0.3112806
000010 64 ca a8 3e 1d 2d 9a 3e
       0.32966912 0.30112544

net.4.running_mean f4 [6]
000000 87 04 68 3c b9 a7 a9 3c 32 6a f6 bb 13 b3 bb 3c
       0.014161236 0.02070986 -0.0075199837 0.022912538
000010 57 19 df 3c e0 10 db 3c
       0.027233763 0.026741445

net.4.running_var f4 [6]
000000 c8 9d 85 3a b8 3b 10 3a 30 73 0f 3b 4b ae 42 3a
       0.0010194117 0.0005502063 0.0021888725 0.00074264844
000010 b9 28 02 3a 81 5d 06 3b
       0.00049651746 0.002050251

net.6.weight f4 [17, 6]
000000 65 d2 92 3e 6e e1 8b be de 74 e6 be 14 94 6e 3e
       0.28676143 -0.27320427 -0.45011038 0.23298675
000010 db c0 96 3e c0 be 97 3e f3 b7 b8 3e b3 ca 9a be
       0.29444012 0.29637718 0.36077842 -0.30232772
000020 aa 92 c8 be 4d 87 d8 3d 36 81 a0 3e ec 97 a2 3e
       -0.39174396 0.105726816 0.3134858 0.31756532
000030 56 dc 5a 3e 4b 95 0e be 73 ba 9e be 31 c2 0a 3e
       0.21373114 -0.13924138 -0.31001624 0.1355064
000040 3a 3f 02 3e 33 59 7e 3e 75 48 3f 3e 44 ad b2 bd
       0.12719432 0.24838714 0.18679984 -0.08724454
000050 39 88 86 be cd 2f e8 3d 0d a7 ba 3d d7 07 51 3e
       -0.26275805 0.11337242 0.09113894 0.20413147
000060 94 b7 23 3e 95 88 13 be ab 7f 41 be 8e f8 e0 3d
       0.15987998 -0.1440757 -0.18896358 0.10984908
000070 cf 97 fa 3d fc 83 49 3e 23 bb 63 3e 05 e6 25 be
       0.122359864 0.19679254 0.22239356 -0.16201027
000080 5b e0 9b be 5d 04 12 3e d6 2b 16 3e 99 4a 89 3e
       -0.30444607 0.14259477 0.1466516 0.26814726
000090 9e 3e db 3d 9c b9 30 bd ac bc 0c be ac 05 83 3d
       0.10705303 -0.04314576 -0.13743848 0.06397566
0000a0 a6 9d 4b 3d dc d0 eb 3d 19 2f 98 3e 80 1a 95 be
       0.049710892 0.11514446 0.29723433 -0.2912178
0000b0 4f 39 b6 be 39 4f 1e 3e 9b a6 90 3e b1 8f a7 3e
       -0.35590598 0.15459909 0.2825211 0.32726815
0000c0 82 be 5b 3d 59 f3 81 bc c1 e7 85 bd a6 8d fe 3c
       0.05364848 -0.015863108 -0.06538344 0.031073403
0000d0 2c a4 ba 3c 86 cd 60 3d 9e 1b 91 3e 42 58 8f be
       0.022783361 0.054883502 0.28341383 -0.27997023
0000e0 0c 6b c6 be 1e 52 1e 3e 5f 93 7b 3e e4 7f a8 3e
       -0.38753545 0.15461013 0.24567936 0.32910073
0000f0 1f 1f 7b 3e e1 c9 41 be fd 7f a7 be df a2 14 3e
       0.2452359 -0.18924667 -0.32714835 0.14515255
000100 d5 ac 2e 3e 1a eb 93 3e 70 8f 93 3e 9a 20 96 bc
       0.17058118 0.28890306 0.28820372 -0.018326093
000110 93 82 fa be 9b d8 97 3e d7 9d c0 3d 6c a2 3f 3e
       -0.48927745 0.29657444 0.094051056 0.18714303
000120 a3 b4 62 3e 2d 51 2e be e9 c0 9c be a7 6f 0f 3e
       0.2213922 -0.17023154 -0.3061593 0.14007436
000130 5a 23 18 3e 2c 9b 8c 3e 29 ed ca 3d a0 70 32 bd
       0.14857236 0.27462137 0.09908516 -0.04356444
000140 0f 77 fb bd 17 67 75 3d 3c 3f 49 3d 7e 83 df 3d
       -0.12278568 0.059912767 0.04913257 0.10913752
000150 fe bc 66 3d 90 32 93 bc 42 f4 8a bd 19 b3 08 3d
       0.05633258 -0.017968446 -0.0678487 0.033373926
000160 f0 e0 cb 3c 4d 95 72 3d 88 f6 36 3e 79 d8 8f bd
       0.024887532 0.059224416 0.17867482 -0.07023711
000170 5e 35 7f be fa f3 da 3d 70 d7 a7 3d 11 13 41 3e
       -0.24922702 0.10691066 0.08195388 0.1885493
000180 73 31 81 3e 09 cb 8b be b4 48 de be f8 21 44 3e
       0.2523304 -0.2730334 -0.43414843 0.19153583
000190 87 ea 4a 3e ee 7c a7 3e
       0.19816028 0.327125

net.6.bias f4 [17]
000000 50 e1 96 bd 15 16 f6 bd d4 f0 07 bd 5a df b5 bc
       -0.07367194 -0.120159306 -0.033188656 -0.022201229
000010 42 88 14 bd a4 12 53 bd 50 cb 0a bc bb 0b f2 bd
       -0.036262758 -0.05153145 -0.008471325 -0.11818644
000020 01 68 95 ba 5c a6 9c bd c6 15 86 bd 3b 16 a9 bc
       -0.0011398793 -0.07648918 -0.06547122 -0.020640483
000030 0e 18 4e bd 69 26 11 bc 1c 0a 24 ba 8d a9 80 bc
       -0.05031591 -0.008859255 -0.000625761 -0.015705848
000040 a5 06 bb bc
       -0.022830317
