30 weight-optimized multi-task models/model_6.pt (torch_old, 4405 bytes, 14 tensors)

net.0.weight f4 [20, 6]
0.050621133 -0.21224603 0.0077798106 -0.020046279 0.09340778 0.017890304 0.12714627 -0.06286674
-0.0355114 0.018920382 0.0023092 0.03575725 -0.06962546 0.049483377 0.031195505 0.05921314
0.14078426 0.020394223 0.0295625 -0.05644024 -0.028700761 0.036229245 -0.0853769 0.07148478
-0.12953295 -0.008764086 0.020408181 -0.031329855 0.051497966 -0.018324098 -0.048459046 0.044204764
-0.1227412 -0.016122099 0.043930802 -0.035435624 -0.10886773 -0.011785803 0.05058305 -0.05682619
-0.15939583 0.051389348 -0.0532052 -0.1640988 -0.007970805 -0.06332131 0.08022751 0.09654283
0.040220298 -0.01337058 0.023835007 -0.005402371 -0.042579357 -0.15174969 -0.18514034 -0.051882293
-0.12535645 0.03273907 0.010950756 -0.03365713 -0.158376 -0.004027767 -0.043060374 -0.036192425
-0.021542046 -0.050533634 -0.12953272 -0.07004833 0.09079284 0.056649223 0.025021737 -0.09691187
0.24734266 0.079234175 -0.09872426 0.02537166 -0.020780439 0.10326825 0.16005872 0.1315936
-0.119221285 -0.19839706 -0.027308127 -0.07284501 0.0956523 -0.05869267 -0.031362165 0.007042831
0.074326016 -0.00034285913 -0.14917244 0.05680062 0.10391042 0.03975992 -0.005480894 -0.0072297016
0.14017788 -0.028441105 0.08901805 0.104105204 -0.0069584856 -0.030713916 0.07428562 0.0427117
0.16014512 0.16291954 0.10027936 0.101936646 -0.0043058363 -0.055806015 -0.19994622 -0.06014095
-0.077530615 0.052450716 0.049342506 0.0042890925 0.0054162494 -0.05639425 -0.2077376 0.13843988
00000000: 1b58 4f3d 0657 59be c8ed fe3b 1838 a4bc
00000010: 944c bf3d b08e 923c a232 023e 47c0 80bd
00000020: 6774 11bd ebfe 9a3c f255 173b 3276 123d
00000030: cb97 8ebd 15af 4a3d b78d ff3c 7a89 723d
00000040: c029 103e c911 a73c 0e2d f23c e22d 67bd
00000050: dc1d ebbc 1e65 143d 16da aebd 9d66 923d
00000060: 49a4 04be 3e97 0fbc 0f2f a73c bc53 00bd
00000070: 88ef 523d 6b1c 96bc fe7c 46bd 0e10 353d
00000080: bd5f fbbd 7e12 84bc c9f0 333d f224 11bd
00000090: 0bf6 debd 3e19 41bc 2c30 4f3d 94c2 68bd
000000a0: a938 23be a37d 523d b2ed 59bd 8409 28be
000000b0: fb97 02bc 9aae 81bd 524e a43d 3fb8 c53d
000000c0: 0abe 243d 4710 5bbc a241 c33c 5f06 b1bb
000000d0: b167 2ebd 4564 1bbe 6e95 3dbe 8782 54bd
000000e0: 715d 00be 6719 063d cd6a 333c 0fdc 09bd
000000f0: 512d 22be 5cfb 83bb 1360 30bd 823e 14bd
00000100: f278 b0bc 5bfc 4ebd 3aa4 04be 8075 8fbd
00000110: 99f1 b93d 0409 683d 63fa cc3c bb79 c6bd
00000120: 6547 7d3e 8745 a23d f22f cabd 3ad8 cf3c
00000130: bd3b aabc 4e7e d33d 6fe6 233e 79c0 063e
00000140: 4a2a f4bd 9928 4bbe 4bb5 dfbc c42f 95bd
00000150: 5ae5 c33d ba67 70bd 9d75 00bd 8cc7 e63b
00000160: 3d38 983d c6c1 b3b9 a9c0 18be c4a7 683d
00000170: fcce d43d 4cdb 223d 1299 b3bb 22e7 ecbb
00000180: ca8a 0f3e 52fd e8bc 184f b63d 1c35 d53d
00000190: 0204 e4bb c09b fbbc 0f23 983d 77f2 2e3d
000001a0: 15fd 233e 61d4 263e 445f cd3d 29c4 d03d
000001b0: f917 8dbb d994 64bd b4be 4cbe 5b56 76bd
000001c0: 5fc8 9ebd 90d6 563d 5e1b 4a3d 848b 8c3b
000001d0: cb7a b13b a8fd 66bd 2ab9 54be 2fc3 0d3e

net.0.bias f4 [20]
-6.347797e-08 -1.2224586e-06 2.0931843e-07 -5.9312497e-09 -4.5432432e-07 -1.7863707e-07 3.2808995e-07 1.0804571e-07
5.4249476e-08 -8.641965e-08 -1.3918203e-07 6.791763e-08 -2.1774015e-07 -8.581809e-08 -1.6835945e-07 3.1468124e-07
8.6355186e-08 -7.090955e-08 -8.732053e-08 5.101777e-08
00000000: 6251 88b3 5c13 a4b5 03c1 6034 d3cb cbb1
00000010: dce9 f3b4 62cf 3fb4 5724 b034 c206 e833
00000020: eeff 6833 b495 b9b3 1172 15b4 1dda 9133
00000030: f5cb 69b4 fe4a b8b3 4bc6 34b4 76f1 a834
00000040: 4472 b933 f046 98b3 f884 bbb3 a21e 5b33

net.1.weight f4 [20]
0.18752263 0.19120818 0.13896544 0.07617624 0.102258116 0.13393533 0.13872384 0.12738681
0.17100212 0.19726421 0.1508713 0.112340085 0.20532429 0.1340109 0.18365605 0.18307973
0.15159397 0.19307414 0.16866346 0.12157396
00000000: ef05 403e 14cc 433e f54c 0e3e 4a02 9c3d
00000010: b46c d13d 5826 093e 9f0d 0e3e b071 023e
00000020: 2e1b 2f3e a1ff 493e 027e 1a3e 8f12 e63d
00000030: 8840 523e 273a 093e 5510 3c3e 4179 3b3e
00000040: 733b 1b3e 3ab5 453e 1db6 2c3e c5fb f83d

net.1.bias f4 [20]
0.029349394 -0.17364271 0.083558664 -0.0045102937 -0.052226234 -0.08907149 0.07862025 0.04627087
-0.06630859 -0.080605954 -0.064105906 -0.009456694 0.097578965 0.040648423 -0.14422055 -0.04125396
-0.011582599 0.002571658 -0.062640436 0.0494045
00000000: 246e f03c 65cf 31be ce20 ab3d 16cb 93bb
00000010: 2deb 55bd 1d6b b6bd a703 a13d 8686 3d3d
00000020: cccc 87bd bc14 a5bd f549 83bd 40f0 1abc
00000030: 7bd7 c73d f67e 263d 8dae 13be eaf9 28bd
00000040: f1c4 3dbc 4389 283b a149 80bd 5f5c 4a3d

net.1.running_mean f4 [20]
-0.0012726473 -0.0013449647 0.003613754 0.00059978233 0.0008135416 -0.0053415797 0.0036302253 0.0019206075
-0.0053418754 -0.0055244192 -0.0029589236 0.00022745931 -0.00057498954 -0.007774026 -0.0021148387 0.0054563642
0.0016539053 0.011147915 -0.0069713597 0.004193033
00000000: f5ce a6ba 8749 b0ba bbd4 6c3b b63a 1d3a
00000010: da43 553a 6b08 afbb 13e9 6d3b e5bc fb3a
00000020: e60a afbb 3006 b5bb 80ea 41bb 2582 6e39
00000030: e5ba 16ba 42bd febb 1b99 0abb 4dcb b23b
00000040: dac7 d83a bfa5 363c 0170 e4bb b665 893b

net.1.running_var f4 [20]
0.0909299 0.025442116 0.04300175 0.010615137 0.008584221 0.02974781 0.05521144 0.036013693
0.039801158 0.05950303 0.02999162 0.026019102 0.055488575 0.037123773 0.031258408 0.04234806
0.026019333 0.05901109 0.0374856 0.053645268
00000000: 7539 ba3d fc6b d03c 9a22 303d 1deb 2d3c
00000010: d5a4 0c3c aeb1 f33c 6425 623d 1883 133d
00000020: 8a06 233d 73b9 733d fcb0 f53c 0326 d53c
00000030: fd47 633d 190f 183d d108 003d 2975 2d3d
00000040: 7f26 d53c 9db5 713d 808a 193d 24bb 5b3d

net.3.weight f4 [6, 20]
0.029307079 0.10607813 -0.09804616 -0.033436578 -0.036262125 0.010291539 -0.08391599 0.040495683
-0.03161029 0.023186067 0.007703387 -0.015195217 0.037130777 -0.011446114 0.02202223 0.018886387
0.03372957 0.024807757 0.06430295 -0.03446943 -0.13153377 -0.08052395 0.027334861 -0.013118372
0.09072751 0.08386218 -0.0043888325 -0.08041268 0.028561855 0.15444192 0.13748358 0.035810277
0.13320261 -0.15583265 0.03657289 -0.10576755 -0.07390845 -0.06701291 -0.008128715 0.0767812
0.031285193 0.16621067 -0.086104505 -0.02709123 -0.024596868 0.015810922 -0.08052179 -0.0007018846
-0.04028038 -0.006374502 0.028878782 -0.05374923 -0.0005299964 0.039921384 0.04928326 -0.0039418363
0.029521603 0.0394181 0.0532079 -0.017997973 0.082874954 -0.09365197 -0.07365058 0.023938103
-0.04745146 -0.077304676 -0.10474232 0.07942901 -0.1001915 -0.05216352 0.026422855 0.030561073
-0.038341258 -0.050784685 -0.08255373 0.0640311 0.07487354 0.049753662 0.07646621 -0.06901985
0.025542043 -0.12239451 -0.030686691 -0.067367874 0.007978016 0.036534972 -0.038621254 0.05434278
-0.010304457 0.09827238 0.035841007 -0.10197424 0.16258214 0.0052349614 -0.14358017 0.04344809
0.07763342 0.04087279 0.06269123 -0.016071467 0.058933213 -0.0014817858 -0.06369075 -0.024466835
-0.01800183 0.019699352 -0.030778607 0.01491065 -0.05113652 0.060418215 -0.009693414 -0.008530182
-0.007857921 0.0052145286 0.16250008 -0.08513956 0.0053563323 0.062296625 0.024348319 -0.036408592
00000000: 6615 f03c 7e3f d93d 6dcc c8bd cbf4 08bd
00000010: 9887 14bd d89d 283c 26dc abbd cdde 253d
00000020: cb79 01bd b5f0 bd3c b26c fc3b 5cf5 78bc
00000030: 7116 183d 7b88 3bbc f767 b43c a0b7 9a3c
00000040: 0528 0a3d a339 cb3c 44b1 833d d12f 0dbd
00000050: cab0 06be bee9 a4bd 5ced df3c 71ee 56bc
00000060: 58cf b93d efbf ab3d 32d0 8fbb 67af a4bd
00000070: 8dfa e93c 0626 1e3e 7fc8 0c3e ccad 123d
00000080: 4466 083e 9892 1fbe 74cd 153d a89c d8bd
00000090: 505d 97bd 113e 89bd 4d2e 05bc 763f 9d3d
000000a0: e724 003d 2133 2a3e 8f57 b0bd 6dee ddbc
000000b0: 5f7f c9bc e885 813c 9ce8 a4bd aefe 37ba
000000c0: 0afd 24bd 33e1 d0bb 3293 ec3c 2728 5cbd
000000d0: 75ef 0aba 9b84 233d 3edd 493d 852a 81bb
000000e0: 4ad7 f13c e074 213d 87f0 593d 7c70 93bc
000000f0: 58ba a93d 9bcc bfbd 1ed6 96bd d719 c43c
00000100: 765c 42bd ea51 9ebd 2483 d6bd adab a23d
00000110: 3331 cdbd 6aa9 55bd be74 d83c 375b fa3c
00000120: b90b 1dbd 9a03 50bd ee11 a9bd bd22 833d
00000130: 4c57 993d 7fca 4b3d 519a 9c3d 475a 8dbd
00000140: 8c3d d13c f9a9 fabd a862 fbbc 2bf8 89bd
00000150: 39b6 023c b2a5 153d 5231 1ebd 8996 5e3d
00000160: 06d4 28bc 0843 c93d 05ce 123d dfd7 d0bd
00000170: ef7b 263e 0a8a ab3b ae06 13be a0f6 313d
00000180: 45fe 9e3d 3a6a 273d 4264 803d 4fa8 83bc
00000190: f463 713d 7b38 c2ba 4c70 82bd ac6e c8bc
000001a0: 9378 93bc 8960 a13c 6b23 fcbc cd4b 743c
000001b0: 8774 51bd 1779 773d 20d1 1ebc 2dc2 0bbc
000001c0: 82be 00bc a3de aa3b 6c66 263e a65d aebd
000001d0: 2c84 af3b bf2a 7f3d 2076 c73c 2d21 15bd

net.3.bias f4 [6]
3.1290438e-07 4.5956745e-07 -6.693517e-06 5.9481934e-08 -1.7756289e-06 1.4901974e-06
00000000: 40fd a734 78ba f634 e098 e0b6 1479 7f33
00000010: 2552 eeb5 cb02 c835

net.4.weight f4 [6]
0.7405827 1.1672924 0.8428103 0.6879616 0.80460733 0.6737697
00000000: d496 3d3f d669 953f 6ac2 573f 401e 303f
00000010: bffa 4d3f 2c7c 2c3f

net.4.bias f4 [6]
0.280386 0.7202387 0.3310704 0.31724072 0.42577484 0.28966734
00000000: c18e 8f3e 9061 383f 0f82 a93e 606d a23e
00000010: 29ff d93e 474f 943e

net.4.running_mean f4 [6]
-0.0015752529 -0.0033002435 -0.0037346378 -0.014038662 0.028161112 0.00027822718
00000000: b778 ceba e648 58bb d3c0 74bb 6b02 66bc
00000010: 22b2 e63c 05df 9139

net.4.running_var f4 [6]
0.0007885915 0.0024104745 0.00091508747 0.00047512632 0.00081641506 0.0006411268
00000000: 7bb9 4e3a 0df9 1d3b 7be2 6f3a 601a f939
00000010: b004 563a 4b11 283a

net.6.weight f4 [17, 6]
0.14901713 -0.45237505 0.31234467 0.2597627 0.37205008 0.2243586 0.29876298 -0.4542786
0.2155873 0.17808418 0.40089637 0.17416455 0.18902689 -0.33673158 0.21795067 0.124058224
0.13384204 0.15763424 0.15659712 -0.2799327 0.1819363 0.11400738 0.08347628 0.13403669
0.15367366 -0.22059959 0.17093848 0.08158843 0.1448725 0.12090953 0.20260921 -0.33379126
0.22844839 0.1249041 0.1612297 0.16343161 0.09186428 -0.14975546 0.10687204 0.06320983
0.044728946 0.07849458 0.25740883 -0.4112822 0.26169932 0.13387701 0.37152603 0.17010908
0.043695744 -0.07161627 0.05109278 0.030423557 0.018434204 0.03781722 0.26016998 -0.42966056
0.25901097 0.16853158 0.3178735 0.1624428 0.2189962 -0.35886273 0.2415033 0.13176766
0.19909722 0.16448456 0.16780731 -0.44869608 0.15841344 0.2926698 0.0601617 0.3282561
0.20616938 -0.3375127 0.23174761 0.1274229 0.16521485 0.16231795 0.0872872 -0.13459781
0.10099098 0.057226766 0.04561352 0.074041426 0.04651499 -0.07505113 0.054365575 0.03232734
0.02037886 0.04044687 0.14501661 -0.26334682 0.1696023 0.10650697 0.07110356 0.12586826
0.15545338 -0.45881894 0.28843066 0.21757412 0.2752368 0.20661539
00000000: f297 183e b49d e7be a4eb 9f3e 9eff 843e
00000010: 597d be3e 43be 653e 76f7 983e 3497 e8be
00000020: ebc2 5c3e b35b 363e 4a42 cd3e 3158 323e
00000030: 4490 413e 1568 acbe 762e 5f3e 3d12 fe3d
00000040: e30d 093e df6a 213e ff5a 203e 5753 8fbe
00000050: 824d 3a3e b47c e93d 9df5 aa3d ea40 093e
00000060: a15c 1d3e dce4 61be 7f0a 2f3e d617 a73d
00000070: 7559 143e 6a9f f73d ca78 4f3e b0e6 aabe
00000080: 60ee 693e b9cd ff3d 6619 253e 9e5a 273e
00000090: 5723 bc3d 7f59 19be badf da3d 2874 813d
000000a0: b335 373d c4c1 a03d 17cb 833e 9593 d2be
000000b0: 74fd 853e 0e17 093e a938 be3e 1331 2e3e
000000c0: 4ffa 323d 8dab 92bd aa46 513d d33a f93c
000000d0: 5403 973c 3be6 1a3d 0035 853e 78fc dbbe
000000e0: 169d 843e 8b93 2c3e 51c0 a23e 6857 263e
000000f0: 8a40 603e dbbc b7be a44c 773e 1aee 063e
00000100: 24e0 4b3e a46e 283e aed5 2b3e 7ebb e5be
00000110: 2237 223e d1d8 953e 1d6c 763d 2f11 a83e
00000120: 111e 533e 77ce acbe 3f4f 6d3e 267b 023e
00000130: 152e 293e ad36 263e a2c3 b23d 02d4 09be
00000140: 5cd4 ce3d 9d66 6a3d 3ed5 3a3d 08a3 973d
00000150: 8186 3e3d 68b4 99bd 70ae 5e3d ac69 043d
00000160: 91f1 a63c 9eab 253d 3c7f 143e 65d5 86be
00000170: 3aac 2d3e 5420 da3d be9e 913d 9ce3 003e
00000180: 2c2f 1f3e 51ea eabe 2fad 933e c0cb 5e3e
00000190: d6eb 8c3e fc92 533e

net.6.bias f4 [17]
-0.226642 -0.19493993 -0.045489766 -0.02318621 -0.045761444 -0.06489643 -0.006811478 -0.18953337
-0.0012649745 -0.14841543 -0.08502402 -0.027759565 -0.067807674 -0.0072907605 -0.0013893162 -0.015006278
-0.1330349
00000000: d714 68be 559e 47be 7a53 3abd 02f1 bdbc
00000010: 5a70 3bbd 6be8 84bd d232 dfbb 0915 42be
00000020: 80cd a5ba 37fa 17be 1321 aebd 0768 e3bc
00000030: c0de 8abd 55e7 eebb b719 b6ba e4dc 75bc
00000040: 4d3a 08be
