30 weight-optimized multi-task models/model_22.pt (torch_old, 4405 bytes, 14 tensors)

net.0.weight f4 [20, 6]
00000000: eb72 923e 8847 10be ff75 c4bd 443c 113e
00000010: bebf e63c 231b a83d b13b 70bd 61ef 143d
00000020: ecbd 5b3d 83f6 b8ba 1c66 60bc a2ab bbbd
00000030: 8630 c0bd 5a8d cd3d eefc ae3c 5911 ebbd
00000040: efe3 47be 0fca 0dbd a5b9 aabd a790 243d
00000050: 64ca 3b3d 25ab 763d 3688 0f3e 362b eb3c
00000060: 3aa0 c3bb 0f22 233d 9877 723c 38b3 67bd
00000070: df29 d9bc 8490 453d 2c03 1cbd a6ba ca3d
00000080: d6ae 513d 5eaa 06be 4b3d c93d 41d4 03be
00000090: 72cf e63d 978c e4bc 832f 37bc 0582 fa3b
000000a0: f7af b03b 6a6c 813b 1126 213e 2975 1a3e
000000b0: d141 55bc a0c5 11be 611f b9bd a592 9b3d
000000c0: 909c b7bc 7901 be3c c448 bdbd 1c68 2b3d
000000d0: 4f56 97bd 88e5 f93c 0752 b2bc 5936 5cbd
000000e0: 6ce9 393d 0cc1 72bc 4832 28be ca12 c53d
000000f0: 3bd7 2e3d 971d 253d f0e0 2a3d bd8d cf3d
00000100: f529 ca3c eadc b3bb e312 9dbd a962 ef3b
00000110: 7b11 43be 5d47 7ebd d9e9 9e3b e058 74bd
00000120: cc4d 0cbe 2f94 66bc 5027 f5bd c142 c1bd
00000130: d9ab c1bc 04ee ce3b e831 4bbe cd04 a0bd
00000140: bcb9 1d3b 9814 123d d8a8 cb3c 4887 f9bc
00000150: 0e30 5f3a f703 a53b c36a ddba 2682 123c
00000160: e97d 22bb ff93 133c 56f5 ca3d 43e4 803d
00000170: ad59 503e fd6a 213e 3ec4 bd3d 7572 a23d
00000180: 2ed6 5e3d 0bdf 38be f6d9 3d3d bcfc 7c3d
00000190: 3755 1c3d df92 203d 3948 203e ff08 093e
000001a0: 81c3 ecbd 16a9 debd 7ccd e1bd 37a7 e3bb
000001b0: 8875 babc 03f2 9d3d 1374 43bd ffb2 8f3b
000001c0: a25d cebc ce5f 3e3c ca81 8d3d 6f04 45be
000001d0: fbf2 bebc 188f c5bd 9518 e63d ac83 6e3c
0.286033 -0.14089787 -0.095928185 0.14183146 0.028167602 0.08208301 -0.058650676 0.036361102
0.05364792 -0.0014111552 -0.01369622 -0.09163596 -0.09384255 0.10036726 0.02136084 -0.11477918
-0.19520544 -0.034616526 -0.0833619 0.040177014 0.04584731 0.06022181 0.14016804 0.028707128
-0.005970028 0.039827403 0.014799021 -0.0565674 -0.026509224 0.048233524 -0.038088962 0.098988816
0.051192127 -0.13150927 0.09826144 -0.12873937 0.11270036 -0.02789907 -0.011180761 0.007644894
0.0053920704 0.0039496915 0.15737177 0.15083756 -0.01301618 -0.14235544 -0.09039188 0.075963296
-0.022413522 0.023194062 -0.092423946 0.041847333 -0.07389509 0.030504957 -0.02176763 -0.053762767
0.045388624 -0.014816534 -0.16425431 0.09622724 0.04268573 0.040311422 0.041718423 0.10134456
0.02467821 -0.0054889815 -0.07669618 0.0073054624 -0.19049637 -0.062079776 0.004849654 -0.05965507
-0.13701552 -0.014073416 -0.11970389 -0.094365604 -0.023641514 0.006314995 -0.19843256 -0.07813416
0.0024067005 0.03566417 0.024860784 -0.030460015 0.00085139356 0.005035873 -0.0016892779 0.008942163
-0.0024794287 0.009007453 0.09910075 0.062935375 0.20346709 0.15763469 0.09265946 0.07931987
0.054403476 -0.18053834 0.046350442 0.061764464 0.038167205 0.039202567 0.15652551 0.13382338
-0.11560727 -0.10872094 -0.11025521 -0.006947424 -0.022761121 0.07712176 -0.04771812 0.0043853517
-0.025191132 0.011619521 0.06909521 -0.19239973 -0.023309221 -0.096464336 0.112351574 0.01455776

net.0.bias f4 [20]
00000000: b3fc 53b5 331e 04b4 5de8 fab3 2fab f8b2
00000010: 48a9 8332 ee97 0833 cec8 9033 768d ae34
00000020: fecf a833 783e 1934 2541 aa33 a6fb 0f34
00000030: 6831 beb3 c20e 8533 8516 9dae 8600 cdb3
00000040: 2b75 4f34 e00b 96b5 0db5 5ab3 e52e 6d34
-7.897135e-07 -1.2304444e-07 -1.1683799e-07 -2.8948845e-08 1.5327387e-08 3.1803147e-08 6.742049e-08 3.2512952e-07
7.860943e-08 1.4271961e-07 7.9280916e-08 1.3409462e-07 -8.8565514e-08 6.1959796e-08 -7.143534e-11 -9.5461516e-08
1.9321003e-07 -1.1179327e-06 -5.0921745e-08 2.2089405e-07

net.1.weight f4 [20]
00000000: d727 9d3e f21f 023e a362 143e 3f39 ec3d
00000010: 4ec6 9d3d 8b18 113e fcd2 123e dfe9 1c3e
00000020: b21f f63d b971 083e 0c4b 963d b5d6 243e
00000030: 54fa 1e3e 6ea5 2f3e a85d b83b 5fce 553e
00000040: e227 413e 0212 303e d13c ec3d 7ed3 793e
0.30694458 0.12707499 0.14490752 0.11534356 0.07703839 0.14169519 0.14338297 0.1532359
0.12017764 0.13324632 0.07338533 0.16097529 0.1552518 0.1715295 0.005626399 0.20879506
0.1886287 0.1719437 0.11535037 0.24397084

net.1.bias f4 [20]
00000000: 16d2 c4bd 9b4b 953c 165b 643d f448 923d
00000010: 8cfe d2bc e260 293c eb5a dbbd dfd9 903d
00000020: 2be9 bbbc faec 15bc b345 1b3d 4b41 e23c
00000030: 9f87 e0bd edeb b5bc 7aec 87bc 8cd0 393c
00000040: 1d8d 55bd e145 e0bd 6634 92bd ef5a 133d
-0.09610383 0.018224528 0.05575093 0.07142821 -0.025756143 0.01033804 -0.107107006 0.070728056
-0.022938332 -0.009150738 0.037908267 0.027619025 -0.10963368 -0.022207225 -0.016592253 0.011341225
-0.05213653 -0.10950828 -0.071389005 0.035975393

net.1.running_mean f4 [20]
00000000: c22c 133c ef7c cbba 1eea 3dbc 4062 dd3b
00000010: af89 46bb 300f 99bb e51b 423a fd01 0cbc
00000020: 28c5 0336 aa1c 93bb 1c63 a33b 02e7 43bb
00000030: dbea 9abb 1963 063b d9ec d139 c4da 223c
00000040: b928 9d3b 73bd 07bc 60a6 26ba 4066 81b8
0.008982839 -0.0015524904 -0.011591462 0.006756097 -0.0030294468 -0.004671 0.00074046693 -0.008545396
1.9635281e-06 -0.004489501 0.00498618 -0.002989233 -0.004727704 0.0020505844 0.00040040052 0.009939853
0.0047961143 -0.008284914 -0.0006357189 -6.170245e-05

net.1.running_var f4 [20]
00000000: 7301 d23d 0393 983c 31ca 913d a8fc 193d
00000010: f269 443b 12af 003d f9da 7e3c e47f b13c
00000020: 9e23 f63c e0d4 123d 300b 3e3c b33f 093d
00000030: 83df bd3c a00a c53c 286e c939 9ed3 603d
00000040: 4ff4 153d de6c 993c 8930 953c 8556 f33d
0.10254183 0.018624788 0.07118643 0.037594467 0.0029970375 0.03141696 0.015555137 0.021667428
0.03004628 0.035847545 0.011599347 0.033508014 0.023177868 0.024052918 0.0003841978 0.054889314
0.036609944 0.01872867 0.01821162 0.11881737

net.3.weight f4 [6, 20]
00000000: 879c 993c 2096 2a3d e09c 903d 0cef 0fbc
00000010: fed0 9fbd 763f a13c e034 123d c3cc 0b3e
00000020: dea0 1fbd bc16 d63d 80c7 973d 334f 273d
00000030: 608a e8bd 59b7 d03c a8ab 9d3b 54e2 f6bd
00000040: aae2 b8bd 8657 a7bd b851 9ebd 504a e3bd
00000050: bcbf ed3c 6b90 b5bb 6823 d3bc 38d0 993b
00000060: a634 063d 6a25 273d 9c8f 9abb b9d7 e83d
00000070: a6f3 f53d 4ae0 003c e3ec 3a3d 6487 993d
00000080: 82d1 f4bd 01a3 6abd f1b7 363c 6393 89bd
00000090: 832b 40bd abfd f4bd 2a97 d23d 462a dfbd
000000a0: 6762 133e dfbe d0bd 7cc3 9abb 9941 3a3d
000000b0: 51d2 653c c522 5e3d 1d51 7e3d 023f 9cbc
000000c0: e421 823d 6f00 123d c831 5f3c 3fc8 cc3d
000000d0: 4f85 963d 23bf 873d 2ffe c1bb 4365 1ebd
000000e0: 1759 3bbd a913 99bd 0219 5abd 524a 2cbe
000000f0: 2761 6f3e 3140 8c3b 1105 16be e263 d6bd
00000100: ac0d 9c3c b85d 71bd f55a cabc 77be 35bb
00000110: 340c 24bc 401d 8dbd e48b 26bd a166 fb3d
00000120: c247 5b3d 750c c2bd 3deb 803c 35d9 323d
00000130: 6ecf 173d d2b3 773c 0e8b 07bd 9838 173d
00000140: 9c27 2e3d 2a87 e63d aee6 683d 51fa 4c3d
00000150: 06d6 d8bc 98df de3d f581 013e b914 c5bd
00000160: 50cc 513d 0222 f93c 95f5 a6bc c6a1 4c3d
00000170: c630 6b3d 80e4 9e3d f3cd 44ba 7a43 86bd
00000180: fa9f 933d 8080 f0bc d8ba ebbc 960d 463d
00000190: 0053 84bd cc18 3a3c 3c13 3ebd 4665 57bd
000001a0: 85ae 6e3c 4c58 4ebd 64dc af3d fd13 14bc
000001b0: df07 41bc 9842 16bd 2548 d4b8 5086 4e3d
000001c0: 8a8e a03c 2c6b 28bd 0e8d efb9 1b12 153d
000001d0: 8e74 3f3e b279 b83c 1639 74bc 57f9 8f3d
0.018751396 0.041647077 0.070611715 -0.008785021 -0.07803534 0.01968358 0.035694957 0.13652329
-0.038971774 0.10453555 0.074110985 0.040847015 -0.11354518 0.025478052 0.004811723 -0.120548874
-0.09027608 -0.08170991 -0.0773043 -0.11098158 0.02902209 -0.0055408976 -0.025773719 0.004694011
0.032765053 0.040807165 -0.0047168266 0.11369271 0.12009363 0.007865975 0.04563607 0.07496527
-0.11954023 -0.05728436 0.0111522535 -0.06717565 -0.046916496 -0.11962446 0.102827385 -0.10896735
0.14393006 -0.10192656 -0.0047230106 0.045472715 0.014027194 0.054232378 0.062089074 -0.019073013
0.063541204 0.035644945 0.013622709 0.099991314 0.07349645 0.06628253 -0.0059201936 -0.03867079
-0.04573926 -0.07474453 -0.053246506 -0.16825226 0.23376904 0.004280113 -0.1465037 -0.1046827
0.019049488 -0.058927268 -0.024701575 -0.0027731934 -0.010012675 -0.068903446 -0.040660754 0.12275434
0.05353523 -0.09475032 0.01573717 0.043664176 0.037063055 0.015118556 -0.033091597 0.036919206
0.042518243 0.11256249 0.05686062 0.050043408 -0.026469242 0.10882491 0.12647231 -0.09623093
0.05122024 0.030411724 -0.020380775 0.049958967 0.05741956 0.07758427 -0.00075074955 -0.06555839
0.072082475 -0.029358149 -0.028775617 0.0483528 -0.064611435 0.011358451 -0.046405062 -0.052586816
0.014567976 -0.050377175 0.08586958 -0.009037969 -0.011781662 -0.036684602 -0.00010122386 0.05042106
0.019599218 -0.041117832 -0.00045690726 0.03639422 0.18696806 0.022518966 -0.0149061885 0.0702998

net.3.bias f4 [6]
00000000: fc8b 12b6 24b1 8d35 f886 2637 7b00 e234
00000010: bb9a 2fb5 a8f2 0bb5
-2.1837177e-06 1.0556873e-06 9.925796e-06 4.209613e-07 -6.541774e-07 -5.2134646e-07

net.4.weight f4 [6]
00000000: 33ff 2b3f a1e0 3e3f ead6 483f 61ea 913f
00000010: 31f0 113f 9fcc 643f
0.6718628 0.74561507 0.7845293 1.1399652 0.5700713 0.89374727

net.4.bias f4 [6]
00000000: f657 c23e a75a af3e 994c f53e 9a9e c73e
00000010: 5ebe 7a3e aebe da3e
0.37957734 0.3424885 0.47910002 0.3898819 0.24486682 0.42723602

net.4.running_mean f4 [6]
00000000: 5141 9f3a 7465 ee39 1853 3b3b cd62 ab3b
00000010: efdb 0f3d 20e7 cb3b
0.0012150203 0.00045470486 0.0028583463 0.005230284 0.035121854 0.0062226206

net.4.running_var f4 [6]
00000000: 61ee 503a 5a51 213a 0e6d 983a 3d07 7a3b
00000010: dbbe 503a 57aa 483a
0.00079700915 0.0006153785 0.001162918 0.0038151287 0.000796301 0.0007654777

net.6.weight f4 [17, 6]
00000000: 3a91 94be 31fb 61be 1d2b bfbe fabb fa3e
00000010: 3f8c 6abe 3539 4b3e 580f 9cbe 0c9a b0bd
00000020: 0273 b1be 4b09 e53e c4d1 83be 3399 963e
00000030: e588 0dbe ffb6 14be adde 6bbe af2a 993e
00000040: 435b dbbd f624 803e afec e0bd 0786 0fbe
00000050: 8cb8 3abe 343f 753e 4f29 8dbd b7c8 523e
00000060: ea5f 15be 12d6 8abd 3e97 07be 9add 803e
00000070: eca7 c6bd 81ca 393e 91d5 22be d275 12be
00000080: 86e9 5dbe 729a a73e 0326 f5bd c6a2 823e
00000090: 0f7a 7ebd 5fac 92bd 09d3 bcbd 13da 0a3e
000000a0: a29b 07bd cdf2 eb3d 2ea7 92be 2cdf 8abd
000000b0: 826b 93be ba6c df3e 9b8f 6fbe 8b13 9b3e
000000c0: b342 e1bc daf2 10bd d7a9 30bd 031a 823d
000000d0: b2c1 54bc 7bb2 633d 1064 7dbe c357 edbd
000000e0: d010 9bbe 400b d83e 1c1f 70be 3555 9c3e
000000f0: bcfc 4ebe 4c6b fabd 4bfa 72be 954d b53e
00000100: de67 18be 9664 8b3e 4d65 50be 3b51 19bf
00000110: b69c 54be 0379 6b3e d07d 25bd 2784 b33e
00000120: 572f 30be 8f3d 0abe f1ec 5fbe f1f0 a93e
00000130: c853 02be aa1a 833e ad3f 77bd 6b0d 7dbd
00000140: f6db a8bd 3f01 063e 6419 08bd 2d8e db3d
00000150: 493b f7bc ae88 15bd 5e6a 39bd d899 893d
00000160: 216a 70bc 26db 6e3d a9bd d0bd a225 0dbe
00000170: 1db6 2ebe 277d 613e 988d 6fbd 396a 483e
00000180: 160d 3bbe 70ae 76be d873 abbe 365f c83e
00000190: c05f 69be de7e 943e
-0.2901705 -0.22068478 -0.3733758 0.4897154 -0.22905062 0.19846042 -0.30480456 -0.08623132
-0.34658056 0.44733652 -0.25745976 0.29413757 -0.13821752 -0.14522932 -0.23034163 0.29915377
-0.10710766 0.250282 -0.10982644 -0.14015971 -0.18234462 0.23949891 -0.068926446 0.20584379
-0.1458737 -0.06779112 -0.13241288 0.2516907 -0.09699997 0.18143655 -0.15901782 -0.14302757
-0.21671113 0.3273502 -0.11970141 0.2551481 -0.062128123 -0.071617834 -0.09219939 0.13559751
-0.033107407 0.1152092 -0.28643173 -0.06780848 -0.2879296 0.4363764 -0.23394625 0.30288348
-0.027497625 -0.03538785 -0.043130722 0.063526176 -0.012985634 0.055590134 -0.24745202 -0.11589005
-0.30286264 0.42196083 -0.23449367 0.30533758 -0.20213598 -0.122274965 -0.23728292 0.35410753
-0.14883372 0.27225178 -0.20351143 -0.5988957 -0.20762905 0.22995381 -0.040403187 0.35061762
-0.17205559 -0.13500045 -0.2186773 0.33191636 -0.12727273 0.2560628 -0.06036346 -0.061780374
-0.08245079 0.13086413 -0.03322734 0.10720477 -0.030179637 -0.0365073 -0.045267455 0.067187965
-0.014673741 0.058314465 -0.10192425 -0.13783887 -0.17061658 0.22020398 -0.058484644 0.1957177
-0.1826671 -0.2408998 -0.3348682 0.3913514 -0.22790432 0.29003042

net.6.bias f4 [17]
00000000: d941 f43d 57a1 ee3c 443f 85bc 3b0c 2abc
00000010: c037 ddbc 3bc4 ddbc 5c0a ddbb 85bf d9bc
00000020: 455a 60ba 9b09 a5bb 571a c5bc 929c 213e
00000030: 2069 d0bc a5ca e9bb c731 e4ba 021b ffbb
00000040: 82bc 5b3d
0.11926622 0.029129667 -0.016265519 -0.0103788925 -0.027004123 -0.027071109 -0.0067456197 -0.026580581
-0.0008558373 -0.0050365455 -0.024060411 0.15782383 -0.025440753 -0.007134753 -0.0017409854 -0.007785202
0.053646572
