30 weight-optimized multi-task models/model_20.pt (torch_old, 4405 bytes, 14 tensors)

net.0.weight f4 [20, 6]
0	0xbe11e66f	-0.1424806
1	0x3db335ca	0.08750494
2	0x3ab35f42	0.0013685005
3	0xbe13c577	-0.14430796
4	0xbe01bb23	-0.12669043
5	0xbe1142bf	-0.14185618
6	0xbd0e1776	-0.034690343
7	0xbdfc67cc	-0.12324485
8	0x3d54b43c	0.051929697
9	0xbd59c508	-0.05316642
10	0xbd53f7be	-0.051749937
11	0x3d1f337f	0.03886747
12	0x3e04ff25	0.12987955
13	0x3e1f891f	0.15579651
14	0x3e4165cc	0.18886489
15	0x3dd659be	0.10466336
16	0x3dedb84f	0.1160742
17	0x3da8994b	0.08232363
18	0x3e777fb6	0.24169812
19	0xbcd52ea5	-0.026023218
20	0xbd5330f3	-0.051560353
21	0x3db03e9b	0.08605691
22	0x3d882f2f	0.066496246
23	0x3dcd8a1f	0.1003611
24	0x3cce9c2d	0.025220955
25	0x3cc01d93	0.023451602
26	0x3da0c2bc	0.07849643
27	0xba86fde5	-0.0010299055
28	0x3d5d8633	0.05408306
29	0x3c9ac0c3	0.018890744
30	0xbe1a6650	-0.15078092
31	0x3ceca905	0.028889189
32	0x3de2f490	0.11081803
33	0x3da22071	0.07916344
34	0xbc6faac8	-0.01462812
35	0xbd0e92d8	-0.03480801
36	0x3dc9c692	0.098523274
37	0xbe402f8b	-0.18768136
38	0x3da1e705	0.079053916
39	0xbcdd4199	-0.027008818
40	0x3d21bc65	0.039486308
41	0x3db12087	0.08648782
42	0xbe0989b7	-0.1343144
43	0x3d18780b	0.037223857
44	0x3d17b7a2	0.03704036
45	0x3c634061	0.01387033
46	0x3e344799	0.17605437
47	0x3d1cfae9	0.038325224
48	0x3dad7723	0.08469989
49	0x3e175085	0.1477681
50	0x3d9b9bf9	0.07598109
51	0xbe4d2b6d	-0.20036097
52	0xbbecf6e3	-0.0072315796
53	0x3da6d8bb	0.08146807
54	0xbd9e97ba	-0.07743783
55	0x3bf23855	0.007391969
56	0x3ce85b84	0.02836395
57	0xbdb2bba7	-0.08727198
58	0xbe12368a	-0.14278618
59	0x3d9fc1df	0.0780065
60	0xbd342f01	-0.04399014
61	0xbc03cbe0	-0.008044213
62	0xbe26d963	-0.16293864
63	0xbd1b2f66	-0.037887
64	0x3d2f3331	0.04277343
65	0xbd1e50c6	-0.03865125
66	0x3e13a215	0.14417298
67	0x3d2c22b4	0.042025283
68	0xbe424c80	-0.18974495
69	0xbc3143a8	-0.010819353
70	0xbc46450e	-0.012101425
71	0xbce9e75f	-0.02855271
72	0x3d68007e	0.056641094
73	0x3df1afd3	0.11801114
74	0x3bcb408e	0.006202764
75	0x3d6f1bc6	0.058376096
76	0xbc60f32f	-0.0137298545
77	0x390c4497	0.00013376992
78	0xbd5ebb5a	-0.05437789
79	0xbe53ab89	-0.20670904
80	0x3c586472	0.013207542
81	0xbd64216c	-0.055695936
82	0x3e512b4f	0.20426677
83	0xbd69f953	-0.05712254
84	0x3beebb63	0.007285522
85	0x3e0a4482	0.13502696
86	0x3bb73d3f	0.005592018
87	0xbe05bf0c	-0.1306116
88	0x3ca833a3	0.020532435
89	0xbd933ae8	-0.0718897
90	0x3d9bac1a	0.07601185
91	0x3deb2f26	0.11483602
92	0x3e109c16	0.14122042
93	0xbd0850c6	-0.033280157
94	0xbd61cba7	-0.05512586
95	0xbdb1b054	-0.0867621
96	0xbdde3232	-0.10849418
97	0xbd19c4ac	-0.037541077
98	0x3c491df2	0.012275206
99	0x3de088eb	0.10963615
100	0xbd93cc21	-0.07216669
101	0xbda914e0	-0.08255935
102	0x3e265e7b	0.16246979
103	0xbdb583f0	-0.08863056
104	0xbdf997c8	-0.12187153
105	0xbe1d1c6f	-0.15342878
106	0x3dcfd2a1	0.10147596
107	0xbc86a03d	-0.01643383
108	0xbce50ae2	-0.02795929
109	0x3db2568f	0.08707916
110	0xbd776f50	-0.06040889
111	0xbc8accc7	-0.016943349
112	0xbe00827b	-0.12549774
113	0x3d3a0fc5	0.045425195
114	0xbd79e2a9	-0.061007176
115	0x3d6a6663	0.05722655
116	0xbd12bf93	-0.03582723
117	0xbc3cc583	-0.0115217
118	0x3c022467	0.007943249
119	0xbd82411b	-0.06360074

net.0.bias f4 [20]
0	0xb3069bf6	-3.1341152e-08
1	0xb32ee5c5	-4.0721506e-08
2	0x33a8b5b5	7.856162e-08
3	0xb3fb8208	-1.1711751e-07
4	0x328cb334	1.6379637e-08
5	0xb37689bd	-5.740161e-08
6	0xb425ce43	-1.544186e-07
7	0x3109a00c	2.00271e-09
8	0x334de687	4.7939945e-08
9	0x33a4c8ef	7.673395e-08
10	0xb4162556	-1.3983421e-07
11	0x3182c31b	3.805679e-09
12	0x3408d8c5	1.2744847e-07
13	0xb2d4f633	-2.4792007e-08
14	0xb42a93e1	-1.5886282e-07
15	0xb46e3da1	-2.2187898e-07
16	0x31c9832c	5.8647824e-09
17	0x332d0bda	4.029048e-08
18	0xb420acbf	-1.4964006e-07
19	0x34190d91	1.4254171e-07

net.1.weight f4 [20]
0	0x3e4abe56	0.1979917
1	0x3e459a06	0.19297037
2	0x3ea98df9	0.3311613
3	0x3eb7598a	0.358105
4	0x3df39ea2	0.11895491
5	0x3e5b38ba	0.21408358
6	0x3e984344	0.2973882
7	0x3e46b660	0.19405508
8	0x3e54bb66	0.20774612
9	0x3e0d1566	0.13777694
10	0x3e576945	0.21036251
11	0x3e25e2ae	0.16199753
12	0x3e2c1eb7	0.16808592
13	0x3e7a4f9f	0.24444436
14	0x3e657c1f	0.2241063
15	0x3e2ec1b5	0.17066081
16	0x3e258045	0.16162212
17	0x3eaebd87	0.34128973
18	0x3e77fc39	0.24217309
19	0x3de83b8a	0.11339481

net.1.bias f4 [20]
0	0x3cb1e11a	0.021713782
1	0xbd500024	-0.050781384
2	0xbd254533	-0.040349197
3	0xbd9c101d	-0.07620261
4	0xbd4e26c7	-0.05032995
5	0x3d46a449	0.04849652
6	0x3c3cfdcd	0.01153512
7	0x3dc2cb9f	0.09511494
8	0x3e0143cf	0.12623523
9	0x3d64949c	0.055805787
10	0xbc655d0f	-0.013999238
11	0x3d741ae1	0.059595946
12	0x3cb96298	0.022630021
13	0x3d9e93b6	0.077430174
14	0xbd6677a4	-0.056266442
15	0xbcbb5b5b	-0.02287071
16	0x3c73efe0	0.014888734
17	0x3d0fcd18	0.035107702
18	0xbc20538f	-0.009785547
19	0x3c9f0494	0.019411363

net.1.running_mean f4 [20]
0	0x3c3b0b1f	0.011416226
1	0x3ca00f17	0.019538445
2	0xbc3c957b	-0.011510248
3	0xbbe8797a	-0.0070945593
4	0xbb046d51	-0.002020676
5	0x3af9de8c	0.0019063517
6	0x3c8b802c	0.01702889
7	0xbcda7a47	-0.026669635
8	0x3b8da52b	0.004322668
9	0x3ca51567	0.020151807
10	0xbc8c16ca	-0.01710071
11	0xbc374f64	-0.011188362
12	0xbbc975ab	-0.0061480603
13	0xbc2cb487	-0.010541088
14	0xbbe89877	-0.0070982534
15	0x3c55cbf3	0.013049114
16	0x3bea1deb	0.00714468
17	0xbbe4e871	-0.006985717
18	0x3babf135	0.00524726
19	0xbc0d4ac9	-0.008623787

net.1.running_var f4 [20]
0	0x3db15d9d	0.086604334
1	0x3cfb59c9	0.030682461
2	0x3d8b0f14	0.06789985
3	0x3dac0222	0.08398844
4	0x3c0754b7	0.008259944
5	0x3d3d7ef1	0.04626364
6	0x3dd89b30	0.10576475
7	0x3cdd45b4	0.027010776
8	0x3d0ad7f4	0.033897355
9	0x3cd0191c	0.025402598
10	0x3ca8be93	0.020598685
11	0x3d0ca0ac	0.034332916
12	0x3c97f1d9	0.01854794
13	0x3daa4c7a	0.08315368
14	0x3c13e404	0.009026531
15	0x3d06a072	0.032867856
16	0x3d2e3a8c	0.042536303
17	0x3e072c4d	0.13200493
18	0x3d04e64a	0.032446183
19	0x3c58dc34	0.013236094

net.3.weight f4 [6, 20]
0	0x3e0a1e0e	0.13488027
1	0x3db5d00b	0.08877572
2	0xbd90efe2	-0.07077004
3	0xbe0a3710	-0.13497567
4	0xbd021df8	-0.03176686
5	0x3dc573a9	0.09641201
6	0xbcff73ac	-0.031183086
7	0x3d2b9503	0.041890156
8	0x3db4b9f4	0.0882453
9	0x3d78b0be	0.06071543
10	0xbc4037e4	-0.011732075
11	0xbd472184	-0.048615947
12	0xbd4c9618	-0.049947828
13	0xbe24f405	-0.16108711
14	0xbd1b7c0a	-0.03796009
15	0xbd0c8bf7	-0.03431317
16	0x3cbc6f3b	0.023002258
17	0x3dc252b4	0.094884306
18	0xbe078583	-0.13234524
19	0xbd001720	-0.031272054
20	0xbd4cbbe4	-0.049983874
21	0x3e09c6d2	0.1345475
22	0xbd82eb65	-0.06392554
23	0x3dd55bba	0.10417886
24	0x3d2bf772	0.04198403
25	0xbddee5de	-0.108836874
26	0xbcd4e01a	-0.025985766
27	0x3c1eead9	0.009699547
28	0x3d064a35	0.032785613
29	0xbbc04e26	-0.005868691
30	0x3dc44e09	0.095851965
31	0x3d87084a	0.06593378
32	0x3d916e97	0.071011715
33	0xbd4d89e5	-0.050180335
34	0x3ce5874f	0.028018622
35	0xbdc6b746	-0.097029254
36	0x3d9492a8	0.07254535
37	0xbe3079d6	-0.17233977
38	0x3dd0eb2b	0.10201105
39	0x3ced67aa	0.028980095
40	0xbc3c5dc0	-0.011496961
41	0x3d326d70	0.0435614
42	0x3da050b1	0.07827891
43	0x3e63e9e6	0.22257194
44	0x3d4d161b	0.05006991
45	0xbd528acc	-0.0514019
46	0x3ddbcdb1	0.10732592
47	0xbdc4dd89	-0.09612567
48	0xbdbcf5d1	-0.09226573
49	0xbd7f95c3	-0.062398683
50	0x3df9c37e	0.1219549
51	0x3e02a687	0.12758838
52	0x3bf2ec9e	0.007413461
53	0x3d27f734	0.041007236
54	0xbdc882fd	-0.09790609
55	0x3d25c311	0.040469233
56	0xbde522c5	-0.111882724
57	0xbce130f3	-0.027489161
58	0x3d7b550c	0.061360404
59	0x3c6dad63	0.014506671
60	0xbd7b8f1e	-0.061415784
61	0xbd7b12bc	-0.061297163
62	0x3df518f2	0.119676486
63	0xbd932124	-0.071840554
64	0x3d605c8f	0.05477577
65	0x3de16906	0.1100636
66	0x3dd877e4	0.10569742
67	0xbe0d7964	-0.13815838
68	0xbd3d1436	-0.046161853
69	0xbdca4b30	-0.09877622
70	0x3d052430	0.032505214
71	0xbd7ed232	-0.062212177
72	0xbd2ec572	-0.042668767
73	0x3d3269e2	0.04355801
74	0xbe27b15c	-0.16376251
75	0x3d10cf63	0.03535403
76	0xbd07547e	-0.033039562
77	0x3e0249b7	0.12723432
78	0xbd542a96	-0.051798426
79	0x3dad8b87	0.08473878
80	0xbd8e2407	-0.069404654
81	0x3cea96d4	0.028636374
82	0x3ccd088a	0.025028486
83	0x3d9ac34e	0.07556783
84	0xbccbe378	-0.024888739
85	0x3b9fa543	0.0048719957
86	0xbda26415	-0.079292454
87	0xbd6d2760	-0.05789888
88	0xbbb5e579	-0.005551037
89	0x3c3c1f26	0.011482036
90	0x3cbd9124	0.023140498
91	0x3d48533b	0.0489075
92	0x3ce296d2	0.027659807
93	0x3c9ec99f	0.01938325
94	0xbcdcdf63	-0.026961988
95	0xbc0a2eb9	-0.008433991
96	0x3d912f24	0.070890695
97	0xbdf84eed	-0.12124429
98	0x3dda7049	0.10665948
99	0x3d48ee32	0.049055286
100	0x3ca60697	0.020266814
101	0x3d75a3b5	0.059970576
102	0xbd1a5b21	-0.037684564
103	0x3d19599a	0.037438966
104	0xbbe36338	-0.006939318
105	0xbd0463fb	-0.03232191
106	0xbcc40dd6	-0.023932379
107	0xbb2f2122	-0.002672263
108	0x3d13dd19	0.036099527
109	0x3c90a485	0.017656574
110	0x3d230606	0.039800666
111	0x3c6181dd	0.013763872
112	0x3c98af1d	0.018638188
113	0xbd980943	-0.074236415
114	0x3cb41d75	0.021986702
115	0xbca9661b	-0.02067857
116	0x3c8a582f	0.016887752
117	0xbd1df400	-0.038562775
118	0xbbad3f83	-0.005287112
119	0x3c5b6a09	0.01339198

net.3.bias f4 [6]
0	0xb5df1190	-1.6619906e-06
1	0xb5f2081f	-1.8032769e-06
2	0x35884311	1.0152309e-06
3	0xb51c796c	-5.829122e-07
4	0xb50fe93d	-5.361106e-07
5	0x35225a99	6.048154e-07

net.4.weight f4 [6]
0	0x3f45479b	0.77062386
1	0x3f61c8ea	0.88197196
2	0x3f8fb277	1.1226338
3	0x3f7b14e9	0.9807878
4	0x3f347875	0.704963
5	0x3ee43bd4	0.44576895

net.4.bias f4 [6]
0	0x3edd110c	0.43177068
1	0x3ebb2eb3	0.36559066
2	0x3eab38de	0.33441824
3	0x3ebec242	0.37257582
4	0x3ecdd8db	0.4020451
5	0x3e996e8a	0.29967147

net.4.running_mean f4 [6]
0	0xbc48fc4a	-0.012267182
1	0xbb81e724	-0.0039643217
2	0x3d0b52e1	0.034014586
3	0xb9eb20c9	-0.0004484712
4	0xbb1c3d19	-0.0023840128
5	0xbb9cd603	-0.0047862544

net.4.running_var f4 [6]
0	0x3b3a406a	0.0028419741
1	0x3b2430ce	0.0025053504
2	0x3bca3947	0.006171379
3	0x3b3fcfd6	0.0029268167
4	0x3b038e60	0.0020073876
5	0x39c1309b	0.00036848043

net.6.weight f4 [17, 6]
0	0xbecfa36a	-0.40554363
1	0xbedf2ce1	-0.43588927
2	0x3eae984f	0.34100577
3	0x3ea73744	0.32659352
4	0xbe8e019f	-0.27735612
5	0x3ca61bff	0.020277021
6	0xbec549e4	-0.38532937
7	0xbe86e201	-0.26344302
8	0x3ecc81da	0.3994282
9	0x3e8219ad	0.25410214
10	0xbebbb2d1	-0.36659864
11	0xbe1bcb7b	-0.1521434
12	0xbe0fb6d4	-0.14034587
13	0xbe56cab4	-0.20975763
14	0x3e894f32	0.26818234
15	0x3e866173	0.26246223
16	0xbe3561bc	-0.17713064
17	0xbdf6ab62	-0.120444074
18	0xbdcd83c6	-0.100348994
19	0xbe3aa2e1	-0.18226196
20	0x3e58c19d	0.21167608
21	0x3e60b799	0.21945037
22	0xbe1595cb	-0.14607923
23	0xbdce05ae	-0.10059677
24	0xbe242c96	-0.16032633
25	0xbde975f9	-0.113994546
26	0x3e72577c	0.23666185
27	0x3e3f4836	0.1867989
28	0xbdd0f7d5	-0.1020352
29	0xbdbf4621	-0.09339548
30	0xbe26c67a	-0.1628665
31	0xbe522273	-0.20520954
32	0x3e982f00	0.29723358
33	0x3e8ed5b1	0.2789741
34	0xbe30f4c7	-0.17280875
35	0xbe019451	-0.12654234
36	0xbd699111	-0.05702311
37	0xbdc1fcf2	-0.094720736
38	0x3df94b40	0.12172556
39	0x3df4cc49	0.11953027
40	0xbda0bc57	-0.07848423
41	0xbd5b2918	-0.053505987
42	0xbe9ebca0	-0.31003284
43	0xbe441dca	-0.19151989
44	0x3ed9cebc	0.42540538
45	0x3e939a13	0.28828487
46	0xbe8f93d6	-0.28042477
47	0xbe37901b	-0.17926066
48	0xbcc09944	-0.023510583
49	0xbd3d7959	-0.046258304
50	0x3d636c95	0.055523474
51	0x3d6281fc	0.055299744
52	0xbd1cd276	-0.03828665
53	0xbcca06de	-0.024661478
54	0xbe820b10	-0.25399065
55	0xbe6f336c	-0.2335946
56	0x3ec49976	0.3839833
57	0x3eb29d7e	0.34885782
58	0xbe82f05b	-0.25574002
59	0xbe3351cf	-0.17511676
60	0xbe4d16ac	-0.2002818
61	0xbe549cbd	-0.20762916
62	0x3eadacb6	0.3392083
63	0x3e96ea66	0.29475707
64	0xbe4f9c67	-0.20274507
65	0xbe0d3c70	-0.13792586
66	0xbd538ec5	-0.051649828
67	0xbed0ca6a	-0.4077943
68	0x3e61b301	0.22040941
69	0x3eaf2413	0.3420721
70	0xbe98764d	-0.29777756
71	0xbe609465	-0.21931608
72	0xbe30dc4f	-0.17271541
73	0xbe52b47e	-0.20576665
74	0x3e9d8455	0.30765024
75	0x3e91c800	0.284729
76	0xbe388ca0	-0.18022394
77	0xbe03fb16	-0.1288875
78	0xbd6c12a7	-0.057634976
79	0xbdaa99e7	-0.08330136
80	0x3df24945	0.11830381
81	0x3de47427	0.11154967
82	0xbd918ba3	-0.07106712
83	0xbd48cac4	-0.049021497
84	0xbcd95be5	-0.026533077
85	0xbd47e6d4	-0.04880412
86	0x3d71274f	0.05887538
87	0x3d71252a	0.058873333
88	0xbd25b3a6	-0.04045453
89	0xbcda079a	-0.026614953
90	0xbdaf6e7d	-0.08565996
91	0xbe35cddd	-0.17754312
92	0x3e463f88	0.19360173
93	0x3e505e86	0.20348558
94	0xbe13a294	-0.14417487
95	0xbdc26899	-0.09492607
96	0xbe32a173	-0.174444
97	0xbeb99a90	-0.36250734
98	0x3e9909dc	0.29890335
99	0x3ed58f7d	0.41711035
100	0xbde4d000	-0.11172485
101	0xbe5e7130	-0.21722865

net.6.bias f4 [17]
0	0x3e5632a3	0.20917754
1	0x3e6d9775	0.23202308
2	0x3b86d42a	0.0041146474
3	0x3b41b49a	0.002955711
4	0xbc7c160e	-0.015386118
5	0xbb1254e4	-0.002232843
6	0xb79da4c8	-1.879259e-05
7	0x3d93deb7	0.07220214
8	0x3a1b96b5	0.0005935238
9	0x3d154766	0.036445044
10	0x3c5a4d85	0.013324146
11	0x3de37cec	0.11107811
12	0x3a9c2e50	0.0011915658
13	0xba41bea4	-0.00073907734
14	0xb995066f	-0.00028424288
15	0x3bb94b07	0.005654696
16	0xbc024b0d	-0.007952464
