30 weight-optimized multi-task models/model_28.pt (torch_old, 4405 bytes, 14 tensors)

net.0.weight f4 [20, 6]
000000 ae 55 43 bc 2b 73 09 3d 27 d9 38 bb c4 d6 a8 bc
       -0.011922283 0.0335571 -0.0028205605 -0.02061022
000010 99 2c 24 be fd 99 4c bd b8 bd 32 3d 97 9c 96 3d
       -0.16032638 -0.049951542 0.04363796 0.07354086
000020 c2 05 8d 3d 9d ba 90 3d 7d 31 f6 bc 26 57 bc 3b
       0.06885864 0.07066844 -0.030052895 0.0057476936
000030 d4 71 60 3d b1 49 c0 3d e8 e8 ba 3d 11 72 34 bd
       0.054796055 0.093890555 0.091264546 -0.044054095
000040 c6 cd cf 3b 3e 46 a8 bc a4 85 cb 3d 7d 4b 71 ba
       0.006341669 -0.020541307 0.09937599 -0.0009204669
000050 1a 65 3b 3e 08 7d 61 3e b3 71 9e 3d 5f 00 9f 3d
       0.18300286 0.22020352 0.0773653 0.07763743
000060 9e ff 46 be bc 95 4c bd 1d 29 30 3e 53 87 bf 3d
       -0.19433448 -0.049947485 0.17203183 0.09351983
000070 2f d7 0a bc 2c aa 04 3d 69 70 00 3b 01 ac 25 bb
       -0.008474155 0.03238885 0.0019598252 -0.0025279524
000080 64 cd 2a ba 4d 88 80 ba fb 5b 6c 3b fb b4 71 ba
       -0.0006515591 -0.0009806246 0.0036065567 -0.00092203886
000090 70 76 aa bd 39 02 f5 3c 8c c8 03 be 4e a3 19 3d
       -0.083233714 0.029908286 -0.12869471 0.037509255
0000a0 cc 30 a3 bd 69 bf 1f 3c ee 9e c2 3c b7 45 54 3b
       -0.07968292 0.009750226 0.023757424 0.0032390186
0000b0 4f 6f 98 3d fb 6a 94 3c 82 74 e6 3d 6c b9 10 3d
       0.074431054 0.018117419 0.11252691 0.035333082
0000c0 4b 69 77 3d 1f c4 95 be d2 20 83 3d 0c 05 ed 3d
       0.06040315 -0.2925119 0.06402744 0.11573228
0000d0 ad 2f 8b 3d 1c d3 d3 3c 47 f2 ce bb 50 b2 b6 bd
       0.06796203 0.0258575 -0.006315503 -0.08920729
0000e0 13 2e 53 3d be a8 86 bd 86 44 84 bd c6 68 5c bc
       0.05155761 -0.06575154 -0.06458382 -0.013452714
0000f0 48 d6 d8 3c 68 7c a3 3d 30 89 8b bb 30 d8 09 3e
       0.026469365 0.07982713 -0.0042582974 0.13461375
000100 7c 77 22 3e 4a f0 aa 3c 81 01 79 3d e4 9b fe bc
       0.15865892 0.020866532 0.06079245 -0.031080194
000110 ef 55 9b 3c 04 92 ad 3c 82 ed b9 bd 7b 24 82 be
       0.018961875 0.02118779 -0.09078504 -0.25418457
000120 42 d7 b0 3b 03 df e0 bd 03 c6 66 be 10 1b ce 3c
       0.0053967545 -0.10980036 -0.22536473 0.025159389
000130 6b 90 ea ba 50 57 76 bd 47 99 02 bc d5 13 bd 3d
       -0.0017895823 -0.06014186 -0.0079711145 0.09232298
000140 ec 70 e2 3c 1e 79 4a bd da 86 84 3d 44 54 5e 3d
       0.027641736 -0.049431913 0.064710334 0.05427958
000150 e5 1f e1 bd 15 27 cb bd 08 75 d3 3b 4d d5 06 3e
       -0.109924115 -0.09919564 0.00645316 0.13167305
000160 1e 2a be bd 6d 58 a0 3c e2 73 84 be aa 2a cd bc
       -0.09285377 0.019573415 -0.25869662 -0.025044758
000170 35 28 40 3d 31 ec 97 bd 03 16 eb 3d 95 23 68 bd
       0.046913344 -0.07418097 0.11478808 -0.05667456
000180 aa 96 ab 3d ce 99 4f bc df 5e 9a bd 64 88 67 be
       0.08378346 -0.012670947 -0.075376265 -0.22610623
000190 e1 bb a8 3d 04 55 22 bd 88 e3 aa 3d 84 d7 f3 3d
       0.0823896 -0.03963186 0.083441794 0.11906341
0001a0 66 f0 f2 3d 0b ea 14 bd d7 67 33 3d 79 01 cd 3d
       0.118622586 -0.036356013 0.0438002 0.100100465
0001b0 69 cf 15 bc 96 12 0a bd 72 dc a2 3d cc d0 d6 bc
       -0.009143689 -0.03370913 0.07952203 -0.026222609
0001c0 82 27 6e be b6 fe 15 3e df d7 53 3e 98 bd 46 3d
       -0.23257259 0.14647946 0.20687817 0.048520654
0001d0 4f f9 08 be fb de 20 3d cd 3e 4e bc cd b6 9b 3d
       -0.13376354 0.03927515 -0.012588215 0.07603226

net.0.bias f4 [20]
000000 27 3f 7f 33 f1 b6 79 b4 ed d2 78 33 9d b5 4d 35
       5.942925e-08 -2.3256486e-07 5.7933836e-08 7.6632733e-07
000010 8a 84 a1 b3 1a 6b 63 94 97 6e 1c b5 ca 1e 46 b4
       -7.5212554e-08 -1.1481693e-26 -5.827546e-07 -1.8451388e-07
000020 1e 19 b7 35 9c 8f 67 34 b3 80 86 b5 c5 5a ad 34
       1.3641873e-06 2.1565796e-07 -1.0021234e-06 3.2289805e-07
000030 03 18 2a 35 c9 8c b0 b4 56 fa 94 33 16 5f 0d 36
       6.3364877e-07 -3.288499e-07 6.937323e-08 2.1065985e-06
000040 77 3f c3 b5 7e 0e e8 32 c3 9c 7f b4 75 a4 68 34
       -1.4547103e-06 2.7014945e-08 -2.3805755e-07 2.1666513e-07

net.1.weight f4 [20]
000000 09 5f e7 3d 87 5f 3e 3d 36 fd 9e 3d 72 22 44 3e
       0.112974234 0.04647782 0.0776314 0.19153765
000010 f0 a8 21 3e 3d 92 98 3a ea a5 12 3e ac 30 bf 3d
       0.15787101 0.0011640262 0.14321104 0.09335455
000020 be da 93 3e 16 bc f8 3d 7d fe 11 3e e2 79 6b 3e
       0.28877825 0.121452495 0.14257236 0.22995713
000030 33 1b 10 3e 87 1f a7 3d c4 23 f4 3d eb 53 4d 3e
       0.14072876 0.0816031 0.11920884 0.20051543
000040 25 0c 43 3e 82 52 0e 3e 78 f0 22 3e e0 d0 19 3e
       0.19047602 0.13898662 0.15912044 0.15021086

net.1.bias f4 [20]
000000 b8 b3 63 3b 11 fd 02 3d 0b fa 22 bc 61 77 7a bc
       0.0034744572 0.031979624 -0.00994731 -0.015287251
000010 47 a6 dc b8 93 8c 79 bb 51 cc 00 3c cc 02 51 bd
       -0.00010521389 -0.0038078174 0.007861213 -0.051028058
000020 81 ea b2 bd 53 0c a8 bd f1 7e a7 3d 6f a9 9a bd
       -0.08736134 -0.08205476 0.08178509 -0.07551848
000030 78 7f dc bc f3 60 11 37 2a d0 83 bb ca 95 2b bd
       -0.02691625 8.665246e-06 -0.004022618 -0.041890897
000040 9f 85 67 3d 59 1b e9 bd e6 77 ff 3c c3 08 81 3d
       0.056523915 -0.11382169 0.031185102 0.06300499

net.1.running_mean f4 [20]
000000 a6 6a 1d 3b ed 1b 2b ba 5e f6 38 ba 00 28 81 bb
       0.0024019866 -0.00065272936 -0.00070557545 -0.003941536
000010 74 2c c0 bb 2e 91 86 b7 2c de 8f 3a 26 4c 27 bb
       -0.005864674 -1.604165e-05 0.0010976247 -0.0025527566
000020 4b bf 0a b7 33 1d 20 3b 62 1d a6 bb d3 b7 b5 ba
       -8.26998e-06 0.0024431467 -0.0050694207 -0.0013863988
000030 32 ac 09 3b 8f 07 b4 ba de 2c 5b ba b0 8a f8 bb
       0.0021007177 -0.0013735163 -0.0008360873 -0.007584892
000040 2c 67 56 3b 96 3c 3c 3a 40 a3 fb 3b 84 a6 c9 3b
       0.0032715304 0.0007180659 0.007679373 0.0061538834

net.1.running_var f4 [20]
000000 c5 37 24 3d 9d 6c 11 3c 8c b5 35 3c 15 d3 59 3d
       0.04009225 0.008875993 0.011090647 0.05317982
000010 c8 74 37 3d 45 3b 4c 38 13 f4 80 3d 5d e9 c1 3c
       0.044789106 4.869259e-05 0.062965535 0.023670847
000020 ab ce a9 3d 8c 2c 21 3d e2 e4 91 3d 74 fd c0 3d
       0.08291372 0.039349124 0.07123734 0.09423342
000030 56 22 12 3d f3 dc 44 3c ac f6 15 3d 3f 64 f6 3c
       0.035677277 0.012015569 0.036612198 0.030077098
000040 c6 f9 b3 3d b3 e6 ef 3c ac 6d 87 3d 4f ee 3d 3d
       0.08787875 0.02928481 0.06612715 0.046369847

net.3.weight f4 [6, 20]
000000 60 e0 f5 bc 83 77 db ba da 8e 6d bd 21 d1 80 bb
       -0.030014217 -0.0016743991 -0.057997562 -0.00393118
000010 76 b7 4b bd 27 08 0e ba 32 ed 92 3d 77 0b e3 3c
       -0.04973551 -0.0005418085 0.07174148 0.027715428
000020 95 a1 4f bd 23 00 e1 3c fd 7c 8f 3d 42 c8 2d 3c
       -0.050691206 0.027465886 0.070062615 0.010606827
000030 60 c7 7a 3d a2 45 52 3b 68 a8 bc 3d a0 33 2b 3d
       0.061225295 0.0032084961 0.092118084 0.04179728
000040 ba 70 b4 bd e9 13 34 3c 19 37 60 3d 61 72 ec 3c
       -0.088105634 0.010991075 0.054740045 0.028863134
000050 8c 07 24 3d e6 76 3c bd 42 7d 24 bd 95 b0 75 bd
       0.04004626 -0.046011828 -0.040158518 -0.059982855
000060 f9 92 33 bd 25 4c de ba 36 16 86 b9 16 88 d6 3d
       -0.043841336 -0.0016959949 -0.0002557502 0.10475175
000070 48 06 1b bd 05 e8 28 3d 5e 75 b1 bc a5 64 0b bd
       -0.037847787 0.041236896 -0.02166241 -0.03403153
000080 f6 8b 59 3d 4d 44 99 bd 99 80 76 3d af a7 36 3e
       0.053111993 -0.074837305 0.060181234 0.17837404
000090 18 e9 15 be 92 e1 8b 3d bc ed ba ba 5f 04 43 3d
       -0.146397 0.068301335 -0.0014261524 0.04761159
0000a0 86 74 89 bc 27 e5 92 3b ff 1b a8 3c af a1 09 3e
       -0.016779196 0.0044828835 0.020521162 0.13440584
0000b0 87 99 09 bd 88 e5 00 3b c5 9e 00 3d cd d6 49 3b
       -0.03359368 0.0019668061 0.031401414 0.0030798197
0000c0 5d a9 b1 bc 99 7a 84 bc bd d2 51 3c 80 d3 77 bd
       -0.021687204 -0.01617174 0.012806592 -0.060504436
0000d0 26 69 0e 3d dd 4e ad bc 3e 95 5b bc 92 02 ef bd
       0.034768246 -0.021155769 -0.013402281 -0.11670412
0000e0 6a 73 00 bd d0 14 a6 3d 65 b1 6a bd a8 1c 5a 3e
       -0.031360067 0.081094384 -0.057298083 0.21299994
0000f0 aa e9 8a bd f2 6d 3e 3d 77 3b 24 bd f9 8a b4 bd
       -0.06782849 0.04649157 -0.040095773 -0.088155694
000100 73 6a 04 be 89 a9 b0 b9 29 75 38 3e 92 a2 cf 3b
       -0.12931232 -0.0003369565 0.18013443 0.0063365186
000110 58 08 40 bd ae 77 94 3d 51 fe 6a 3d 20 20 87 bb
       -0.046882957 0.072493896 0.05737144 -0.0041237026
000120 71 eb 00 3d 9d 4f 48 bc 26 d3 c3 3c aa 98 0b 3b
       0.031474534 -0.012226013 0.023904394 0.0021300712
000130 e9 66 0b be 42 83 e2 3d ee 57 2e 3d b2 53 cf 3c
       -0.13613476 0.11060192 0.042564325 0.025308464
000140 32 71 a7 3c 01 29 41 3b de ed 79 3c 77 c9 39 3d
       0.020439718 0.0029473903 0.015254466 0.045358147
000150 eb 9b 30 bd f4 e3 f0 bb f9 7e 75 3d 45 a5 96 3d
       -0.043117445 -0.007351393 0.059935544 0.073557414
000160 75 ce 6a 3e 91 db 24 bd d0 d7 0d be b2 eb 05 be
       0.2293032 -0.040248457 -0.13851857 -0.13078192
000170 d8 48 15 3e 36 c9 57 bd f5 05 d4 bd e1 dc 0f bd
       0.14578569 -0.052682124 -0.10352699 -0.035122756
000180 ab 48 b5 3c 72 44 c2 3d 79 f2 7c bd e6 8e ab 3d
       0.022129377 0.09485711 -0.061754677 0.08376865
000190 73 a0 07 3e ad 95 84 3d 51 05 2d bd 68 9d cf bd
       0.132448 0.06473861 -0.0422414 -0.10137445
0001a0 83 53 a5 bd cb d9 0f bc d7 c7 1c bb f6 ef ef bb
       -0.08072569 -0.008779953 -0.0023922825 -0.0073223067
0001b0 57 a5 f3 bd 91 1f 47 3d 07 99 c1 3d cf d8 13 3e
       -0.118967704 0.04861409 0.09453016 0.14438175
0001c0 87 30 d3 bc 75 ec 77 bd a2 16 dc bc a5 33 6e bd
       -0.025779976 -0.060528237 -0.02686626 -0.05815472
0001d0 7b 95 9e bd 80 34 1d 3d 46 8f 0d 3e c1 3c 19 3d
       -0.07743355 0.038380146 0.13824186 0.037411455

net.3.bias f4 [6]
000000 b6 ec ad 34 5e 7e 15 b6 88 0a 95 36 ba 03 39 b6
       3.239599e-07 -2.2276286e-06 4.441772e-06 -2.7569317e-06
000010 6b d7 51 36 4c ce b8 36
       3.1268817e-06 5.5076434e-06

net.4.weight f4 [6]
000000 98 52 eb 3e d1 b4 34 3f a5 88 32 3f 3f 1d 50 3f
       0.45961452 0.70588404 0.69739753 0.81294626
000010 c0 ef 9c 3f 8d 7d 29 3f
       1.2260666 0.662072

net.4.bias f4 [6]
000000 71 30 6f 3e 0a cd e3 3e b4 12 db 3e f8 e9 b2 3e
       0.23358323 0.4449237 0.42787707 0.3494413
000010 9a 42 d8 3e 0a 06 e5 3e
       0.42238313 0.4473117

net.4.running_mean f4 [6]
000000 d2 95 32 3c 25 63 18 bc c1 34 3c 3c 83 b4 fd bb
       0.010899978 -0.009300982 0.011487187 -0.007742466
000010 6f d6 07 3c 1f b2 38 3b
       0.008290871 0.002818234

net.4.running_var f4 [6]
000000 16 12 7e 3a 3c 27 6e 3a 92 13 f8 3a 57 6b b0 3a
       0.0009692026 0.0009084826 0.0018926731 0.0013459724
000010 71 c8 38 3b 38 d5 b4 3a
       0.0028195644 0.0013796454

net.6.weight f4 [17, 6]
000000 2b 11 85 be c9 eb 65 be 07 e7 b9 3e cb b5 9c be
       -0.2598966 -0.22453226 0.36309072 -0.30607447
000010 95 79 d3 3e 4e fb 9c be 8a 12 59 be 6a b7 96 be
       0.41303697 -0.3066048 -0.21198478 -0.2943681
000020 6e 4c c1 3e 61 49 60 be 72 2a d3 3e 0c 32 a5 be
       0.37753624 -0.21902992 0.4124332 -0.32264745
000030 7e 27 f1 bd e3 d8 59 be 68 3d 19 3e a1 99 49 be
       -0.11775111 -0.21274142 0.14964831 -0.19687511
000040 65 27 af 3e 3d 3f 19 be 87 ce c4 bd c0 f6 1f be
       0.34209743 -0.1496553 -0.096097045 -0.15621471
000050 30 9b ce 3d fe 00 2c be bd 51 91 3e 03 6a ff bd
       0.100881934 -0.16797253 0.28382674 -0.12471392
000060 6d b5 7b bd 99 43 29 be 1a be 1e 3e 9d 40 c4 bd
       -0.061452318 -0.16529693 0.15502205 -0.095826365
000070 da 8a 81 3e 07 48 06 be 2c 6e e0 bd 9b b1 5c be
       0.25301248 -0.13113414 -0.109585136 -0.21552126
000080 cf 1e 31 3e c4 78 3f be f6 b3 b7 3e a8 80 2a be
       0.17296909 -0.18698412 0.35879487 -0.16650641
000090 83 14 4d bd 4c ce aa bd f9 31 5b 3d da 46 ad bd
       -0.05006839 -0.08340129 0.053514455 -0.084607795
0000a0 92 55 20 3e 54 6e 8e bd 7c 51 22 be 70 ab 8f be
       0.15657642 -0.06954637 -0.15851396 -0.28060484
0000b0 19 74 b4 3e 14 a0 3a be e3 4c d4 3e 20 7b 99 be
       0.35244825 -0.18225127 0.4146491 -0.2997675
0000c0 6e 2e ba bc df 7d 17 bd 13 0a b1 3c c8 05 25 bd
       -0.022727218 -0.036985274 0.02161125 -0.040288717
0000d0 4a cf 93 3d 35 70 01 bd 58 59 21 be 00 7f 97 be
       0.072172716 -0.03160115 -0.15756738 -0.2958908
0000e0 e8 12 9f 3e 62 51 63 be 9a 17 d7 3e c6 f7 85 be
       0.31069112 -0.22199014 0.42010194 -0.261656
0000f0 96 82 f7 bd 2d 4e 6f be 44 05 58 3e aa 07 3c be
       -0.12085454 -0.23369665 0.21095759 -0.18362299
000100 d7 f7 c4 3e 80 27 54 be 47 c6 fd bd 6b 22 d3 bc
       0.38470337 -0.20718193 -0.12391334 -0.025773248
000110 2a 4c 62 3d c6 79 fd be 86 61 d9 3e e8 3c 91 be
       0.055248417 -0.49506968 0.42457217 -0.2836678
000120 d1 ac e5 bd 7a 45 5f be b8 0e 37 3e f0 f8 3b be
       -0.11214603 -0.21803847 0.17876709 -0.18356681
000130 d2 27 bb 3e 52 0f 37 be 5e 0d 35 bd a3 8a 9f bd
       0.36553818 -0.17876938 -0.0442022 -0.07790115
000140 d1 d3 59 3d 85 c8 97 bd c0 4e 15 3e be 5c 85 bd
       0.05318052 -0.07411293 0.14580822 -0.0651183
000150 4c 2f c1 bc d2 e2 22 bd 3a c5 c4 3c bd 8f 2c bd
       -0.023582123 -0.039767094 0.024019826 -0.042129267
000160 16 12 9e 3d 04 f1 08 bd 3d b4 bb bd f0 e4 0f be
       0.07718293 -0.033432975 -0.09165237 -0.14052176
000170 a4 f3 b1 3d 8a 32 24 be 50 e8 87 3e c1 e7 ee bd
       0.08689049 -0.16034904 0.26544428 -0.11665297
000180 6f 46 22 be ab dc 8d be f8 54 74 3e 15 82 ad be
       -0.15847181 -0.2770742 0.23860538 -0.33888307
000190 24 90 d4 3e d8 bf 3d be
       0.4151622 -0.18530214

net.6.bias f4 [17]
000000 85 21 43 3d fd e5 ca 3c cf cb 37 3c cb 0f 22 3c
       0.04763939 0.02476787 0.011218025 0.009891461
000010 5a df 80 bc 83 1e 11 bb 85 87 04 3b 66 b0 ad bc
       -0.015731502 -0.002214343 0.0020222377 -0.021202277
000020 2c dd 58 3a 05 77 fe 3b bd 8c eb bb 41 a8 11 3e
       0.0008272703 0.007765653 -0.007188408 0.1422434
000030 5a fe 94 ba bb 78 f6 39 72 84 9f 3a e5 ea 4a 3c
       -0.0011367307 0.00047010728 0.0012170209 0.012385105
000040 b6 8e 60 3d
       0.0548236
