30 weight-optimized multi-task models/model_17.pt (torch_old, 4405 bytes, 14 tensors)

net.0.weight f4 [20, 6]
0	0x3c587a51	0.013212756
1	0xbe102c24	-0.14079338
2	0x3b5024cf	0.003176022
3	0xbd6bac8e	-0.057537608
4	0x3dd23458	0.1026389
5	0x3d20c27d	0.03924798
6	0x3c87e06c	0.016586505
7	0x3d2d0c8b	0.04224829
8	0xbbfdd2b2	-0.007746064
9	0xbe1242d8	-0.14283311
10	0xbe4204fc	-0.18947214
11	0x3da787dc	0.0818021
12	0x3e1fd3f4	0.15608197
13	0x3c235e9c	0.009971287
14	0xbd22507f	-0.03962755
15	0xbbc8a74c	-0.006123459
16	0x3d14b0e1	0.036301497
17	0x3e1bb047	0.15203963
18	0x3e87e36b	0.26540694
19	0xbd39ec99	-0.045391653
20	0x3e320ce9	0.17387737
21	0x3e66e46b	0.22548072
22	0x3d83e640	0.06440401
23	0xbd7427b0	-0.05960816
24	0xbc815583	-0.015787845
25	0xbe9fda8d	-0.3122143
26	0x3cb1ad86	0.021689188
27	0x3e4667f7	0.19375597
28	0x3d178d91	0.037000243
29	0x3d66dbd4	0.05636199
30	0xbcd0a941	-0.025471332
31	0x3da0c73f	0.07850503
32	0xbe1ac478	-0.1511401
33	0xbcac8318	-0.021058604
34	0xbe05ceba	-0.13067141
35	0xbca7e3a1	-0.020494284
36	0x3d53febd	0.05175661
37	0x3dd77fb7	0.105224065
38	0x3da1a42e	0.07892643
39	0xbd2120ba	-0.03933785
40	0xbc2573f7	-0.010098449
41	0xbc0d39e2	-0.008619757
42	0xbe4dbb48	-0.20090973
43	0xbdd350b2	-0.10318126
44	0x3dc6963c	0.09696624
45	0x3d00be6c	0.0314316
46	0x3cc35bca	0.02384748
47	0xbc9b55f4	-0.018961884
48	0xbd75038b	-0.059817832
49	0xbdbf47cb	-0.09339865
50	0xbdc511ce	-0.096225366
51	0xbd98377a	-0.07432456
52	0xbd9cf2dc	-0.07663509
53	0xbc927ae6	-0.017880868
54	0x3cfc4faf	0.030799715
55	0x3d8a75fe	0.067607865
56	0xbb4bcded	-0.0031098083
57	0xbd0e1360	-0.034686446
58	0xbdbfc1cb	-0.09363135
59	0xbd5d64da	-0.054051258
60	0xbc4691db	-0.012119736
61	0x3c8e40a0	0.0173648
62	0x3c60940b	0.013707171
63	0x3c1d33a7	0.009594834
64	0xbd481196	-0.048844896
65	0x3ca7060f	0.020388631
66	0x3ca65c4a	0.020307679
67	0xbcb6cc89	-0.022314327
68	0x3cfe8654	0.031069912
69	0xbd276289	-0.040865455
70	0xbd60ba8f	-0.054865416
71	0xbe1e60ca	-0.1546661
72	0xbdec0aa3	-0.11525466
73	0xbe03293a	-0.12808695
74	0xbe23aa23	-0.15982871
75	0x3cb6d487	0.022318138
76	0x3c0ee1a2	0.008720787
77	0xbd7d88f2	-0.06189818
78	0x3e62ade8	0.22136652
79	0xbda35dba	-0.07976861
80	0xbcc6641d	-0.02421766
81	0x3d91a4cf	0.07111513
82	0x3bb39ca3	0.005481319
83	0x3cbaaa6b	0.02278634
84	0x3d626a2e	0.055277042
85	0xbe1ded46	-0.15422544
86	0x3ba2414b	0.004951631
87	0x3ca0c5f7	0.019625647
88	0x3d0d6d94	0.03452833
89	0x3b9b07c1	0.004731149
90	0xbcf74aaf	-0.03018698
91	0x3b8fcf7d	0.004388748
92	0xbda1427f	-0.07874011
93	0x3db5bbe3	0.08873727
94	0x3d24e3d7	0.040256348
95	0x3d555cd0	0.052090466
96	0x3dee6010	0.11639416
97	0x3dcea0bf	0.10089254
98	0xbde194a8	-0.11014682
99	0xbe0452fa	-0.12922278
100	0xbc78188a	-0.015142569
101	0xbd4fa87b	-0.050697785
102	0x3cbe62ec	0.023240529
103	0xbd5d77a7	-0.054069187
104	0xbbd1b99f	-0.0064003016
105	0xbd511127	-0.05104175
106	0x3d609581	0.054830078
107	0xbb679c71	-0.003534105
108	0xbe6f8576	-0.23390755
109	0xbd1a9728	-0.03774181
110	0x3ccb45c1	0.024813535
111	0xbd2a1d57	-0.041531887
112	0x3dc5f846	0.09666495
113	0xbd3f4680	-0.046698093
114	0x3d3a81cd	0.045533944
115	0xbbab4d35	-0.0052277097
116	0xbe490e9f	-0.19634484
117	0xbd7ab769	-0.06121007
118	0x3c1c80f4	0.009552229
119	0x3cc2328c	0.023705743

net.0.bias f4 [20]
0	0xb4374bab	-1.7070731e-07
1	0x32ac2241	2.0039012e-08
2	0x33ed1d0d	1.1041457e-07
3	0xb54d01cd	-7.637107e-07
4	0x3381b7e6	6.0404815e-08
5	0xb45e6712	-2.0712858e-07
6	0x343da68f	1.766259e-07
7	0xb326bc90	-3.8821383e-08
8	0x32a401e2	1.9092969e-08
9	0x3352fc19	4.9123717e-08
10	0xafbb404a	-3.4060782e-10
11	0xb2190710	-8.907378e-09
12	0x34254d07	1.5394845e-07
13	0x35d6bc33	1.5999016e-06
14	0x32c90f46	2.3406425e-08
15	0xb3cfbdc4	-9.673707e-08
16	0xb4971928	-2.8144245e-07
17	0x3426e4fb	1.5543257e-07
18	0x35a4f43a	1.2290031e-06
19	0xb4545242	-1.9773964e-07

net.1.weight f4 [20]
0	0x3e0da09a	0.13830796
1	0x3e228544	0.1587115
2	0x3e4ac530	0.19801784
3	0x3e58850e	0.21144506
4	0x3e237194	0.15961295
5	0x3e646899	0.22305526
6	0x3dd5159e	0.10404514
7	0x3e1b436b	0.15162437
8	0x3dfdbc96	0.123894855
9	0x3e0392d7	0.12848984
10	0x3c8efe03	0.017455107
11	0x3e42bfcf	0.19018482
12	0x3e09da15	0.13462098
13	0x3eb4ed18	0.35337138
14	0x3e0c52c4	0.13703448
15	0x3df573c7	0.119849734
16	0x3e1e4d63	0.15459208
17	0x3d4a0a83	0.04932643
18	0x3e3cbd3d	0.18431564
19	0x3e1ccad9	0.15311755

net.1.bias f4 [20]
0	0x3d235592	0.039876528
1	0xbce8bd0d	-0.028410459
2	0xbb097833	-0.0020976185
3	0x3ca716ac	0.020396553
4	0x3d20d335	0.039263923
5	0xbdcdfebf	-0.100583546
6	0x3c8915d6	0.016734045
7	0x3dadaa90	0.08479798
8	0xbbdc973d	-0.006731896
9	0xbd1783b8	-0.03699085
10	0xbd373180	-0.04472494
11	0xbd96583b	-0.073410474
12	0x3d1d03ac	0.03833358
13	0xbdf030d9	-0.11728067
14	0xbb9b6e34	-0.004743362
15	0xbc635bd0	-0.01387687
16	0x3a5265d0	0.00080260355
17	0x3c54382a	0.012952844
18	0xbde5583e	-0.111984715
19	0xbcd31fa6	-0.025771927

net.1.running_mean f4 [20]
0	0x3c8356a2	0.01603252
1	0xbb5c1816	-0.0033583692
2	0x3b2ef4f3	0.0026696294
3	0x3ca751dd	0.020424778
4	0x3c3eba5a	0.011641109
5	0xbc6a4c2b	-0.014300386
6	0x3a1f06a9	0.0006066361
7	0xbb294d39	-0.0025833382
8	0x3b31d99f	0.002713777
9	0xba846db0	-0.001010349
10	0xbb901396	-0.004396866
11	0x3c4c7635	0.012479355
12	0xbb0230dc	-0.0019865548
13	0x3c7c8d03	0.015414479
14	0x3c805f37	0.015670402
15	0xbc3d05a4	-0.011536989
16	0x3bb05313	0.005380997
17	0x3c255f02	0.010093452
18	0xbbb190c3	-0.0054188683
19	0xba94adab	-0.0011343261

net.1.running_var f4 [20]
0	0x3d4dd945	0.050256032
1	0x3d3f4eee	0.046706133
2	0x3d68a310	0.056796134
3	0x3d9f6f6a	0.077849224
4	0x3cbecf8b	0.023292324
5	0x3d4a0294	0.049318865
6	0x3bb377a3	0.0054769083
7	0x3cce7220	0.025200903
8	0x3ca9e301	0.020738127
9	0x3c538f61	0.012912602
10	0x3b8cd28b	0.0042975596
11	0x3d44882a	0.04798142
12	0x3cc29018	0.02375035
13	0x3d485bb6	0.048915587
14	0x3d0a84d7	0.033818092
15	0x3d1d9546	0.038472436
16	0x3c8e28b7	0.017353399
17	0x3c8d1c68	0.01722546
18	0x3ce2a1fc	0.02766513
19	0x3d0073e8	0.031360537

net.3.weight f4 [6, 20]
0	0xbdd5e4af	-0.104440086
1	0x3d1c3ce0	0.038143992
2	0x3d7b5203	0.06135751
3	0xba4abb0c	-0.00077335606
4	0xbc760f50	-0.015018299
5	0x3e3e3fb6	0.18578991
6	0xbd1ed591	-0.03877789
7	0xbd9c65f1	-0.07636631
8	0xbd83aa26	-0.064289376
9	0xbddea661	-0.10871578
10	0xbb328141	-0.0027237686
11	0x3d8a4bd7	0.067527466
12	0x3d8fc700	0.07020378
13	0x3c90362f	0.017603962
14	0xbda3be34	-0.07995263
15	0x3db756bc	0.0895209
16	0xbdc74573	-0.09730043
17	0xbd407c4a	-0.04699353
18	0x3d57b29b	0.052660566
19	0x3c5ab9e3	0.013349983
20	0xbd4ec90f	-0.050484713
21	0x3ca617dc	0.020275049
22	0xbcf65bac	-0.03007301
23	0xbb6ee08e	-0.0036449763
24	0xbc3324e2	-0.0109340865
25	0x3d4bef81	0.049788956
26	0xbc5a94b2	-0.013341116
27	0xbcc9ab62	-0.024617855
28	0xbce67cad	-0.028135622
29	0xbaa613f9	-0.0012670747
30	0x39c6da48	0.00037928135
31	0x3d00dd89	0.031461272
32	0x3d14b703	0.036307346
33	0x3d71480c	0.0589066
34	0xb9ffabbb	-0.0004876534
35	0x3d14de02	0.036344536
36	0xbd57e9c1	-0.05271316
37	0xbc5f1063	-0.013614747
38	0x3c9bdd87	0.01902653
39	0x3accbae1	0.0015619659
40	0x3d540096	0.05175837
41	0xbc9decaf	-0.019277899
42	0xbd6f6088	-0.05844167
43	0x3d3dca04	0.046335235
44	0x3cf762e6	0.030198526
45	0xbd68467e	-0.05670785
46	0x3d120b15	0.0356551
47	0xbca7261a	-0.02040391
48	0x3d051933	0.032494735
49	0xbd471a00	-0.04860878
50	0x3c57989b	0.013158943
51	0xbda59e64	-0.08086851
52	0x3dc0d42e	0.0941547
53	0x3e14f563	0.14546733
54	0x3dcc1cdd	0.09966443
55	0xbd7d054c	-0.06177263
56	0xbdc2088e	-0.09474288
57	0x3a9b49c2	0.0011847543
58	0xbdd27aea	-0.1027735
59	0x3d79a065	0.06094398
60	0xbd1a0a78	-0.03760764
61	0x3c46455b	0.012101497
62	0xbe061374	-0.13093358
63	0x3b9f4b35	0.0048612603
64	0x3d4cff4f	0.05004817
65	0x3cf389ef	0.029728858
66	0xbd9ab5f4	-0.07554236
67	0x3e308647	0.17238723
68	0x3c3ab99a	0.01139679
69	0x3d8cac87	0.068688445
70	0xbc160193	-0.009155649
71	0x3be142fc	0.0068744402
72	0x3d1e0977	0.038583245
73	0x3e00fe63	0.12597041
74	0x3ced8235	0.028992752
75	0xbb9c60f0	-0.004772298
76	0x3d3d92ea	0.046282686
77	0xbb11be05	-0.0022238505
78	0x3da246b7	0.07923644
79	0xbdb1f9a2	-0.08690192
80	0x3bf9f642	0.007628233
81	0xbddbb1fe	-0.10727309
82	0x3db5860d	0.08863459
83	0x3d264951	0.040597264
84	0x3ddf8df3	0.109157465
85	0x3da39bd2	0.07988705
86	0x3dac9651	0.08427108
87	0xbda074ae	-0.07834755
88	0x3d94fa07	0.072742514
89	0xbb34659a	-0.002752638
90	0x3bd92958	0.006627243
91	0xbd7fd880	-0.06246233
92	0x3d8415e7	0.0644949
93	0x3dcc4736	0.0997452
94	0x3cbb0d02	0.022833351
95	0xbd225029	-0.039627228
96	0x3d07aae3	0.033121955
97	0x3b4f79b1	0.0031658227
98	0xbcba57a5	-0.02274687
99	0x3d8e1862	0.069382444
100	0xbd94a7a0	-0.072585344
101	0x3d97a2c6	0.074040934
102	0xbdf3844a	-0.118904665
103	0xbe0c9b80	-0.13731194
104	0xbdc2abbe	-0.095054135
105	0xbde4b2a4	-0.111668855
106	0x3cc06476	0.023485404
107	0xbced1b25	-0.028943608
108	0xbdad951e	-0.084757075
109	0x3c5ae752	0.013360815
110	0x3d10d8a0	0.03536284
111	0x3dd805d7	0.10547989
112	0x3d82b8fe	0.06382941
113	0x3e70a98d	0.23502178
114	0xbd8a4cd4	-0.06752935
115	0xbbaec8fa	-0.005334017
116	0xbdbad723	-0.09123065
117	0xbd2b7808	-0.041862518
118	0xbc5275dd	-0.012845484
119	0xbd12387a	-0.03569839

net.3.bias f4 [6]
0	0xb53ac57a	-6.9577766e-07
1	0x350a2677	5.146498e-07
2	0xb6b66925	-5.436263e-06
3	0xb380f6ff	-6.005393e-08
4	0xb79cd072	-1.8693714e-05
5	0xb8af65fb	-8.3636456e-05

net.4.weight f4 [6]
0	0x3f788362	0.97075474
1	0x3ed2b773	0.41155586
2	0x3f91d425	1.1392866
3	0x3f1a847d	0.6035841
4	0x3f7491d5	0.9553502
5	0x3f2d4248	0.6767926

net.4.bias f4 [6]
0	0x3ee37d78	0.44431663
1	0x3e6cfed7	0.23144089
2	0x3effeeb6	0.4998681
3	0x3ebad59a	0.3649109
4	0x3ea6f8f3	0.32611808
5	0x3ef7aab1	0.48372415

net.4.running_mean f4 [6]
0	0xbbdb1d28	-0.0066868253
1	0xba34112a	-0.0006869013
2	0x3c971a8b	0.018445274
3	0x3cf7c795	0.030246535
4	0x3d1b3fc3	0.037902605
5	0xbcdbd874	-0.026836611

net.4.running_var f4 [6]
0	0x3abd3d39	0.0014437801
1	0x391d5ec0	0.00015007984
2	0x3ad3c610	0.001615705
3	0x3a94efe7	0.0011363
4	0x3b1d0f35	0.0023965363
5	0x39abf11d	0.00032795305

net.6.weight f4 [17, 6]
0	0xbef3380e	-0.47503704
1	0x3d47f7d9	0.04882035
2	0x3e9cbf24	0.3061458
3	0xbe97cbdc	-0.2964772
4	0x3ec63971	0.387157
5	0xbea5e753	-0.3240305
6	0xbe8a994a	-0.27070075
7	0xbe783add	-0.24241205
8	0x3ece839f	0.40334794
9	0xbea81bac	-0.32833612
10	0x3ea43636	0.3207261
11	0xbe756925	-0.2396589
12	0xbe796858	-0.2435621
13	0xbdd997bf	-0.106246464
14	0x3e9dd23c	0.3082446
15	0xbdf7d9fe	-0.121021256
16	0x3e6c7c19	0.23094214
17	0xbe0d1dff	-0.13780974
18	0xbe57512d	-0.2102706
19	0xbdb3be54	-0.087765366
20	0x3e830f19	0.25597456
21	0xbd94f907	-0.07274061
22	0x3e416b9b	0.18888704
23	0xbddc1b6e	-0.10747419
24	0xbe0c887c	-0.1372394
25	0xbd914483	-0.07093146
26	0x3e78d436	0.24299702
27	0xbe0073f1	-0.12544228
28	0x3e4d5bb2	0.2005451
29	0xbdeeaf40	-0.1165452
30	0xbe713d9c	-0.23558658
31	0xbdd8f905	-0.10594372
32	0x3ea5c6f8	0.32378364
33	0xbe0c519b	-0.13703005
34	0x3e81c3f3	0.2534481
35	0xbe1d9071	-0.15387131
36	0xbde3a5e7	-0.11115628
37	0xbd3d0617	-0.046148386
38	0x3e15ba0a	0.1462175
39	0xbd23c36b	-0.039981287
40	0x3de1739a	0.110083774
41	0xbd538f2c	-0.05165021
42	0xbe7c7699	-0.24654616
43	0xbe310bbf	-0.17289637
44	0x3ec2580a	0.37957793
45	0xbe9cdc7d	-0.3063697
46	0x3eab4519	0.33451155
47	0xbe67e538	-0.22646034
48	0xbd5e2e57	-0.054243412
49	0xbcb44267	-0.02200432
50	0x3d8cf196	0.06882016
51	0xbc6f815c	-0.014618244
52	0x3d516be2	0.051128276
53	0xbcacf0cb	-0.021110913
54	0xbe93af51	-0.28844693
55	0xbe1fa0e2	-0.15588716
56	0x3ec3595c	0.38154113
57	0xbe8ac24f	-0.2710137
58	0x3ea18731	0.31548455
59	0xbe5f2e5b	-0.21795027
60	0xbe7d80cd	-0.24756165
61	0xbe0063ef	-0.12538122
62	0x3eaf3417	0.3421943
63	0xbe325313	-0.17414503
64	0x3e8b82ba	0.27248174
65	0xbe2d35ae	-0.16915008
66	0xbef49d6e	-0.4777636
67	0xbe4aae39	-0.19793023
68	0x3ebd6663	0.36992177
69	0x3dfeaedc	0.124356955
70	0x3e3449a5	0.17606218
71	0xbeb3c53d	-0.35111418
72	0xbe723e02	-0.23656467
73	0xbde16ce7	-0.110070996
74	0x3ea63203	0.3246003
75	0xbe1858bf	-0.14877604
76	0x3e830d57	0.25596115
77	0xbe1bbd97	-0.15209042
78	0xbdcb60b5	-0.09930555
79	0xbd2bbbbc	-0.041927084
80	0x3e0ca21f	0.1373372
81	0xbd2a395b	-0.041558605
82	0x3dd769bd	0.10518215
83	0xbd4300d8	-0.047608227
84	0xbd659d21	-0.056058053
85	0xbcbb591f	-0.022869645
86	0x3d955b32	0.07292785
87	0xbc8e4d5a	-0.017370868
88	0x3d5e37a7	0.054252293
89	0xbcb9b6aa	-0.022670109
90	0xbe51317c	-0.20429033
91	0xbdad1580	-0.084513664
92	0x3e72fc73	0.23729114
93	0xbd7435f3	-0.059621762
94	0x3e30ebb6	0.17277417
95	0xbdc50012	-0.09619154
96	0xbeb980c6	-0.3623106
97	0xbdc817cd	-0.09770165
98	0x3eb93ad4	0.36177695
99	0xbe38bb26	-0.18040141
100	0x3e9b2575	0.30302015
101	0xbe85b5c4	-0.2611524

net.6.bias f4 [17]
0	0x3e3d3957	0.18478905
1	0x3d83c43b	0.06433912
2	0xbc5cb8fe	-0.01347184
3	0xbc057014	-0.008144397
4	0xbce2bbfb	-0.027677527
5	0xbcba8675	-0.022769192
6	0xbbc1af18	-0.0059107654
7	0x3cac407b	0.02102684
8	0xba5e06cb	-0.000846964
9	0x3cf29b03	0.029614931
10	0xbc7d094e	-0.015444113
11	0x3e0f3eaa	0.13988748
12	0xbcb7d927	-0.022442413
13	0xbbe676d5	-0.007033209
14	0xbabcbe71	-0.0014400018
15	0xbbd3bdb1	-0.006461822
16	0x3d9f4e82	0.07778646
