30 weight-optimized multi-task models/model_3.pt (torch_old, 4405 bytes, 14 tensors)

net.0.weight f4 [20, 6]
000000 fc ed d3 bd 0a 0f 63 bd 73 b7 26 3d 1b 3b 26 3e
       -0.10348126 -0.055434264 0.040702295 0.16233484
000010 ca 1f 13 3e 59 80 1e 3d ed 45 c7 bc 1a a4 88 3d
       0.14367595 0.03869662 -0.024325335 0.06671925
000020 b4 7d c2 3d 50 e9 8b 3d 5d 5b 75 bd ce 84 07 bd
       0.09496632 0.0683161 -0.059901584 -0.033085637
000030 47 66 64 3e 84 eb d1 3c c3 ce b1 bc ea 27 b4 3d
       0.2230464 0.025624998 -0.021705037 0.087966755
000040 dd 92 9b bc dc 30 23 3e b4 35 f2 bd 93 10 5e bd
       -0.018990928 0.15936607 -0.11826649 -0.054215025
000050 09 67 4a 3d d1 d5 d6 bc 06 7c d8 bd 76 76 bc 3c
       0.04941467 -0.026225002 -0.105705306 0.023005705
000060 74 94 38 3c 39 63 d8 3d 74 a1 95 bc 51 02 d1 3b
       0.011265863 0.105658 -0.018265463 0.00637845
000070 43 63 f9 3b 9d e2 88 bc 49 6b 28 bd 6a fd 2f bb
       0.00761071 -0.01670962 -0.04111794 -0.0026853927
000080 c0 53 23 3c d6 5b b4 3c 43 03 7a bc bc 76 cd 3c
       0.009968698 0.022016447 -0.015259567 0.025081031
000090 b3 d1 17 3d 95 d4 b8 bc ee 5e 54 3d 20 92 03 3d
       0.03706522 -0.022562305 0.051848345 0.032121778
0000a0 c4 f2 03 3c da 2b e1 3c 25 be 6c bd ca 8d 15 be
       0.008053485 0.02748673 -0.057798523 -0.1460487
0000b0 59 8a 98 3b 5c 1a c4 3c dd 1e cd 3d b1 e0 a0 3d
       0.004655164 0.02393835 0.10015652 0.078553565
0000c0 66 35 8e 3d 89 d6 78 be b6 d1 03 3d 20 39 f5 3d
       0.06943779 -0.24300589 0.032182418 0.11973786
0000d0 38 49 b3 3c d5 f7 bf 3c b7 7a 04 be a0 a1 ba 3d
       0.0218855 0.023433605 -0.12937437 0.09112859
0000e0 6a 8d c2 3d 79 58 ff bd fe 90 81 3d 28 3b 00 be
       0.09499629 -0.12468047 0.06326483 -0.12522566
0000f0 c3 aa 0f bd 46 e8 40 bd 60 11 b0 bd 5e 1f 2e be
       -0.03507496 -0.047096513 -0.08597064 -0.17004153
000100 8e ae 4e 3d 08 c4 78 ba 61 8c 2c 3e cb 05 63 3e
       0.050459437 -0.000948966 0.16850425 0.22170179
000110 27 68 e9 bc 0a ea 0e be 13 80 ca bd 57 34 b0 bd
       -0.028492047 -0.13956466 -0.098877095 -0.08603733
000120 27 0a 9a 3d 1b 6d ce bd 22 8f cd 3c 13 ad 55 bc
       0.07521468 -0.10079404 0.025092665 -0.013041752
000130 7d 37 b7 bd ce c1 83 bd c2 ad 37 bd f0 4b 75 3d
       -0.089461304 -0.0643345 -0.044843443 0.059886873
000140 e4 45 93 bd 1d 4b 36 bd c3 88 0a 3d e9 42 32 bc
       -0.07191065 -0.044505227 0.033821832 -0.01088021
000150 5c 7e af bc 02 d1 71 3c ba 29 9a 3c f7 5a b7 3c
       -0.021422558 0.014759304 0.018818725 0.022382243
000160 75 87 31 be b1 f5 4c bd 10 3e 0c be e7 2d ac 3c
       -0.17336829 -0.050038997 -0.1369555 0.021017982
000170 04 8e 56 be 2c 44 3c bc 5e 42 3c bd 98 fd 74 bd
       -0.20952612 -0.011490863 -0.04596173 -0.05981216
000180 6c f2 d8 bd 7c ca b0 bd 4b ac 4c 3d 3b 55 03 bc
       -0.10593113 -0.08632371 0.049969 -0.008015926
000190 9c 3c 6e bb 5b 07 84 3c cb c0 86 3d 36 f0 80 3c
       -0.0036352044 0.016116789 0.06579741 0.015739542
0001a0 b5 fb 47 be 42 3e c5 bc 4c 23 f5 3c 34 f8 8e bd
       -0.19529612 -0.024077538 0.029924057 -0.06980935
0001b0 39 49 10 3d 3f ab b6 3c e4 50 40 3e a4 72 19 3e
       0.03522608 0.022298453 0.18780857 0.14985138
0001c0 ec dc 85 3d 20 ed d8 3d 7c 7b 9b bd af 61 84 bc
       0.06536278 0.10592103 -0.07591912 -0.01615986
0001d0 22 e9 10 3c 1c 96 04 be 8e 97 11 be b7 09 55 3e
       0.008844646 -0.12947887 -0.1421797 0.20804487

net.0.bias f4 [20]
000000 87 58 59 34 2e 6d 00 b2 b6 87 8e 32 cc 71 22 b4
       2.0241906e-07 -7.475405e-09 1.659269e-08 -1.5128825e-07
000010 29 f7 19 b3 66 da 26 b4 bb a2 89 33 02 45 cc b4
       -3.584788e-08 -1.5539408e-07 6.40916e-08 -3.804817e-07
000020 36 d9 f7 33 7f 6d 8f b2 6a 10 c7 31 1d 09 9f 33
       1.1541344e-07 -1.6697184e-08 5.7935283e-09 7.405672e-08
000030 29 c7 2f 34 69 66 15 33 19 cc 48 35 c2 eb 64 35
       1.6370599e-07 3.4784907e-08 7.4802807e-07 8.527969e-07
000040 10 a4 95 b1 7f d2 dc b3 71 16 7b 34 ae a1 c9 b3
       -4.3551225e-09 -1.0282837e-07 2.3384361e-07 -9.389201e-08

net.1.weight f4 [20]
000000 c6 16 4d 3e 94 83 1c 3e 37 5d 86 3e 38 c4 02 3e
       0.20028219 0.15284568 0.26242992 0.12770164
000010 be 7e 02 3e 11 45 75 3d 7d 2d 3a 3d 79 d0 14 3e
       0.12743661 0.05988032 0.045453537 0.14532651
000020 fc 68 95 3e bf 0b 0c 3e a2 1e 0a 3e 51 0a 38 3e
       0.2918166 0.13676356 0.13488248 0.17972685
000030 47 e2 60 3e 8c f6 cb 3d 2b 9b 2f 3e 71 22 92 3e
       0.21961318 0.099591345 0.17149036 0.28541902
000040 08 cd e7 3d 9b 2f 27 3e fa dd 53 3e 8f 06 2e 3e
       0.113184035 0.16326754 0.20690146 0.1699469

net.1.bias f4 [20]
000000 90 79 e8 3d 77 71 a9 3c bc 1b c8 bb b5 c2 3c 3d
       0.11351311 0.020683987 -0.006106822 0.046084125
000010 0e 50 d4 3c 7a 20 24 bd 3e b8 6c bd 1c 80 7a 3d
       0.02591708 -0.040070035 -0.057792895 0.06115733
000020 0a 2b f1 3c c2 ba 5f 3d 44 b3 84 3d 31 35 73 bd
       0.029439468 0.054621466 0.06479505 -0.0593769
000030 04 e6 6c bc 61 ce c1 bc d3 04 bb 3c 97 29 e7 bd
       -0.014459137 -0.02365798 0.022829449 -0.112872295
000040 d4 51 b5 bb 96 76 e6 3c 83 9f 90 bc 19 b3 8f 3c
       -0.0055334363 0.028132718 -0.017654186 0.017541455

net.1.running_mean f4 [20]
000000 a4 49 65 3b af 5e e3 bb f3 c6 a7 b9 52 1d ff bb
       0.003498652 -0.0069387774 -0.0003200095 -0.0077854777
000010 00 a3 2a 3b 55 af af ba f7 b6 16 bb 0f 49 4b 3b
       0.0026037097 -0.0013403693 -0.002299724 0.0031018888
000020 7f 81 be bb 30 13 1f 3b a8 39 fe 3b 43 58 12 3a
       -0.005813777 0.0024272911 0.007758338 0.000558261
000030 06 19 04 bc 2f 04 cc 3b 06 0d 2c bc 37 ea c3 3b
       -0.008062607 0.0062260847 -0.010501152 0.0059788483
000040 aa ed 4e bb f4 a5 15 3c d4 3f 9d bb 5f 53 a1 bb
       -0.0031574764 0.009133805 -0.0047988687 -0.0049232687

net.1.running_var f4 [20]
000000 f9 77 36 3d ca 80 a8 3c 89 d1 56 3d 9a 03 00 3d
       0.04454801 0.020569224 0.052445922 0.031253435
000010 69 d7 53 3c 11 c9 74 3b 0e 74 9c 3b b9 58 8f 3c
       0.012929776 0.003735129 0.004774577 0.017498361
000020 3e c0 4c 3d d3 ed 04 3d 27 b7 ad 3c f7 46 82 3c
       0.049988024 0.03245337 0.021205498 0.01590298
000030 4a 3f 5f 3d 8a 01 60 3c 82 f1 2a 3d b7 29 b2 3d
       0.054503717 0.013672242 0.041734226 0.08699363
000040 32 33 10 3c 0b e4 ff 3c 2b ff 03 3d cb bc 72 3d
       0.008801268 0.031236669 0.03222577 0.05926208

net.3.weight f4 [6, 20]
000000 ae c2 4a 3d 21 39 b7 bd 33 1c 81 3c fd d3 01 3e
       0.049502067 -0.08946443 0.015760517 0.12678523
000010 32 a4 bb bd aa 41 bb bc 84 9a 9a bc 13 e9 70 3d
       -0.09162177 -0.02285846 -0.018872507 0.058816027
000020 46 d7 d5 bd 70 ef 14 3d a8 27 80 bc d7 06 60 3c
       -0.10441451 0.036361158 -0.01564391 0.013673506
000030 1e 4c 52 3d f3 cf 03 3d 58 d9 4b 3d e7 50 5a bd
       0.051342122 0.032180738 0.049767822 -0.05329981
000040 6a d9 01 3e 5d 91 b2 bc 5f 97 80 bb 64 22 5b bc
       0.12680593 -0.02179783 -0.003924295 -0.013374899
000050 e9 a5 a6 bc 25 9c c6 bc 41 8b 5b 3e c0 be 60 bd
       -0.020342784 -0.024244377 0.2143984 -0.054869413
000060 f1 e2 74 bd f7 a1 55 3d ec 7f 02 3d 0b f5 f6 bc
       -0.05978674 0.052156415 0.031860277 -0.030146142
000070 7d d3 65 bc 21 ac 0a be 4f 29 0f 3c f6 17 0b bd
       -0.0140274735 -0.13542224 0.008737876 -0.033958398
000080 ab 66 1b 3e 7f b7 4f bc 9a 01 ce bd d4 9a da 3d
       0.15175883 -0.012678026 -0.10058899 0.10674062
000090 b5 7d a2 bc 7c 1b ce 3d 0b 1a 9b 3d f4 d4 d3 bc
       -0.019835332 0.10063836 0.07573327 -0.02585838
0000a0 42 85 35 be 88 ba 89 bd de 59 01 bc 49 72 e6 bc
       -0.17726615 -0.06725031 -0.007894961 -0.028130667
0000b0 6e 8f fa 3b 0a a2 04 bc 84 28 4c bb 2c 54 f0 3d
       0.0076464927 -0.008095274 -0.003115208 0.117348045
0000c0 d9 dd 13 3e a2 02 94 bd a7 85 16 bc 28 e2 5b bc
       0.14440097 -0.07227065 -0.009187139 -0.013420619
0000d0 e8 ae 9c bd b3 9a 82 3d 2c d1 4b bd 5b 88 f3 3d
       -0.07650548 0.06377163 -0.04976003 0.11891242
0000e0 71 6b c4 3c a0 9f d8 3d 63 de fb 3d 02 c3 5e bd
       0.023977013 0.10577321 0.12298276 -0.054385193
0000f0 a3 d4 18 3d e1 7b a3 bd 8b e2 89 3d 0d 9e 7f bd
       0.03731216 -0.079826124 0.06732663 -0.06240659
000100 92 c0 9c 3d d9 1c 96 bc 89 5e 08 bd 81 78 bb bd
       0.07653917 -0.018324303 -0.03329328 -0.09153844
000110 7f 78 a6 bd 1a 8b 98 3c e3 59 63 bd fb 3f d8 bd
       -0.081284516 0.018621016 -0.055505645 -0.10559078
000120 bb 77 99 3d 3d 91 6b 3d 14 e3 7c bc 2f 77 17 3e
       0.0749354 0.057511557 -0.015434999 0.14791559
000130 4e c9 99 3b 69 09 78 3d 80 d2 1f bd c9 92 00 3e
       0.004693187 0.06055585 -0.039019108 0.12555994
000140 b1 f9 05 3d ff 3a b9 bd 53 ae 22 3d d7 cd 1b bc
       0.032708827 -0.09044456 0.03971703 -0.009509525
000150 87 fa f5 3c 5e c7 fe bc 35 e6 9f bb 01 32 23 bc
       0.030026687 -0.031100925 -0.0048797377 -0.009960652
000160 65 91 a4 bd 91 99 8f bb d1 07 91 bd 55 e3 7a bd
       -0.08035544 -0.00438232 -0.07081569 -0.061251957
000170 2c c4 4f 3d fc f3 6e 3d ee 05 86 3c cc c3 12 3e
       0.050724193 0.05833815 0.01636025 0.14332503
000180 b5 2b 49 3c 9f d8 21 3d 83 fc b9 bc c5 0a 83 3d
       0.012278487 0.039513227 -0.022703415 0.063985385
000190 2a 53 46 bc e8 d9 0a bc cb 3d fd 3d 95 0f 32 bd
       -0.012104789 -0.008474804 0.12365302 -0.04347189
0001a0 db 2c b7 bd 14 ee 43 bd 94 31 d6 bc 2e 82 2a bd
       -0.089441024 -0.04783447 -0.026146688 -0.041628055
0001b0 db aa 31 be 0e f9 8b 3c 8e c8 e5 bd 50 f9 13 bd
       -0.17350332 0.017086532 -0.112198934 -0.036126435
0001c0 9b 31 e0 3d f5 5d be 3c 1d 99 df 3d 62 23 5f 3b
       0.109469615 0.023238162 0.10917876 0.003404819
0001d0 88 77 b1 bc dc 80 77 3d 16 57 85 bd fa 81 c6 3b
       -0.021663442 0.060425624 -0.06510751 0.006057975

net.3.bias f4 [6]
000000 c6 9e 98 b4 0d 8a e6 b6 59 b9 c4 b5 4e 7e 6a 37
       -2.842773e-07 -6.8706054e-06 -1.4657081e-06 1.39768945e-05
000010 33 3e 65 35 38 fb 00 36
       8.539966e-07 1.9219715e-06

net.4.weight f4 [6]
000000 5b df ed 3e 38 38 83 3f 8d 5f 91 3f 18 18 64 3f
       0.4645947 1.0251532 1.1357285 0.89099264
000010 30 ab 47 3f d7 79 2d 3f
       0.77995586 0.6776404

net.4.bias f4 [6]
000000 92 64 89 3e df e9 fd 3e 8d 9c d7 3e 37 4f da 3e
       0.26834542 0.49592492 0.42111626 0.4263856
000010 1c b9 d1 3e b9 0a b6 3e
       0.4096154 0.35555056

net.4.running_mean f4 [6]
000000 e6 1f d3 3b 3c 6a 89 3c f8 80 f3 3b 9c c1 ea 3b
       0.0064430116 0.01677429 0.0074311458 0.0071641933
000010 14 72 b8 3b fd 1d ab bc
       0.0056288335 -0.020888323

net.4.running_var f4 [6]
000000 e7 63 49 3a 04 68 45 3b 45 9f 1f 3b c8 5f 09 3b
       0.0007682428 0.0030121813 0.0024356407 0.002096163
000010 e4 2f b8 3a 65 61 5d 3a
       0.0014052358 0.0008444994

net.6.weight f4 [17, 6]
000000 17 6e 58 be 74 e1 bd 3e 39 a5 ae 3e 74 67 e0 be
       -0.21135746 0.3708607 0.3411043 -0.43828928
000010 40 34 38 be 0b f6 85 be 23 c0 78 be 7e 73 d8 3e
       -0.17988682 -0.26164278 -0.24292044 0.42275614
000020 da c0 96 3e 23 57 31 be 2a 2b d6 be d5 62 90 be
       0.2944401 -0.17318396 -0.41829807 -0.28200403
000030 ef 72 9c bd bb 71 6a 3e 91 db 96 3e 5c 4d 69 be
       -0.07639109 0.22894947 0.2946439 -0.22783417
000040 fe d7 56 be 2e a9 0a be 93 d1 3c bd 0e 54 2f 3e
       -0.20980832 -0.135411 -0.046098303 0.17121908
000050 3c b7 80 3e c2 13 49 be 33 4b 34 be da bd e5 bd
       0.25139797 -0.19636443 -0.17606811 -0.11217852
000060 08 90 b8 bd 32 ea 5a 3e 7e fb 5d 3e 01 e6 02 be
       -0.09011847 0.21378401 0.21677968 -0.12783052
000070 2a ef fc bd 14 64 00 be 1d 66 c9 bd f2 f4 80 3e
       -0.123503044 -0.12538177 -0.0983393 0.25186878
000080 1b 1b 9f 3e 10 40 62 be 10 ea 51 be 92 35 1d be
       0.31075367 -0.2209475 -0.20499444 -0.15352467
000090 a9 d8 d2 bc fb 9a c8 3d e6 48 0e 3e 95 d4 d3 bd
       -0.025738077 0.09795185 0.13894996 -0.10343281
0000a0 dd d6 bf bd ef c1 81 bd 99 7f 3f be a4 83 d2 3e
       -0.09367154 -0.06335818 -0.18701018 0.4111606
0000b0 f3 98 a1 3e 36 29 7d be 12 cb 80 be 8b a8 83 be
       0.31562003 -0.24722752 -0.2515493 -0.25714526
0000c0 ea b5 0d bc ed 00 34 3d b2 9d 86 3d ab e0 4f bd
       -0.008649329 0.043946195 0.06573047 -0.05075137
0000d0 f9 51 3a bd e3 3c f1 bc c3 26 3c be 96 01 bd 3e
       -0.04548833 -0.029447978 -0.18374161 0.36915272
0000e0 57 ad ad 3e ce 51 87 be 68 e7 8b be 06 17 75 be
       0.3392131 -0.264296 -0.27324986 -0.23934564
0000f0 63 be f0 bd 11 70 95 3e 67 5f a6 3e 78 66 63 be
       -0.117550634 0.29187062 0.3249466 -0.22207057
000100 f8 4c 5f be 93 87 41 be d9 56 aa 3d a6 73 aa 3d
       -0.21806705 -0.18899374 0.08317346 0.083228394
000110 12 82 e5 3e d2 93 d6 be 45 10 88 be af c3 5e be
       0.44825798 -0.41909653 -0.26574913 -0.21754335
000120 61 b7 d6 bd ee cc 84 3e 76 1c a1 3e 63 1a 5f be
       -0.104841955 0.259376 0.31467026 -0.2178741
000130 75 22 53 be 15 67 2a be cf 1c e4 bc 27 dc c4 3d
       -0.20618613 -0.16640885 -0.027845768 0.09612303
000140 29 22 06 3e 69 b0 ba bd 40 d4 aa bd 19 aa 76 bd
       0.13098969 -0.09115679 -0.08341265 -0.06022081
000150 71 fa 2d bc d3 61 43 3d 67 5e 8f 3d 2b 5c 56 bd
       -0.010618792 0.047700714 0.07000428 -0.052333992
000160 5f e1 41 bd ae b0 00 bd 35 be 0d bd d5 c2 1c 3e
       -0.04733407 -0.031418495 -0.034605224 0.15308698
000170 23 82 70 3e a7 6d 41 be df 3a 2c be 0c d0 d8 bd
       0.23487143 -0.18889485 -0.16819333 -0.10586557
000180 ab 18 36 be 28 69 a1 3e f0 50 b5 3e 81 88 b8 be
       -0.17782848 0.3152554 0.35413313 -0.36041644
000190 14 00 81 be 78 8d 33 be
       -0.25195372 -0.17534435

net.6.bias f4 [17]
000000 33 af 8c 3d 37 a3 8b 3d 5f 4f 14 bc 52 b0 16 bb
       0.06869354 0.0681824 -0.009052127 -0.0022993279
000010 6b 9b ee bc 08 3a c7 bc 6f dc 08 bb 80 da 16 bc
       -0.029126843 -0.024319664 -0.0020883342 -0.009207368
000020 21 5d 22 3a 36 d1 f6 3b 8c e8 9f bc 73 ef c1 3d
       0.0006193687 0.007532264 -0.019520067 0.094694994
000030 eb d5 9d bc a6 d9 35 bb 9e 49 fb 39 2a 68 f9 3a
       -0.019267043 -0.0027748137 0.000479293 0.0019028236
000040 b3 d7 94 3c
       0.01816926
