30 weight-optimized multi-task models/model_10.pt (torch_old, 4405 bytes, 14 tensors)

net.0.weight f4 [20, 6]
0.06957082 -0.009780781 0.05109476 -0.043542013 0.06264441 0.0037742404 -0.06225743 -0.043758318
-0.087274514 -0.109404735 -0.03988855 0.005655719 -0.05499796 0.0035672146 -0.08489876 0.13299794
0.035217337 0.017955102 0.031250555 -0.052601982 -0.064002626 0.11126149 0.03351119 0.009915389
0.007021726 0.026387328 -0.0035926106 -0.12738675 -0.11877146 0.06035028 0.10145664 0.15908045
-0.013215019 -0.10392705 -0.08719384 -0.030016271 0.04376021 0.09911797 0.0064715594 -0.103574514
0.009214374 -0.07798774 -0.08629726 0.033920243 0.11255874 0.053911783 -0.052152533 0.002676867
-0.029217679 -0.15003835 0.05837426 0.08735656 0.12580638 -0.051363867 0.15917619 -0.11828868
-0.07527841 0.1552542 0.094535835 0.07973087 -0.16193347 -0.099073485 0.090158865 -0.043688368
-0.03345052 0.08213759 0.06984394 0.12042931 -0.037488997 -0.14021087 -0.008331343 0.068704836
-0.0566652 -0.03812424 -0.035763748 -0.02009975 -0.14638932 0.1278525 0.14344276 -0.12961896
0.06811074 0.114930406 -0.0050456757 0.030465076 0.1599243 -0.1870116 -0.057794355 -0.056189217
0.09048868 -0.008003176 -0.027986793 -0.05542322 -0.24550354 -0.0015114008 -0.01942403 -0.036228836
0.052043993 -0.04530449 0.18759641 0.2020468 0.15662032 0.047214903 -0.24192055 -0.0380885
0.011663027 0.06563125 -0.052385226 -0.07878318 -0.057179727 -0.023324227 0.053719807 -0.045475237
-0.13082974 0.026327448 0.10394094 -0.12796095 -0.06325133 0.10302159 0.04933977 0.006272672
00000000: 257b 8e3d 923f 20bc bd48 513d 1c59 32bd
00000010: b64b 803d 3f59 773b a601 7fbd ec3b 33bd
00000020: fbbc b2bd 970f e0bd 2d62 23bd 9c53 b93b
00000030: 8a45 61bd eec7 693b 67df adbd 9d30 083e
00000040: 0e40 103d 9416 933c 9500 003d 2d75 57bd
00000050: cf13 83bd 10dd e33d 0843 093d 2874 223c
00000060: 8216 e63b 3d2a d83c 0172 6bbb ac71 02be
00000070: 743e f3bd db31 773d 80c8 cf3d fce5 223e
00000080: cf83 58bc b5d7 d4bd af92 b2bd afe4 f5bc
00000090: e83d 333d 5dfe ca3d 600f d43b e01e d4bd
000000a0: e3f7 163c 09b8 9fbd 9ebc b0bd f4ef 0a3d
000000b0: 3285 e63d 9ad2 5c3d e59d 55bd 606e 2f3b
000000c0: ea59 efbc a7a3 19be d919 6f3d ffe7 b23d
000000d0: 63d3 003e eb62 52bd 15ff 223e 5641 f2bd
000000e0: 912b 9abd f5fa 1e3e 019c c13d f049 a33d
000000f0: e3d1 25be 0ae7 cabd 36a5 b83d 93f2 32bd
00000100: 6a03 09bd c137 a83d 570a 8f3d a4a3 f63d
00000110: 108e 19bd 7093 0fbe 2f80 08bc 1fb5 8c3d
00000120: c519 68bd 2a28 1cbd 027d 12bd 3ba8 a4bc
00000130: 15e7 15be c4eb 023e a9e2 123e d5ba 04be
00000140: a57d 8b3d a260 eb3d 3256 a5bb e591 f93c
00000150: 32c3 233e f87f 3fbe c6b9 6cbd aa26 66bd
00000160: 2152 b93d c11f 03bc 8f44 e5bc 7503 63bd
00000170: 4865 7bbe 321a c6ba 251f 9fbc b064 14bd
00000180: 152c 553d 3391 39bd 4619 403e 5be5 4e3e
00000190: 1461 203e 6a64 413d 05ba 77be b002 1cbd
000001a0: 4816 3f3c ad69 863d e491 56bd 1359 a1bd
000001b0: 4a35 6abd 7312 bfbc 4d09 5c3d 3e44 3abd
000001c0: 3bf8 05be a9ac d73c fdde d43d 3208 03be
000001d0: ea89 81bd fcfc d23d 8018 4a3d fd8a cd3b

net.0.bias f4 [20]
9.9763106e-08 -2.573867e-07 -3.581507e-08 5.0984863e-08 -7.856055e-07 -1.705775e-07 -6.802814e-07 -7.887879e-08
-2.2587662e-07 9.8488e-07 -5.537468e-08 9.358111e-08 3.515822e-08 5.999755e-08 -2.3592557e-07 3.8132256e-07
-1.9785965e-07 -4.4510163e-08 -3.1989723e-07 -5.278126e-07
00000000: 593d d633 f52e 8ab4 16d3 19b3 73fa 5a33
00000010: 66e2 52b5 fc27 37b4 959c 36b5 1364 a9b3
00000020: 7e88 72b4 3830 8435 1bd5 6db3 c2f6 c833
00000030: df00 1733 00d8 8033 ba52 7db4 93b8 cc34
00000040: 3f73 54b4 712b 3fb3 57be abb4 01af 0db5

net.1.weight f4 [20]
0.12258205 0.11431794 0.19478844 0.14882049 0.14159907 0.15490155 0.14104146 0.17765471
0.18530615 0.18321386 0.16651754 0.13157493 0.15655184 0.24614337 0.319649 0.25031233
0.24476573 0.23820528 0.1059789 0.23042572
00000000: 4c0c fb3d 861f ea3d 9f76 473e 6664 183e
00000010: 59ff 103e 839e 1e3e 2c6d 103e 1eeb 353e
00000020: e5c0 3d3e 6a9c 3b3e 9383 2a3e 94bb 063e
00000030: 204f 203e 020d 7c3e 09a9 a33e f028 803e
00000040: dea3 7a3e 16ec 733e 770b d93d b8f4 6b3e

net.1.bias f4 [20]
0.008007395 0.037605055 -0.020763043 -0.025363022 0.0061694602 -0.057853527 -0.064430036 0.014832642
0.01470902 0.06582572 0.054535475 -0.0037500241 -0.033450678 -0.094927154 0.0009048774 -0.043349296
-0.04449336 -0.029742124 -0.013236728 -0.0480701
00000000: 7331 033c c207 1a3d 4217 aabc 1dc6 cfbc
00000010: 2f29 ca3b d2f7 6cbd e5f3 83bd 9c04 733c
00000020: 1afe 703c a3cf 863d 9760 5f3d f7c2 75bb
00000030: 9403 09bd 2b69 c2bd 4b35 6d3a 088f 31bd
00000040: ab3e 36bd c1a5 f3bc dcde 58bc 27e5 44bd

net.1.running_mean f4 [20]
-0.008389436 0.013633326 0.0015544747 0.0021236304 0.015675237 0.0025774497 -0.008108007 -0.0048059262
-0.014125939 0.0027607912 0.0063499357 0.0045772046 0.025291044 0.000485462 0.0031899035 0.019234369
-0.026651017 0.00064585207 0.01165021 0.00355746
00000000: d873 09bc 505e 5f3c 84bf cb3a 9b2c 0b3b
00000010: 5b69 803c 6eea 283b 72d7 04bc 087b 9dbb
00000020: 7c70 67bc 64ee 343b 1f13 d03b 60fc 953b
00000030: 2a2f cf3c 9b85 fe39 b30d 513b 6591 9d3c
00000040: 3c53 dabc 664e 293a 86e0 3e3c 4624 693b

net.1.running_var f4 [20]
0.027980141 0.012382909 0.054321602 0.012248269 0.012496914 0.004579425 0.011158786 0.029903892
0.021029256 0.07025746 0.022658037 0.010796805 0.028455703 0.040450945 0.15769155 0.04119547
0.052503247 0.09067312 0.023526222 0.028641138
00000000: 9c36 e53c afe1 4a3c 5480 5e3d f7ac 483c
00000010: dbbf 4c3c 000f 963b 57d3 363c 02f9 f43c
00000020: 8c45 ac3c 25e3 8f3d 599d b93c 15e5 303c
00000030: ef1b e93c e4af 253d e579 213e 95bc 283d
00000040: a50d 573d d4b2 b93d 10ba c03c d2a0 ea3c

net.3.weight f4 [6, 20]
0.021855393 0.026661102 0.030538548 -0.029866878 -0.0009611443 0.075238906 -0.10645663 -0.06494166
0.086485535 0.021951988 -0.008583236 0.032031324 -0.04237435 0.2142596 0.056789186 0.16920483
0.031888098 -0.12830228 0.0578996 -0.07379881 0.004433628 -0.043389667 0.032155883 0.11760397
0.11940244 0.029464189 0.04115005 -0.01225963 -0.14014827 -0.11107356 0.007008907 0.047212888
-0.07451798 0.10013618 -0.027676428 0.019198313 -0.16432793 -0.015724294 0.05853683 0.012671386
-0.037779994 -0.08952464 0.07437009 -0.047630407 0.023835396 -0.09833846 0.008940713 -0.09494572
0.03621222 0.054091852 -0.026686287 0.09450531 0.10692198 0.015998472 -0.20927976 0.099992864
-0.042192012 0.13071789 -0.0069434354 0.10512916 -0.02927729 -0.08105447 0.027685773 0.07897538
0.061383367 -0.036027066 -0.014500209 0.009142556 0.018733596 -0.014062848 -0.020075895 0.034117986
0.014916811 -0.012109517 -0.028679669 0.027237589 -0.057019632 -0.025327008 -0.008470014 0.032335848
-0.03421955 0.03204975 0.039817892 -0.047280904 -0.0190613 0.0016458493 0.013674069 0.03460864
-0.021114366 -0.048627764 0.17376809 -0.075928316 -0.017270075 0.025118554 0.062123746 0.005193742
-0.00155002 0.012246627 0.070857696 0.116174236 -0.10424372 0.036298953 -0.053878173 -0.052611098
0.07099224 -0.07601113 -0.08244791 0.081338316 -0.013430208 0.12093559 -0.0713185 -0.04362783
-0.05983808 0.042716242 0.089504704 0.049799107 -0.0012990206 -0.028544966 -0.05819846 0.16721688
00000000: 150a b33c 6268 da3c fa2b fa3c 62ab f4bc
00000010: 4df5 7bba db16 9a3d ef05 dabd 2200 85bd
00000020: 541f b13d a8d4 b33c b3a0 0cbc 4733 033d
00000030: ba90 2dbd de66 5b3e c79b 683d 0844 2d3e
00000040: 189d 023d ac61 03be 2228 6d3d d523 97bd
00000050: f847 913b 5db9 31bd e3b5 033d 5ada f03d
00000060: 4489 f43d e25e f13c f48c 283d 9ddc 48bc
00000070: 0783 0fbe 897a e3bd f9aa e53b 4d62 413d
00000080: e29c 98bd 3314 cd3d adb9 e2bc c845 9d3c
00000090: 9545 28be 3cd0 80bc 51c4 6f3d a59b 4f3c
000000a0: 32bf 1abd b258 b7bd 594f 983d 1a18 43bd
000000b0: 7342 c33c ad65 c9bd 117c 123c e772 c2bd
000000c0: 4453 143d 6b8f 5d3d 339d dabc 008c c13d
000000d0: e9f9 da3d 3a0f 833c 6f4d 56be 0fc9 cc3d
000000e0: 88d1 2cbd e9da 053e c285 e3bb f54d d73d
000000f0: edd6 efbc e3ff a5bd 46cd e23c d8bd a13d
00000100: 206d 7b3d 1e91 13bd 4992 6dbc a9ca 153c
00000110: 3377 993c dc67 66bc 3476 a4bc 4dbf 0b3d
00000120: a465 743c ff66 46bc a0f1 eabc 5d21 df3c
00000130: 6b8d 69bd 967a cfbc d0c5 0abc 9872 043d
00000140: cd29 0cbd 9946 033d 1618 233d 9fa9 41bd
00000150: 7226 9cbc 8ab9 d73a 3409 603c cac1 0d3d
00000160: 09f8 acbc e82d 47bd 43f0 313e 4e80 9bbd
00000170: f979 8dbc 6dc5 cd3c 7875 7e3d 4430 aa3b
00000180: 0a2a cbba 14a6 483c d71d 913d c2ec ed3d
00000190: bb7d d5bd 36ae 143d 5caf 5cbd bc7e 57bd
000001a0: 6164 913d b9ab 9bbd 73da a8bd b494 a63d
000001b0: 600a 5cbc 14ad f73d 6f0f 92bd 18b3 32bd
000001c0: c618 75bd 3af7 2e3d 3e4e b73d 26fa 4b3d
000001d0: e643 aaba 22d7 e9bc 8261 6ebd e73a 2b3e

net.3.bias f4 [6]
1.813859e-05 -1.4628974e-06 1.0616658e-05 9.2340564e-08 -2.016146e-06 1.9468614e-06
00000000: 5328 9837 c658 c4b5 331e 3237 c34c c633
00000010: 204d 07b6 d3a6 0236

net.4.weight f4 [6]
1.0051317 0.7637726 0.9708277 0.46497843 0.55302376 1.08232
00000000: 28a8 803f 9a86 433f 2a88 783f a711 ee3e
00000010: f792 0d3f 7689 8a3f

net.4.bias f4 [6]
0.31271496 0.37615082 0.50816053 0.1598745 0.25556463 0.40865338
00000000: 2d1c a03e d796 c03e cf16 023f 24b6 233e
00000010: 5ed9 823e 043b d13e

net.4.running_mean f4 [6]
0.030500697 -0.019404477 -0.0023981207 -0.0049853288 0.03227462 0.024677936
00000000: 99dc f93c 23f6 9ebc ca29 1dbb f85b a3bb
00000010: 6432 043d 6229 ca3c

net.4.running_var f4 [6]
0.0016360596 0.001102829 0.0021035874 0.0001624298 0.0006552277 0.0028756808
00000000: 0d71 d63a cd8c 903a 57dc 093b eb51 2a39
00000010: 96c3 2b3a eb75 3c3b

net.6.weight f4 [17, 6]
0.3569021 -0.31008214 -0.42324954 -0.02441576 -0.26134756 0.35389543 0.37239856 -0.31043732
-0.42324963 0.14930642 -0.2604609 0.3566029 0.23882905 -0.1558802 -0.26661974 -0.05028026
-0.09249038 0.287578 0.19382188 -0.12762645 -0.21944898 -0.055106927 -0.047492422 0.23664458
0.18061775 -0.15045735 -0.15050285 -0.0014994659 -0.097483955 0.24114215 0.24939686 -0.18051542
-0.25507367 -0.039471596 -0.1054405 0.31656298 0.10674862 -0.06948773 -0.11441802 -0.027119525
-0.02267884 0.13357231 0.3171846 -0.28414845 -0.35031977 0.1067111 -0.2445675 0.40306327
0.050481178 -0.030712886 -0.054922663 -0.0149640655 -0.0068913815 0.06280391 0.31808707 -0.2638628
-0.35431266 0.028704941 -0.22878017 0.3947189 0.27288413 -0.2135022 -0.27995124 -0.010743639
-0.13084713 0.35008776 0.3088766 -0.3095055 -0.35984227 -0.4005741 0.07295849 0.2684312
0.25155753 -0.1872963 -0.25827944 -0.032540496 -0.113908336 0.32681024 0.100747205 -0.06558283
-0.102643296 -0.021784473 -0.024412474 0.12869217 0.05239599 -0.033325702 -0.05730023 -0.01517598
-0.009141428 0.06544364 0.18064691 -0.11452655 -0.21031328 -0.055995837 -0.033710245 0.21623978
0.32605234 -0.234983 -0.34291345 -0.18188065 -0.23493397 0.3433111
00000000: dfbb b63e 16c3 9ebe 2ab4 d8be 8f03 c8bc
00000010: 59cf 85be c831 b53e 06ab be3e a4f1 9ebe
00000020: 2db4 d8be c8e3 183e 225b 85be a894 b63e
00000030: 9a8f 743e 0f9f 1fbe 6282 88be adf2 4dbd
00000040: 996b bdbd 6c3d 933e 3e79 463e 82b0 02be
00000050: 3cb7 60be cdb7 61bd 6a87 42bd f552 723e
00000060: dcf3 383e 7e11 1abe 6b1d 1abe ba89 c4ba
00000070: aba5 c7bd f8ed 763e e461 7f3e 09d9 38be
00000080: 0499 82be f8ac 21bd 30f1 d7bd 8b14 a23e
00000090: 059f da3d 954f 8ebd ff53 eabd c429 debc
000000a0: fac8 b9bc 2ec7 083e 0566 a23e e87b 91be
000000b0: 1d5d b3be 598b da3d e76f 7abe 4f5e ce3e
000000c0: 5ac5 4e3d 9799 fbbc 96f6 60bd d72b 75bc
000000d0: 19d1 e1bb 569f 803d 4fdc a23e 0619 87be
000000e0: 7868 b5be a026 eb3c 5945 6abe 9818 ca3e
000000f0: 78b7 8b3e 52a0 5abe c555 8fbe 1706 30bc
00000100: cafc 05be b43e b33e 1325 9e3e 8177 9ebe
00000110: 3f3d b8be 0c18 cdbe 436b 953d d06f 893e
00000120: 26cc 803e 9aca 3fbe 343d 84be 2f49 05bd
00000130: c648 e9bd ac53 a73e 8d54 ce3d 4a50 86bd
00000140: a636 d2bd 5a75 b2bc abfc c7bc e1c7 033e
00000150: 2d9d 563d 8880 08bd a5b3 6abd aca4 78bc
00000160: eec5 15bc 5107 863d 81fb 383e e58c eabd
00000170: 5d5c 57be e45b 65bd c113 0abd f66d 5d3e
00000180: 55f0 a63e 629f 70be 5a92 afbe ec3e 3abe
00000190: 8892 70be 79c6 af3e

net.6.bias f4 [17]
0.14105374 0.08447307 -0.0042208037 -0.0047499677 -0.012732341 -0.008733799 -0.0043777446 0.034072895
-0.00053238554 0.04030279 -0.001798817 0.14637464 -0.007958039 -0.0041209925 -0.0017714322 -0.0021273217
0.09750038
00000000: 6470 103e 3800 ad3d ab4e 8abb 9ea5 9bbb
00000010: 4f9b 50bc 3518 0fbc 2f73 8fbb 0590 0b3d
00000020: ca8f 0bba 8a14 253d 48c6 ebba 3ce3 153e
00000030: 6f62 02bc 6409 87bb 672f e8ba 896a 0bbb
00000040: 47ae c73d
