30 weight-optimized multi-task models/model_21.pt (torch_old, 4405 bytes, 14 tensors)

net.0.weight f4 [20, 6]
0	0xbd75dadf	-0.060023185
1	0x3de354d2	0.111001626
2	0xbde02f9d	-0.109465815
3	0xbd8217ae	-0.06352173
4	0xbd793405	-0.060840625
5	0xbd28fad5	-0.041254837
6	0xbcbec11f	-0.023285447
7	0xbc2e8313	-0.010651368
8	0x3c940aaa	0.018071491
9	0xbd47a9f9	-0.048746083
10	0x3c775f4c	0.015098404
11	0xbdba0d65	-0.09084586
12	0xbd3f005c	-0.046631202
13	0xbda748dc	-0.08168194
14	0x3db63e99	0.08898658
15	0x3c6a1deb	0.01428936
16	0xbe326407	-0.1742097
17	0x3e40a1af	0.18811677
18	0x3cec2e44	0.028830655
19	0xbc938055	-0.01800553
20	0xbcf6a77b	-0.030109158
21	0xbdebc352	-0.11511864
22	0xbd8215dd	-0.06351826
23	0x3d8e295c	0.069414824
24	0x3d9108b2	0.070817366
25	0xbc8e2a66	-0.017354202
26	0xbdc90731	-0.09815825
27	0x3cc27093	0.02373532
28	0xbc455fc7	-0.012046761
29	0xbc6005ad	-0.013673228
30	0x3dd04d2c	0.10170969
31	0xbe40a18e	-0.18811628
32	0xbd3e1823	-0.046409737
33	0x3df7d24b	0.12100657
34	0x3cbf2024	0.023330756
35	0x3daa37a8	0.08311397
36	0xbdedc5ed	-0.11610017
37	0xbdccb490	-0.09995377
38	0x3d6a65ec	0.057226107
39	0x3ded00f9	0.11572451
40	0xbd9577b5	-0.07298223
41	0xbdb3be70	-0.087765574
42	0xbe4ed350	-0.20197797
43	0xbd3f2f36	-0.046675883
44	0xbd46bb0b	-0.04851822
45	0xbc393bbe	-0.011305748
46	0x3d61e5ac	0.055150673
47	0xbd0e7cc6	-0.034786962
48	0x3d68fa24	0.056879178
49	0xbab20eb3	-0.0013584703
50	0x3d8a59f6	0.0675544
51	0x3d3f3fb0	0.046691597
52	0xbbbea484	-0.0058179516
53	0xbc88ca03	-0.01669789
54	0xbd9f8ab1	-0.07790125
55	0xbe1a3a74	-0.1506136
56	0xbe4d5b69	-0.20054401
57	0xbc7d65dc	-0.01546618
58	0xb7937040	-1.7576036e-05
59	0xbcd0ea92	-0.025502477
60	0xbd582258	-0.052767128
61	0x3cce98a0	0.025219262
62	0xbd197988	-0.037469417
63	0xbc910b51	-0.017705591
64	0x3d0f612c	0.03500478
65	0xbca4222d	-0.020035828
66	0xbd03aa4d	-0.032144833
67	0x3c8f8853	0.01752106
68	0xbd003007	-0.031295802
69	0x3c5a1a79	0.013311976
70	0x3c3ad2f2	0.011402832
71	0xbde66cc2	-0.11251213
72	0x3b07cb01	0.0020720365
73	0x3d32744a	0.043567933
74	0xbc893b45	-0.016751895
75	0xbd53c07b	-0.051697236
76	0x3d91db55	0.071219124
77	0x3b2059fc	0.0024467697
78	0xbe3b729a	-0.18305436
79	0xbe47bde6	-0.19506034
80	0x3e1bf710	0.15230966
81	0x3e60f233	0.21967392
82	0x3ce90bbd	0.02844798
83	0x3d66bfd3	0.05633528
84	0x3db1c798	0.086806476
85	0xbea10d51	-0.31455472
86	0x3ccf1248	0.025277272
87	0x3cc41ccc	0.023939513
88	0x3dcf753d	0.10129783
89	0x3d298c1c	0.041393384
90	0xbd9da8ca	-0.076982096
91	0x3e34e762	0.1766639
92	0x3d36b751	0.044608418
93	0xbe8970b0	-0.26843786
94	0xbd76a384	-0.060214534
95	0xbe5481c8	-0.20752633
96	0x3e7795ff	0.24178313
97	0x3e29830e	0.165539
98	0x3e0c0f23	0.13677649
99	0x3e03d0f5	0.1287268
100	0x3caac765	0.020847032
101	0x3d2a1b64	0.041530028
102	0x3cc973c0	0.024591327
103	0x3de9408d	0.11389265
104	0x3bcfa9f1	0.0063373973
105	0xbd6755d9	-0.056478355
106	0xbd2aa604	-0.04166223
107	0x3cdfcd32	0.027319524
108	0xbdb0e7b1	-0.08637942
109	0x3ca928b2	0.020649288
110	0xbde27d09	-0.11059005
111	0x3e211cd8	0.1573366
112	0x3d385b46	0.04500892
113	0x3d1a461d	0.03766452
114	0x3d572c13	0.052532267
115	0x38aad2dd	8.145508e-05
116	0x3cf9f75a	0.030513454
117	0x3d2ae431	0.041721527
118	0x3c45127b	0.012028332
119	0x3da90109	0.082521506

net.0.bias f4 [20]
0	0x3337988a	4.274674e-08
1	0xb39c4d43	-7.27837e-08
2	0xb49b17aa	-2.8888218e-07
3	0xb3d03baf	-9.696611e-08
4	0x35f03e71	1.7899566e-06
5	0x32b6b9be	2.1272054e-08
6	0xb39f4d01	-7.4180214e-08
7	0x3392aac8	6.82972e-08
8	0x33fc698d	1.1753864e-07
9	0x33e69327	1.07369765e-07
10	0x329f51b4	1.854719e-08
11	0xb48a46b6	-2.5755952e-07
12	0x33b778c4	8.543569e-08
13	0x346d3707	2.2092364e-07
14	0xb4d2622b	-3.9186975e-07
15	0xb20eba6c	-8.307875e-09
16	0xb60144be	-1.9262511e-06
17	0x327407d7	1.4204452e-08
18	0xb42b5512	-1.5956564e-07
19	0xb4a1c670	-3.013297e-07

net.1.weight f4 [20]
0	0x3e336538	0.1751908
1	0x3ddb2b3d	0.107016064
2	0x3e4fb7a9	0.20284905
3	0x3e5192b0	0.20466113
4	0x3e1b4d74	0.15166265
5	0x3e855ff7	0.26049778
6	0x3e499ba4	0.19688278
7	0x3e48ed20	0.19621706
8	0x3db8efbb	0.090301
9	0x3e3e9eed	0.18615313
10	0x3d9bd97c	0.07609841
11	0x3dfe1d8a	0.12407978
12	0x3ddf4235	0.109013
13	0x3e5eb6d0	0.21749425
14	0x3eb165bc	0.3464793
15	0x3e869c97	0.26291344
16	0x3e7f7b35	0.24949344
17	0x3decb12a	0.11557229
18	0x3e8ac74e	0.27105182
19	0x3e0c3cfe	0.13695142

net.1.bias f4 [20]
0	0xbdad3da4	-0.08459023
1	0x3b8dbdab	0.0043255887
2	0x3d9905b5	0.07471792
3	0xbdec7b33	-0.11546936
4	0x3ca989b6	0.020695549
5	0xbc7911dd	-0.015202013
6	0x3d3683ac	0.044559166
7	0xbdcd3c3d	-0.10021255
8	0xbb23087a	-0.0024876879
9	0xbd886dee	-0.066615924
10	0xbd6540f1	-0.055970136
11	0x3c887b01	0.016660215
12	0xbd1f277a	-0.038856007
13	0xbc0ab584	-0.008466128
14	0x3d17db86	0.03707459
15	0x3d310e43	0.04322649
16	0xbd937226	-0.071995065
17	0xbd0dbe19	-0.03460512
18	0xbd8eb7b2	-0.06968631
19	0xbd24be5f	-0.040220615

net.1.running_mean f4 [20]
0	0x3c0d3c5d	0.008620349
1	0x3bb632c0	0.005560249
2	0xbc211516	-0.009831687
3	0xbb28febf	-0.0025786606
4	0x3b683f28	0.0035438035
5	0xbbd25cab	-0.0064197383
6	0x3c0862e2	0.008324357
7	0x3b60365a	0.0034212084
8	0xba328330	-0.00068097096
9	0x3bf968ab	0.0076113543
10	0x3ae23ba8	0.0017260211
11	0x3c1184cf	0.008881762
12	0xbb163010	-0.002291683
13	0xbbfacd1c	-0.0076538455
14	0xbc056adc	-0.008143153
15	0x3c85e4e3	0.016344493
16	0xbc0ed8c6	-0.008718675
17	0xba40a1ef	-0.0007348349
18	0xb9c46714	-0.00037460832
19	0xbbf7ef61	-0.007566378

net.1.running_var f4 [20]
0	0x3d228cb8	0.03968498
1	0x3c6361d2	0.013878303
2	0x3d6b28d4	0.057411984
3	0x3ca08eab	0.01959928
4	0x3c1617a1	0.009160907
5	0x3d1f85a7	0.03894582
6	0x3d263b9e	0.0405842
7	0x3cd63c1a	0.026151706
8	0x3bcd554b	0.006266271
9	0x3d001064	0.03126563
10	0x3bb7d29a	0.0056098225
11	0x3c52734f	0.0128448745
12	0x3bd48d8a	0.0064865993
13	0x3d05247b	0.032505494
14	0x3e2121dc	0.15735573
15	0x3dc29f2a	0.095030144
16	0x3d57fbd6	0.052730404
17	0x3ba3271d	0.004979028
18	0x3dd26254	0.10272661
19	0x3c2c727a	0.01052534

net.3.weight f4 [6, 20]
0	0x3d5dc459	0.05414233
1	0x3d491e38	0.049101084
2	0x3dc87e1b	0.09789678
3	0x3d95f0a5	0.0732129
4	0x3ded3d39	0.11583943
5	0x3cb82cb1	0.022482248
6	0x3cf6ca1d	0.030125672
7	0xbc78d247	-0.015186853
8	0x3cd2b221	0.025719704
9	0xbd5abf81	-0.05340529
10	0xbc267b43	-0.010161224
11	0xbd7cd073	-0.06172223
12	0x3bd99fd0	0.0066413656
13	0xbe0772fc	-0.13227457
14	0xbe1c260e	-0.15248892
15	0xbd54d0df	-0.051957007
16	0xbc64ea47	-0.013971872
17	0xbd56888f	-0.052376326
18	0x3e1ddda2	0.15416577
19	0xbbce51a1	-0.006296352
20	0xbda0603a	-0.07830854
21	0xbd06aeab	-0.03288142
22	0xbc8ac9f2	-0.016941998
23	0xbb30ed4c	-0.0026996909
24	0xbdcf1f1c	-0.101133555
25	0x3df8ac14	0.12142196
26	0xbc8e7fef	-0.017394988
27	0x3da03dc1	0.078242786
28	0xbd73a156	-0.059480034
29	0x3d162d66	0.03666439
30	0x3cd12754	0.025531448
31	0x3d250d0a	0.04029564
32	0xba5dde0b	-0.0008463568
33	0x3bdb85f2	0.006699317
34	0x3cd879b2	0.026425216
35	0x3e0f68e4	0.14004856
36	0xbc3201e7	-0.010864711
37	0xbbd312e4	-0.006441461
38	0x3cb06b5a	0.021535564
39	0xbe02cfcb	-0.12774579
40	0xbd58e2a8	-0.05295053
41	0xbd9ad02b	-0.07559236
42	0xbdc09bd5	-0.094047226
43	0xbd6f485d	-0.05841862
44	0x3ce92297	0.028458877
45	0x3dfa88c9	0.12233121
46	0x3dcba986	0.099444434
47	0xbc926692	-0.017871175
48	0x3d9fdd03	0.078058265
49	0x3e0c5c72	0.1370714
50	0xbd07ef6a	-0.033187307
51	0xba8b0778	-0.0010607084
52	0xbc355775	-0.011068215
53	0xbcfc3e2b	-0.030791363
54	0x3c84d7d3	0.016216194
55	0xbdd9c744	-0.1063371
56	0x3e3d6e0b	0.1849901
57	0x3d05cdcc	0.032666966
58	0xbdcf81ee	-0.10132204
59	0x3cac684f	0.021045832
60	0xb9888ffa	-0.00026047212
61	0xbd3fb68d	-0.046804953
62	0x3d313684	0.04326488
63	0xbdc4ee7e	-0.09615801
64	0x3d482f73	0.048873376
65	0x3da2a820	0.079422235
66	0x3ccd5fb9	0.025070058
67	0xbc65fa43	-0.014036718
68	0x3c6f338b	0.014599691
69	0x3d8548f7	0.065080576
70	0x3cc28083	0.02374292
71	0x3dbbc120	0.09167695
72	0xbde59ced	-0.11211572
73	0xbccca132	-0.024979208
74	0x3e599b3b	0.21250622
75	0xbdd5433b	-0.10413214
76	0x3c36ab6a	0.011149267
77	0xbb79dd17	-0.0038126165
78	0xbd9d4e34	-0.07680932
79	0x3a0cfc13	0.0005378138
80	0x3e030715	0.1279567
81	0x3d086475	0.03329893
82	0x3c415f4b	0.011802505
83	0x3d1c395a	0.038140632
84	0xbcda319b	-0.026634982
85	0x3dabbd4b	0.08385714
86	0x3d9c9957	0.07646435
87	0x3e1b832b	0.15186755
88	0x3c040741	0.00805837
89	0x3c365ddf	0.011130779
90	0x3db64658	0.08900136
91	0xbd0052eb	-0.031329077
92	0x3d5a7134	0.053330615
93	0xbd35afef	-0.044357236
94	0xbe11987d	-0.14218326
95	0xbdc2f95e	-0.09520219
96	0x3cb13f01	0.021636488
97	0xbc0d68ec	-0.008630972
98	0xbb1a68dd	-0.0023561039
99	0xbd5414d0	-0.05177766
100	0xbdad8ed8	-0.08474511
101	0xbd8091ca	-0.06277807
102	0x3d7885de	0.06067454
103	0x3dfd925b	0.12381431
104	0x3d334411	0.043766085
105	0xbde68b3f	-0.11257028
106	0x3e306a12	0.17227963
107	0xba799926	-0.0009521417
108	0xbd018c3a	-0.03162787
109	0xbdb744c9	-0.089486666
110	0x3b0a066b	0.0021060954
111	0xbd074d80	-0.033032894
112	0x3d01ce93	0.031691145
113	0xbd1cf82e	-0.03832262
114	0xbd5f5f45	-0.054534215
115	0xbd030ce2	-0.031994708
116	0xbbf4ef81	-0.00747484
117	0xbda58cff	-0.080835335
118	0xbd239345	-0.03993537
119	0xbd6a3c94	-0.057186678

net.3.bias f4 [6]
0	0x36b26af8	5.317266e-06
1	0xb6f37b9a	-7.2563535e-06
2	0x35d5acce	1.592003e-06
3	0x35892791	1.0218811e-06
4	0x374a435f	1.2055824e-05
5	0xb5bd4eab	-1.4104493e-06

net.4.weight f4 [6]
0	0x3f538ca2	0.82636464
1	0x3f0d76a6	0.5525917
2	0x3f847e36	1.0351017
3	0x3f899e61	1.0751458
4	0x3f6263f7	0.88433784
5	0x3f360050	0.71094227

net.4.bias f4 [6]
0	0x3eb70959	0.3574932
1	0x3d9992d0	0.074987054
2	0x3ec77748	0.38958192
3	0x3eca345a	0.39493066
4	0x3ee3463f	0.4438953
5	0x3efd987b	0.49530396

net.4.running_mean f4 [6]
0	0xbbef3851	-0.0073004146
1	0x3cb2d90b	0.02183201
2	0x3bbfa1b3	0.0058481335
3	0x3d12c31d	0.035830606
4	0xbc2d6bf5	-0.010584821
5	0xbc9c4735	-0.019076923

net.4.running_var f4 [6]
0	0x3ac8a712	0.001530858
1	0x3a182f0c	0.00058053504
2	0x3b2b4bfb	0.0026137817
3	0x3b6b514e	0.0035906616
4	0x3ab326dc	0.0013668197
5	0x3a980444	0.0011597951

net.6.weight f4 [17, 6]
0	0xbeabfa97	-0.33589622
1	0xbe9c2a5c	-0.30501068
2	0x3e8f570c	0.279961
3	0x3eb47697	0.35246727
4	0xbe97e16e	-0.29664177
5	0xbea82d05	-0.32846847
6	0xbe04e2cb	-0.1297714
7	0xbe8caf11	-0.27477315
8	0x3e856a90	0.26057863
9	0x3edce71b	0.4314507
10	0xbebf23ab	-0.373319
11	0xbe93a60a	-0.28837615
12	0xbe33b0e1	-0.17547943
13	0xbd0d4dac	-0.0344979
14	0x3e84922c	0.2589277
15	0x3e8cdba4	0.27511322
16	0xbe62f52f	-0.22163843
17	0xbe1dd895	-0.1541465
18	0xbe235e87	-0.15954028
19	0xbc80f7b6	-0.015743118
20	0x3e5c563e	0.21517274
21	0x3e7196cb	0.23592679
22	0xbe3940bf	-0.18091105
23	0xbde43f65	-0.11144904
24	0xbda33ba0	-0.07970357
25	0xbd7467a0	-0.059669137
26	0x3e5b8956	0.21439108
27	0x3e594e5c	0.21221298
28	0xbe0f91e5	-0.14020498
29	0xbe1fa55f	-0.15590428
30	0xbe289f02	-0.16466907
31	0xbd575d05	-0.052578945
32	0x3e8c2810	0.27374315
33	0x3e94b8e5	0.29047313
34	0xbe5eeae0	-0.21769285
35	0xbe337d77	-0.1752833
36	0xbdaac133	-0.08337631
37	0xbbe51a0f	-0.006991632
38	0x3df89a78	0.121388376
39	0x3e0b2496	0.13588175
40	0xbdc99bf5	-0.098441996
41	0xbd807d2e	-0.06273876
42	0xbdc6e168	-0.097109616
43	0xbe301061	-0.17193748
44	0x3e95d959	0.29267386
45	0x3ebf24e6	0.3733284
46	0xbeaba5c7	-0.33524916
47	0xbea7326a	-0.3265565
48	0xbd2c405b	-0.04205356
49	0xba1a81c8	-0.00058939727
50	0x3d6908d4	0.056893185
51	0x3d87c7a9	0.06629879
52	0xbd438382	-0.047732837
53	0xbcdc37e4	-0.02688212
54	0xbe2d3880	-0.16916084
55	0xbe1e288a	-0.15445152
56	0x3ea895a5	0.3292667
57	0x3eb02e03	0.34410104
58	0xbea14047	-0.31494352
59	0xbe904735	-0.28179327
60	0xbe169d56	-0.14708456
61	0xbd9998d9	-0.074998565
62	0x3e91c625	0.28471485
63	0x3ea11cd5	0.3146731
64	0xbe80cac1	-0.2515469
65	0xbe5fff12	-0.21874645
66	0xbeff65b3	-0.49882278
67	0xba1e9000	-0.00060486794
68	0x3e337d6c	0.17528313
69	0x3eb64814	0.35601866
70	0xbe6663db	-0.2249903
71	0xbdcfd89a	-0.10148735
72	0xbe250722	-0.16116002
73	0xbd6c17cf	-0.057639893
74	0x3e8d8eed	0.27648106
75	0x3e97744a	0.2958091
76	0xbe63f0ad	-0.2225978
77	0xbe3d8f40	-0.18511677
78	0xbd952c8b	-0.072838865
79	0xbc0b2e25	-0.008494888
80	0x3deaf50f	0.114725225
81	0x3e030b7b	0.12797348
82	0xbdb877e9	-0.09007246
83	0xbd822573	-0.06354799
84	0xbd31579f	-0.043296453
85	0xbabb8932	-0.0014307855
86	0x3d796aa8	0.06089273
87	0x3d9019b0	0.070361495
88	0xbd4ca5bb	-0.04996274
89	0xbcf364fd	-0.02971124
90	0xbe1ea841	-0.15493871
91	0xbbedb551	-0.0072542806
92	0x3e48adf2	0.19597605
93	0x3e64d25e	0.22345874
94	0xbe31a902	-0.17349628
95	0xbdccea46	-0.100056216
96	0xbebb4c5f	-0.36581704
97	0xbe138304	-0.14405447
98	0x3ee052f4	0.43813288
99	0x3e802708	0.25029778
100	0xbe4a565c	-0.19759506
101	0xbe583fb4	-0.21118051

net.6.bias f4 [17]
0	0x3e6d8221	0.23194171
1	0x3dadee04	0.084926635
2	0x3b8a08df	0.0042124833
3	0x3b6e60db	0.0036373648
4	0xbc59c744	-0.0132921375
5	0xbbbf4d8d	-0.005838102
6	0x38b3e940	8.578831e-05
7	0x3d6fe876	0.0585713
8	0x3afc32a4	0.0019241166
9	0x3d6e45ec	0.05817215
10	0xbac27835	-0.001483685
11	0x3ddcb35c	0.107763976
12	0xbb6614e2	-0.0035107662
13	0xba87fd62	-0.0010375197
14	0x3b0517af	0.0020308306
15	0x3bd21238	0.0064108633
16	0x3d893bd7	0.06700867
