30 weight-optimized multi-task models/model_4.pt (torch_old, 4405 bytes, 14 tensors)

net.0.weight f4 [20, 6]
00000000: 281f 94bd cb7b 04be 3dde 4b3d 0b63 bf3d
00000010: e98d 19bc 0d2f 26be 9f42 4e3c fc7d d43c
00000020: ceee 5c3d 2cf5 acbd 8e8d 88bd 263b a83d
00000030: b85b 30bd e25f 25be 77f3 cabd 633c fb3d
00000040: 7ba7 cc3b 79bf 79bd 3ce0 ec3d 743c a13d
00000050: 8c24 103e 60cf 3a3d 067c bf3c 7209 29bb
00000060: 0fda 8cbe 1aa0 9cbc d828 583d b0c7 bfbd
00000070: 9a75 9c3d 6d79 84bd b9e3 a73d f71d 8e3d
00000080: 83df 9dba 735a 19be 0171 d1bc 0f51 8bbd
00000090: 1baf 133b 93c7 27bc 7550 003c e4ed 7bba
000000a0: 6d12 413c cfc2 e63b c4a7 173e 6f79 0a3e
000000b0: 19e7 72bd 0377 2bbe 78a1 7dbd 43d5 983c
000000c0: a14d 913d d2ee 88be b041 13bc af2e e3bc
000000d0: de06 eb3d 4c8b 9d3c 1864 8a3e e9b3 27be
000000e0: be9e 4cbd d5aa 2a3e df59 e43a 495f 453d
000000f0: c79b 19bc 9077 8cbb a262 bbbd 9e4e a53d
00000100: aa95 963c dd3b 01bb fb4a a73a 14fc a139
00000110: 0339 903a a205 86b8 fd5b 0f3b cff5 bd3a
00000120: 4fd8 343a 3b8e 12bb 4fc5 15b8 49d2 a637
00000130: f271 933a a13c 73ba 41a0 11bd df59 db3d
00000140: d4d9 0cbe 1822 83bd 9ac1 9abd 829b 81bc
00000150: 93bd e3bd 1662 4d3d 55a4 28be 3b3a 46be
00000160: cd88 38bc 27b6 c6bd 25ac a2bd 6293 5bbc
00000170: fb37 1bba f32e cdbd e9c4 2cbe 2a48 023e
00000180: dbcb 17be a659 863c e18a 743d 9c22 8f3d
00000190: 3170 44bc 3f9e 8dbd ec95 fe3a 1542 ea3d
000001a0: fbd4 52bb 1774 03be c941 c8bd 679e acbd
000001b0: 4509 c53c 4f4f 863d 9e38 6bbe 4135 62be
000001c0: bd8d 1bbd cc14 1fbd e1bf 463d c076 6d3c
000001d0: e9a7 0f3c 7e12 a8bd 4de4 a83d f38e 63bd
-0.07232505 -0.12937848 0.04977249 0.09345063 -0.009372213 -0.16228886 0.012589126 0.02593898
0.05393868 -0.084452 -0.066676244 0.08214407 -0.04305622 -0.16149858 -0.099097185 0.12267377
0.006245551 -0.06097362 0.11566207 0.07872859 0.14076442 0.045607924 0.023374569 -0.0025792983
-0.27510116 -0.019119311 0.052773327 -0.09364259 0.07639618 -0.06468473 0.081977315 0.06939309
-0.0012044761 -0.1497591 -0.02556658 -0.0680257 0.002253479 -0.010240453 0.007831682 -0.00096103386
0.011784178 0.007042266 0.14810091 0.13522886 -0.059302423 -0.16744618 -0.061921567 0.018656379
0.07094885 -0.26744705 -0.008987829 -0.027732221 0.11475919 0.019231461 0.2702949 -0.16377224
-0.049956076 0.1666673 0.0017421803 0.048186574 -0.009375519 -0.004286714 -0.09149672 0.08071636
0.018381912 -0.001971952 0.0012763435 0.00030896126 0.0011003319 -6.390667e-05 0.0021874898 0.0014492812
0.00068986876 -0.0022362608 -3.5708126e-05 1.9886664e-05 0.0011249168 -0.0009278749 -0.03555322 0.10710501
-0.1375497 -0.06402987 -0.07556458 -0.015821222 -0.11120143 0.05014237 -0.16468938 -0.1935815
-0.011263085 -0.097027116 -0.0794299 -0.013401838 -0.00059211225 -0.100187205 -0.1687199 0.12722841
-0.14823858 0.01640017 0.059702758 0.06989023 -0.011989639 -0.06914949 0.0019423342 0.114383854
-0.0032170403 -0.12837254 -0.097781725 -0.0842865 0.024052272 0.06558096 -0.22970816 -0.22090627
-0.03797697 -0.038838193 0.048522834 0.014493644 0.00876806 -0.08206652 0.0824667 -0.05555625

net.0.bias f4 [20]
00000000: 9dc2 a332 d9f1 dc33 1eb5 34b5 285a 0eb3
00000010: 563e d6b4 8e34 9334 1727 adb1 11a9 7e35
00000020: 2962 9cb4 f244 b3b5 70cd 4a34 bd42 4aa7
00000030: 3d04 0000 4275 a034 7a73 3231 f686 a433
00000040: 6f22 db33 e9cb 0333 dfb0 3bb4 75d4 ab32
1.9064197e-08 1.028854e-07 -6.7318786e-07 -3.3143948e-08 -3.9905962e-07 2.7419122e-07 -5.0394067e-09 9.48684e-07
-2.9128685e-07 -1.3356605e-06 1.8887454e-07 -2.806931e-15 1.52e-42 2.988764e-07 2.596805e-09 7.6613944e-08
1.02042456e-07 3.068627e-08 -1.7480077e-07 2.0003634e-08

net.1.weight f4 [20]
00000000: 5fc8 253e 220c fd3d 0e84 e03d 7538 183e
00000010: 80fa 263e 226b 3b3e fdb5 063c e234 363e
00000020: d453 973e de89 a33e 444d f73d 4151 5a3a
00000030: b43f 013a 1632 3c3e d277 e13d e44e fb3d
00000040: 5b35 0d3e 5d4e 3c3e 0080 683e a7ce f13d
0.16189717 0.1235583 0.109626874 0.14865287 0.16306496 0.18302587 0.0082221 0.1779361
0.29556143 0.31941122 0.12075284 0.0008328148 0.0004930452 0.18378481 0.11009182 0.122709066
0.13789885 0.18389268 0.22705078 0.11806994

net.1.bias f4 [20]
00000000: 671a b3bd 4970 48bd 8073 833c 10d3 26bd
00000010: 5728 df3b 2ba9 cabd ca62 a5bc bc11 8abc
00000020: 2453 153d 3740 e5bd 25b6 83bd bd66 3fbb
00000030: f4e1 66ba b9f4 a5bd 1e3a 123e ac11 f23c
00000040: f892 463d 144c aabc a0fe b6bd b63f a2bd
-0.0874527 -0.04893521 0.016046286 -0.04072863 0.006810229 -0.098955475 -0.020188708 -0.01685416
0.036456242 -0.11193889 -0.06431226 -0.0029205524 -0.00088074734 -0.08103318 0.14279982 0.029549442
0.048480004 -0.02078823 -0.089352846 -0.07922308

net.1.running_mean f4 [20]
00000000: 85e4 18bb 1af2 6dbb 32a3 123a 5768 283a
00000010: 5e1b 8039 b1d6 81bb 5178 99b9 5e67 33bb
00000020: f1dd 0bbc 2853 3fbb ac77 953b 5656 a337
00000030: 1178 8cb8 4ae3 4d3b a173 38ba d579 a5bb
00000040: 5700 5a3b 49ec 17bb d5a7 f0ba 787a e5ba
-0.0023329568 -0.0036307634 0.0005593776 0.0006424239 0.00024434453 -0.003962361 -0.00029272077 -0.0027374844
-0.008536802 -0.0029193852 0.004561385 1.9471318e-05 -6.698084e-05 0.0031415992 -0.0007036273 -0.005049924
0.0033264363 -0.0023181608 -0.0018360565 -0.0017507812

net.1.running_var f4 [20]
00000000: a762 253d 7664 7f3c 8fc3 6d3c 6641 b03c
00000010: 2638 153d b4f4 e03c 6542 e839 e2c7 8b3c
00000020: 3fc6 073e babd 9d3d 20e3 c73c 3d3f 5237
00000030: c88f 3737 1f2b 273d 11e1 0b3d 07fa 343d
00000040: 3090 253d d2b0 af3c 9c04 123d 6a08 c03c
0.040377285 0.015587917 0.014511957 0.02151556 0.0364305 0.027460434 0.00044299956 0.017063085
0.13259219 0.07702203 0.024400294 1.2531699e-05 1.0941127e-05 0.040812608 0.034150187 0.044183757
0.04042071 0.02144662 0.035648927 0.023441512

net.3.weight f4 [6, 20]
00000000: 82dc 953d 7226 c83c 8c58 313d 6e28 af3b
00000010: 19de a0bc 7ff4 7f3d 7cad 793a 7420 dfbd
00000020: 9b65 e0bd 058b fe3d b040 733d 0ae9 97ba
00000030: 2cb1 d038 9e47 553e c544 5d3d 5742 b93c
00000040: 74e5 90bd 0f94 79bd b909 c7bc 9f26 e03c
00000050: 6c42 54bd d0fc 173c c63b be3d 20a4 b23d
00000060: 90d7 8dbc 38c8 08bd 4389 a0bb 9c11 88bd
00000070: ab42 d9bb 0f87 2b3e 6c5a 143d 37ba 02bb
00000080: f39e 01bb 03e8 0e3d 57ca de3c a378 94bd
00000090: 43e1 f0bd 24a0 dd3c d176 e33c 5c40 59bd
000000a0: c51a fd3b e2a2 a53d 4996 333d c4b3 d0bc
000000b0: 6a7f 223c fa51 693d 6f78 7fba 6288 0abc
000000c0: 4b48 cfbd 193d 0b3d 8e7b f43d 6b04 eb38
000000d0: 53f2 7338 8b36 073d 317c f33c 75e7 83bc
000000e0: b5cc 46bd 8714 a5bd 9518 7cbd 8258 d33c
000000f0: 4180 4b3d 7909 60bc 087e 8b3d 77ba 083b
00000100: dd24 173e adaf 543d e77a ddbb 4cb5 d5bd
00000110: 5d63 34bd 8704 203e 7e49 883c 3080 51bb
00000120: 9002 903b b51f 5bba 42c6 163e 7185 003e
00000130: 957a 373d c2c8 f7bd 26d6 75bd 3b5d 8a3d
00000140: 5d14 293d 6921 e13d 289c 423d 803b c9bc
00000150: 3a75 e2bc 901d b63d 90d1 46bc f256 563d
00000160: e4e6 4bbe f696 513d bda0 8dbc da0b 3f3b
00000170: 1ad4 13bb b7e9 7cbd 6fd2 643d 2262 bfbc
00000180: f75b 8dbd 371f 0f3e d831 8cbd cd9a b4bc
00000190: f5b2 c5bd d4df 2c3d e902 703d 1086 cc3d
000001a0: 7b87 95bd 788b d8bd 3bed 533c 8d46 e6bd
000001b0: 536f d23d 0be5 423e 00bb 85bd 6549 6d3c
000001c0: 923e 5e3b 1867 aabc 3782 513d 9a2c 20bd
000001d0: 099e c3bb 6b17 edbc a18a 863d 40ce 5ebd
0.07317449 0.024432395 0.043297336 0.0053453958 -0.019637154 0.06248903 0.00095244474 -0.10894862
-0.1095688 0.124288596 0.059387863 -0.0011589837 9.951214e-05 0.20828101 0.05402066 0.022614641
-0.07075015 -0.060932215 -0.024296628 0.027362166 -0.051821157 0.009276584 0.09288745 0.087227106
-0.017314702 -0.03339407 -0.0048991754 -0.06643984 -0.006630262 0.1675074 0.036219046 -0.0019947418
-0.001977858 0.034889232 0.027196093 -0.07249572 -0.11761715 0.0270539 0.027766617 -0.053039894
0.0077241384 0.08087708 0.043844495 -0.025476344 0.009918073 0.056962945 -0.0009745424 -0.008455368
-0.10121211 0.033993814 0.11937629 0.00011206496 5.8161397e-05 0.033011 0.029722305 -0.016101578
-0.048535068 -0.08060556 -0.06154688 0.02579904 0.04968286 -0.013674133 0.06811148 0.0020863095
0.14760156 0.05192535 -0.006759036 -0.1043497 -0.044040073 0.15626727 0.016636606 -0.0031967275
0.0043948367 -0.0008358912 0.14724067 0.12550904 0.044794638 -0.120988384 -0.06001868 0.067560636
0.041279186 0.109927006 0.047512203 -0.024564505 -0.027643789 0.08892357 -0.0121349245 0.05232901
-0.19912297 0.05116936 -0.01728856 0.0029151351 -0.0022556842 -0.061746325 0.055864748 -0.023362223
-0.069023065 0.13976751 -0.068454444 -0.022046471 -0.09653274 0.042205647 0.058596525 0.09986508
-0.073012315 -0.105734766 0.012934978 -0.11243925 0.1027514 0.19032685 -0.06529808 0.014482831
0.0033911807 -0.020801112 0.051149573 -0.039105035 -0.005969767 -0.02894183 0.0656941 -0.054395914

net.3.bias f4 [6]
00000000: 90ca 1c35 8920 77b6 02fd 8536 615a bb37
00000010: 6a64 74b6 1a73 97b6
5.8409296e-07 -3.6824806e-06 3.993163e-06 2.2334223e-05 -3.6417282e-06 -4.5135503e-06

net.4.weight f4 [6]
00000000: 66c7 583f 3d4c 473f fc15 043f 0c2f 3a3f
00000010: a540 273f 150a 9e3f
0.8467926 0.77850705 0.51596045 0.7272804 0.65333015 1.2346827

net.4.bias f4 [6]
00000000: 7c0c d03e 66dc 883e 27cf 283e 8e0a e03e
00000010: e402 e33e 39ef 033f
0.40634525 0.2673065 0.16485272 0.43758053 0.44338143 0.515369

net.4.running_mean f4 [6]
00000000: ea65 4a3b fc47 113c 5fd2 32bc 60a1 2c3d
00000010: 8958 3cbc 77c1 d03c
0.00308835 0.00886726 -0.010914414 0.042146087 -0.011495718 0.025482876

net.4.running_var f4 [6]
00000000: 36b6 2c3a 3af7 813a 0bc0 ae39 400d 3c3a
00000010: ced7 593a 465d 133b
0.0006588431 0.0009915598 0.0003333095 0.0007173605 0.00083100505 0.0022486015

net.6.weight f4 [17, 6]
00000000: f505 99be 66ae c93e 2db8 46be 8b6e a3be
00000010: a563 afbe a3dd a93e d909 91be e7ab 593e
00000020: 500a 0cbc 6620 a7be 6a46 9dbe 3ee4 f13e
00000030: 86fb 54be 354a 4d3e 1e89 c3bd 94a9 46be
00000040: 40e7 f1bd a39d b03e 43e7 36be 47ca 283e
00000050: a4f2 b9bd 1b97 10be bfa3 cbbd fc3f 933e
00000060: c265 debd 059c 283e 1b53 14bd cbd3 0bbe
00000070: d7ac 02be c67c 8e3e fd8d 4bbe 28cf 5c3e
00000080: bded b9bd 7352 42be 309f 15be 0841 bc3e
00000090: e00f b9bd e359 c43d 97f2 39bd 1257 8bbd
000000a0: cc99 6fbd 83d0 293e e580 77be b629 8f3e
000000b0: 6b44 aebb d08a 93be 0990 91be cdf2 d83e
000000c0: caf1 34bd 015f 3b3d dd91 b7bc d576 e8bc
000000d0: 392a d9bc e2b7 a13d a1d6 81be 38fc 863e
000000e0: c8a1 87bd 4a35 98be f9ce 75be aea2 de3e
000000f0: 1531 56be 593b 683e 90ce 9bbd ea2f 56be
00000100: d071 3fbe b100 c73e dd84 f2be 1ef7 0e3e
00000110: a1bc c5be 8331 5bbd 1f23 7cbe 8a0e bf3e
00000120: 10a8 48be 086a 5d3e abb7 acbd e3d5 43be
00000130: 9ca9 20be 6127 bd3e c5b6 a2bd a48e ba3d
00000140: 4e11 1ebd daf1 7bbd 8705 69bd 7576 203e
00000150: 2c79 38bd 202e 463d 06f5 b3bc 26e6 f6bc
00000160: bae2 e8bc 97aa aa3d 1f92 31be 7366 1b3e
00000170: 752b b4bd 92ac 02be bf09 babd 1627 883e
00000180: 5ace 7bbe d7fe 673e 4bdc 6abe c0b3 aebe
00000190: be38 3bbe 5b67 dd3e
-0.29887357 0.39390868 -0.19406195 -0.31920275 -0.3425571 0.33176908 -0.28327826 0.21256982
-0.008547381 -0.32641906 -0.30717784 0.47244447 -0.20799074 0.20047839 -0.095476374 -0.19400626
-0.118116856 0.34495267 -0.17861657 0.16483413 -0.09079483 -0.14120142 -0.099433415 0.28759754
-0.108592525 0.16465767 -0.036212068 -0.13655011 -0.12761246 0.2782957 -0.19878383 0.21563399
-0.09078548 -0.18976764 -0.14611506 0.36768365 -0.09036231 0.09587457 -0.045397367 -0.06803717
-0.05849628 0.16583447 -0.24170263 0.2796151 -0.0053182147 -0.28816843 -0.28430203 0.42372742
-0.0441759 0.0457449 -0.02240842 -0.028376976 -0.026509391 0.07896401 -0.2535906 0.26364303
-0.06622654 -0.29728156 -0.24004735 0.4348349 -0.20917161 0.2267889 -0.07607758 -0.20916715
-0.1869576 0.38867715 -0.47366992 0.13961455 -0.38620475 -0.053514015 -0.24622773 0.3731578
-0.19595361 0.21622479 -0.084334694 -0.1912456 -0.15689701 0.36944106 -0.07945017 0.09109238
-0.03859072 -0.061509944 -0.056890037 0.15670188 -0.045037434 0.048383832 -0.021967422 -0.03013904
-0.028428424 0.08333319 -0.17340897 0.151758 -0.08797351 -0.12761143 -0.0908389 0.2659232
-0.24590436 0.22655807 -0.22935598 -0.34121513 -0.18283364 0.43242916

net.6.bias f4 [17]
00000000: 6007 463e 5244 b93d 60ae f03b 83b6 8f3b
00000010: 945d 3bbc 8c7c d1bb 4fb3 aeb9 3239 223d
00000020: 1a01 103b 7254 3c3d 0591 1cb9 673e 433e
00000030: 07b7 b4bb cdc4 d8ba c293 f13a ca5f bc3b
00000040: 29e6 d33d
0.19338751 0.09046234 0.007345006 0.0043857708 -0.011435885 -0.006393021 -0.00033321462 0.039605327
0.0021973313 0.04597897 -0.00014931343 0.19066773 -0.0055149826 -0.0016538143 0.0018430876 0.0057487236
0.10346634
