30 weight-optimized multi-task models/model_15.pt (torch_old, 4405 bytes, 14 tensors)

net.0.weight f4 [20, 6]
-0.010938307 -0.03166265 0.07357698 -0.017466214 -0.03344564 0.043061633 0.16213909 0.096720345
0.0718534 0.06060964 0.027853511 0.06457382 0.15490937 -0.09640601 -0.04262116 -0.08358649
0.038484994 -0.034550577 -0.10658624 0.03287442 0.07858701 -0.018130796 0.1297428 -0.07664294
0.08765689 0.09962226 0.13541271 0.09664007 0.030940596 0.04749322 0.03238579 0.08648843
-0.0962526 0.0755215 0.08008178 0.067574225 0.033600785 0.04753267 0.054806456 -0.01501257
0.09740447 -0.007826338 -0.017484106 -0.030920144 -0.20975634 -0.11922208 0.0067557106 -0.057019826
0.02712514 -0.2849094 0.07524875 0.17384435 0.09726597 0.037261285 -0.19723487 -0.04570266
-0.09391626 0.038745224 -0.06616448 0.06645631 -0.09532836 0.11378628 -0.08294362 -0.013216933
-0.012212954 -0.030150669 0.19451116 0.002948064 -0.23032223 -0.0074203685 0.010189738 0.054090448
-0.1203815 0.14873509 0.10707182 -0.1645549 -0.06673905 -0.008848188 0.05994186 -0.018752025
0.0057664383 0.010789118 0.051722944 0.0020821246 -0.031053057 0.012951496 0.041931346 0.051222585
-0.19950132 0.018913195 -0.070023604 -0.0908717 0.014288348 0.04939134 0.014621485 -0.093945816
0.07494181 -0.026267504 0.010830116 -0.015865145 -0.11010618 -0.10482979 -0.16118509 0.051921204
-0.20148289 -0.047839336 -0.012751904 -0.049338017 0.06276639 0.15843047 0.1403769 -0.055400196
0.0017883593 -0.0059679328 0.11049847 -0.014455911 0.09149784 0.10382623 0.013669137 -0.045977287
00000000: 9636 33bc b2b0 01bd 87af 963d 4e15 8fbc
00000010: 4cfe 08bd 6561 303d ca07 263e 5115 c63d
00000020: e027 933d d041 783d 0c2d e43c 473f 843d
00000030: 90a0 1e3e 8470 c5bd 8793 2ebd 652f abbd
00000040: 71a2 1d3d e884 0dbd e349 dabd 54a7 063d
00000050: 3af2 a03d 0987 94bc 4cdb 043e f9f6 9cbd
00000060: 7585 b33d c106 cc3d a1a9 0a3e 3beb c53d
00000070: 2277 fd3c 4088 423d f6a6 043d d920 b13d
00000080: 1520 c5bd 04ab 9a3d eb01 a43d 5b64 8a3d
00000090: faa0 093d 9eb1 423d bc7c 603d 48f7 75bc
000000a0: ff7b c73d 0a3a 00bc d43a 8fbc 3e4c fdbc
000000b0: 5eca 56be b52a f4bd 025f dd3b 9f8d 69bd
000000c0: 8b35 de3c a5df 91be 041c 9a3d 4104 323e
000000d0: 6233 c73d 4a9f 183d f0f7 49be b632 3bbd
000000e0: 2b57 c0bd 50b3 1e3d 3e81 87bd 3f1a 883d
000000f0: 843b c3bd c808 e93d 58de a9bd d68b 58bc
00000100: d818 48bc 89fe f6bc ef2d 473e 4e34 413b
00000110: 97d9 6bbe 9026 f3bb dcf2 263c f28d 5d3d
00000120: 938a f6bd 034e 183e 7848 db3d 1481 28be
00000130: 7cae 88bd fef7 10bc 9985 753d d99d 99bc
00000140: 64f4 bc3b d7c4 303c 70db 533d 4174 083b
00000150: fb62 febc 8332 543c 34c0 2b3d c6ce 513d
00000160: 134a 4cbe d8ef 9a3c 8968 8fbd f11a babd
00000170: ad19 6a3c 934e 4a3d f48e 6f3c aa66 c0bd
00000180: 177b 993d f32e d7bc cd70 313c 9ff7 81bc
00000190: 597f e1bd 00b1 d6bd b40d 25be 54ab 543d
000001a0: 8851 4ebe 2ef3 43bd 5ded 50bc a916 4abd
000001b0: aa8b 803d 993b 223e f6be 0f3e 51eb 62bd
000001c0: 6167 ea3a a68e c3bb 064d e23d 7cd8 6cbc
000001d0: 3863 bb3d d9a2 d43d 84f4 5f3c ae52 3cbd

net.0.bias f4 [20]
-4.381829e-08 3.6439232e-08 5.7464597e-08 -1.845152e-07 -6.652791e-08 -5.7277937e-08 -4.3970143e-08 1.4219482e-07
-2.765678e-07 2.0298835e-08 -1.4127931e-08 6.732186e-08 3.3686604e-08 -2.4892685e-08 -3.5145945e-08 -2.8510286e-07
-7.209976e-07 -1.2539424e-08 1.7386087e-08 -2.7920768e-07
00000000: b832 3cb3 5c81 1c33 fece 7633 271f 46b4
00000010: 1bde 8eb3 c201 76b3 afd9 3cb3 37ae 1834
00000020: 307b 94b4 9c5d ae32 4cb7 72b2 9592 9033
00000030: d0ae 1033 98d3 d5b2 60f3 16b3 3d10 99b4
00000040: 948a 41b5 f86c 57b2 6958 9532 03e6 95b4

net.1.weight f4 [20]
0.14512049 0.16826667 0.32562673 0.15664327 0.16061062 0.18885656 0.09282449 0.22478993
0.21633185 0.25082844 0.25150225 0.22804116 0.2211357 0.109077044 0.26854557 0.14637998
0.22122948 0.2852586 0.11146427 0.14348544
00000000: 779a 143e 194e 2c3e 8cb8 a63e 1867 203e
00000010: 1c77 243e 9d63 413e c41a be3d 552f 663e
00000020: 1986 5d3e 966c 803e e7c4 803e 9f83 693e
00000030: 6671 623e c963 df3d ce7e 893e a2e4 153e
00000040: fb89 623e 6a0d 923e 6147 e43d d9ed 123e

net.1.bias f4 [20]
0.022897957 -0.058213 -0.004698717 0.021233564 -0.08686205 0.07715975 -0.016602734 -0.097412355
0.08238337 0.04839171 0.0127640385 0.00883277 0.12168992 -0.031068088 0.09701317 -0.044468977
-0.12045363 -0.13268395 0.009855389 0.021943934
00000000: 7f94 bb3c c170 6ebd b2f7 99bb 03f2 ad3c
00000010: bbe4 b1bd ee05 9e3d 7502 88bc 2180 c7bd
00000020: 9db8 a83d 6336 463d 4220 513c 53b7 103c
00000030: 9138 f93d 8182 febc d7ae c63d 1a25 36bd
00000040: 65b0 f6bd 4dde 07be 7f78 213c c4c3 b33c

net.1.running_mean f4 [20]
0.0011860078 -0.0059442916 0.011823312 0.009448376 -0.005216653 -0.012404998 0.004185166 0.0029270747
0.0087523665 -0.011409355 -0.0072407033 -0.008834904 0.0017452802 0.0026627523 -0.008742834 0.007915466
0.006432439 -0.0066670575 0.0013912859 0.003738499
00000000: d173 9b3a 55c8 c2bb 91b6 413c 5ccd 1a3c
00000010: 75f0 aabb 553e 4bbc b823 893b 2ad4 3f3b
00000020: 1666 0f3c 4eee 3abc 6c43 edbb 46c0 10bc
00000030: e3c1 e43a 9281 2e3b 1b3e 0fbc dfaf 013c
00000040: 36c7 d23b 5577 dabb cf5b b63a 9b01 753b

net.1.running_var f4 [20]
0.010753366 0.027454505 0.08263265 0.022441082 0.025402758 0.06678102 0.014480448 0.032231405
0.05100497 0.06931111 0.049318302 0.07400987 0.044717427 0.0100072175 0.05379981 0.012821953
0.038530856 0.08630358 0.018442549 0.017650064
00000000: e32e 303c 45e8 e03c 4f3b a93d 5cd6 b73c
00000010: 7219 d03c 7dc4 883d 673f 6d3c 1405 043d
00000020: 96ea 503d fcf2 8d3d fd01 4a3d 7d92 973d
00000030: 9f29 373d 50f5 233c 315d 5c3d 2b13 523c
00000040: 88d2 1d3d eebf b03d d414 973c de96 903c

net.3.weight f4 [6, 20]
0.08808564 0.019911785 -0.12753657 -0.016547432 -0.04522925 0.03597096 0.0033980694 -0.013299278
-0.03079788 0.037028354 -3.1422758e-06 0.040181696 -0.06054325 0.055770863 -0.030938014 0.05336675
0.07488725 0.18118739 -0.052309018 0.00047056115 0.023687214 -0.051702466 0.15915985 0.03165392
-0.03659334 0.018391836 0.023027541 0.0008014214 -0.03182271 0.087672025 -0.13062112 -0.07686331
0.18473564 0.065722525 0.07869929 0.04174638 0.07219089 -0.08434806 -0.028472804 -0.092753336
0.07592279 0.017550565 -0.10784425 0.084319435 -0.053013023 0.0816716 0.025223956 -0.01802385
-0.062843464 0.17592266 0.019337203 0.04117461 -0.1408458 0.05137709 0.017571453 0.07752336
0.051642884 0.17844005 -0.018163485 -0.0053230627 0.0035960665 0.008020069 0.00862385 0.0040736883
-0.019369032 -0.05243202 0.10367119 0.042527035 0.111794986 0.019374406 -0.004689534 0.013066649
-0.025148934 0.06448003 -0.070461094 0.0025563848 -0.08352057 -0.0019576515 0.033170328 0.02888992
0.063278385 0.0047365883 0.16568257 -0.068402566 0.02737475 -0.04655232 0.043155394 0.07254308
0.0650782 0.009985972 0.06304692 0.012989256 0.0015911851 -0.0015114206 -0.07710801 -0.022687774
-0.07674689 0.046531167 0.019916978 0.036965445 0.034810267 0.12487105 0.065631434 -0.12317231
0.06765771 -0.022634376 -0.009523795 0.1367117 0.054288562 0.05604481 0.09596127 0.18133967
-0.043526236 -0.015129693 -0.08115535 -0.0747843 -0.09265094 0.041170422 0.07660409 0.095402405
00000000: 3e66 b43d 0a1e a33c f298 02be 7b8e 87bc
00000010: 4e42 39bd 4956 133d 25b2 5e3b 37e5 59bc
00000020: d64b fcbc 0bab 173d e3df 52b6 9095 243d
00000030: 33fc 77bd fd6f 643d b871 fdbc 1897 5a3d
00000040: 7d5e 993d 3089 393e fb41 56bd a6b5 f639
00000050: b00b c23c f7c5 53bd cdfa 223e 8aa7 013d
00000060: e6e2 15bd 7aaa 963c 41a4 bc3c 7b16 523a
00000070: 8858 02bd 648d b33d 8bc1 05be 836a 9dbd
00000080: 572b 3d3e 8899 863d 182d a13d 41fe 2a3d
00000090: d1d8 933d adbe acbd cc3f e9bc 76f5 bdbd
000000a0: 687d 9b3d 34c6 8f3c 72dd dcbd abaf ac3d
000000b0: 2f24 59bd 7143 a73d 78a2 ce3c c1a6 93bc
000000c0: 13b4 80bd 1225 343e 0e69 9e3c b5a6 283d
000000d0: e239 10be c970 523d 02f2 8f3c 91c4 9e3d
000000e0: 7d87 533d fdb8 363e 97cb 94bc 166d aebb
000000f0: fcab 6b3b 9c66 033c 0c4b 0d3c 937c 853b
00000100: ceab 9ebc f5c2 56bd 9051 d43d d430 2e3d
00000110: c5f4 e43d 13b7 9e3c aaaa 99bb 8015 563c
00000120: 2305 cebc 1b0e 843d e84d 90bd 0589 273b
00000130: d50c abbd f14b 00bb 9cdd 073d 8eaa ec3c
00000140: 1998 813d 6235 9b3b b1a8 293e a516 8cbd
00000150: 0341 e03c a5ad 3ebd b6c3 303d 7791 943d
00000160: b847 853d 349c 233c be1e 813d e3d0 543c
00000170: 508f d03a dc1a c6ba ceea 9dbd b6db b9bc
00000180: 792d 9dbd 7797 3e3d ee28 a33c 1469 173d
00000190: 3695 0e3d 65bc ff3d c669 863d c441 fcbd
000001a0: 2090 8a3d ba6b b9bc b109 1cbc 27fe 0b3e
000001b0: af5d 5e3d 3e8f 653d 5887 c43d 1bb1 393e
000001c0: 9148 32bd 88e2 77bc c734 a6bd 8328 99bd
000001d0: c7bf bdbd 51a2 283d 9be2 9c3d 5662 c33d

net.3.bias f4 [6]
1.40223965e-05 -7.262161e-07 -5.4829225e-06 -8.6035635e-07 2.0937621e-07 -1.8789794e-06
00000000: bc41 6b37 31f1 42b5 f2f9 b7b6 3df3 66b5
00000010: e5d0 6034 3e31 fcb5

net.4.weight f4 [6]
0.8627245 0.74695355 0.9174716 0.6773695 0.92331284 1.0351278
00000000: 83db 5c3f 5938 3f3f 6bdf 6a3f 1668 2d3f
00000010: 3b5e 6c3f 117f 843f

net.4.bias f4 [6]
0.4475327 0.30792433 0.49431992 0.2245164 0.4151359 0.3660957
00000000: 0223 e53e 42a8 9d3e 8017 fd3e a1e7 653e
00000010: b18c d43e e570 bb3e

net.4.running_mean f4 [6]
-0.004103027 0.046528023 0.022107432 0.006083271 0.03179622 0.042786658
00000000: af72 86bb 2b94 3e3d a51a b53c 2d56 c73b
00000010: c13c 023d 1041 2f3d

net.4.running_var f4 [6]
0.0016071693 0.0024337 0.005406776 0.0015591533 0.0023756851 0.003947956
00000000: a7a7 d23a b67e 1f3b 532b b13b 815c cc3a
00000010: 62b1 1b3b db5d 813b

net.6.weight f4 [17, 6]
-0.26597372 -0.31743148 -0.43324083 0.29275945 0.24199563 0.3289738 -0.23919126 -0.3572529
-0.40788615 0.07159596 0.4047575 0.325371 -0.22140841 -0.08839209 -0.24165277 0.15230112
0.24613583 0.21512532 -0.19045551 -0.052228536 -0.20578125 0.1309407 0.20656084 0.16774502
-0.14143851 -0.11576309 -0.14976339 0.114182495 0.18248937 0.1929232 -0.22261123 -0.1203194
-0.23854436 0.16037054 0.26124996 0.2455985 -0.10268046 -0.024807816 -0.11129106 0.07249441
0.115963586 0.092536956 -0.2671283 -0.29552114 -0.3169044 0.1888324 0.2788256 0.38601488
-0.050879993 -0.008816262 -0.055489965 0.035031036 0.055320725 0.04136317 -0.2933252 -0.2525971
-0.30652755 0.18173999 0.3111341 0.3379956 -0.23321536 -0.16379763 -0.258182 0.17374349
0.28031215 0.2772891 -0.34559366 -0.08865606 -0.33538637 0.36425447 0.23515326 0.14449996
-0.2221493 -0.13148358 -0.23974262 0.15927881 0.2626308 0.25097793 -0.09167344 -0.028129917
-0.09929753 0.06769638 0.10923132 0.09088044 -0.05272698 -0.009881612 -0.057331067 0.036713034
0.05867063 0.044398293 -0.1826826 -0.03906235 -0.1986542 0.124041624 0.19333111 0.14974606
-0.36298645 -0.1926076 -0.29107103 0.14039116 0.29778028 0.33446246
00000000: b52d 88be 6186 a2be bed1 ddbe 91e4 953e
00000010: b4cd 773e 416f a83e 8eee 74be dae9 b6be
00000020: 74d6 d0be e7a0 923d 603c cf3e 0797 a63e
00000030: e3b8 62be e906 b5bd d373 77be d3f4 1b3e
00000040: 080b 7c3e d049 5c3e c506 43be 97ed 55bd
00000050: 52b8 52be 5215 063e af84 533e 5ac5 2b3e
00000060: 42d5 10be 3315 edbd 935b 19be 83d8 e93d
00000070: 7ede 3a3e a98d 453e 33f4 63be 056a f6bd
00000080: f944 74be 2d38 243e 8ec2 853e 2c7e 7b3e
00000090: 224a d2bd c339 cbbc 91ec e3bd f377 943d
000000a0: 517e ed3d 0484 bd3d 0ac5 88be 8c4e 97be
000000b0: 4b41 a2be 485d 413e 3bc2 8e3e bea3 c53e
000000c0: 8a67 50bd 1572 10bc 7249 63bd b47c 0f3d
000000d0: fc97 623d 6d6c 293d b82e 96be 6854 81be
000000e0: 2ef1 9cbe 0c1a 3a3e f84c 9f3e c20d ad3e
000000f0: 02d0 6ebe 91ba 27be 6e30 84be d0e9 313e
00000100: 1385 8f3e d6f8 8d3e a7f1 b0be 4f91 b5bd
00000110: c3b7 abbe 907f ba3e 04cc 703e ccf7 133e
00000120: 1b7b 63be a2a3 06be 177f 75be fc19 233e
00000130: 8b77 863e 2e80 803e 49bf bbbd b670 e6bc
00000140: 815c cbbd 66a4 8a3d acb4 df3d 861f ba3d
00000150: 3ff8 57bd 7ce6 21bc fbd3 6abd 6860 163d
00000160: 9d50 703d fcda 353d 2611 3bbe d8ff 1fbd
00000170: 026c 4bbe 8909 fe3d 97f8 453e 0857 193e
00000180: 5cd9 b9be ed3a 45be 4307 95be b3c2 0f3e
00000190: a876 983e aa3e ab3e

net.6.bias f4 [17]
0.10468444 0.08176373 -0.015700778 -0.011314669 -0.028405935 -0.026933359 -0.0052886005 0.008538453
-0.0019839676 0.005581314 -0.031333238 0.09357655 -0.026082134 -0.005453181 -0.001795672 -0.009243384
0.0295058
00000000: cc64 d63d be73 a73d eb9e 80bc 2961 39bc
00000010: 90b3 e8bc 59a3 dcbc ff4b adbb dee4 0b3c
00000020: 7405 02bb 75e3 b63b 4857 00bd 10a5 bf3d
00000030: 33aa d5bc 99b0 b2bb c15c ebba 9071 17bc
00000040: 26b6 f13c
