30 weight-optimized multi-task models/model_0.pt (torch_old, 4405 bytes, 14 tensors)

net.0.weight f4 [20, 6]
-0.10807459 0.01012342 0.04841053 -0.011303489 0.13462566 -0.0025590132 0.014746571 -0.036762197
0.05327919 -0.0064705447 -0.21305487 0.15609461 0.08861933 0.029510656 0.15147145 0.18156846
0.058336146 0.10530078 0.023195757 -0.00029235904 0.019773662 0.02169081 0.041992396 -0.019807167
0.12875229 0.15589797 -0.12526913 -0.19814678 -0.02717147 -0.06720249 -0.004138247 0.09113399
0.009288175 0.0916582 0.07671033 0.0489837 0.14993024 -0.05147202 0.14766866 0.15262519
0.004723337 -0.024825765 -0.17468938 -0.12762173 -0.090379074 -0.019811356 0.06280341 -0.084804684
-0.037736516 0.01233695 0.033898998 0.0080627585 -0.13601096 -0.04284064 -0.019260488 0.06286397
0.070216514 -0.051030785 0.0959797 -0.095534086 0.025036866 0.008064362 0.04334706 -0.03853472
0.08117287 0.06718611 0.02702445 -0.25431964 0.012613971 -0.0075896294 0.12184533 0.037236214
-0.05364184 0.030479042 -0.13481355 0.009653791 -0.15587811 0.023608131 -0.1494274 0.013169357
0.04875016 -0.07944828 -0.10188437 -0.027400596 0.106318265 -0.08716666 -0.051162235 0.012993201
0.018255463 0.01441153 0.18456738 -0.02990897 -0.09342875 0.09671662 0.024199428 0.11944851
0.030026793 -0.09478854 0.0015688796 -0.0037611255 0.040554147 0.11054817 0.014690448 -0.052478123
0.12078343 -0.07326819 -0.0744293 0.07415056 -0.103544965 -0.17930996 -0.16557208 -0.028998885
-0.058102068 0.05512804 0.056334037 0.057845965 -0.16377397 -0.063852526 0.0071521173 -0.04822162
00000000: 3656 ddbd b3dc 253c 1f4a 463d 4532 39bc
00000010: 4fdb 093e 1eb5 27bb 9a9b 713c f593 16bd
00000020: 483b 5a3d dd06 d4bb 0e2b 5abe 44d7 1f3e
00000030: 0d7e b53d 55c0 f13c 551b 1b3e 15ed 393e
00000040: e2f1 6e3d efa7 d73d 0705 be3c c447 99b9
00000050: 60fc a13c edb0 b13c 3800 2c3d a442 a2bc
00000060: a4d7 033e b8a3 1f3e 8d46 00be fde6 4abe
00000070: b496 debc 76a1 89bd 229a 87bb 75a4 ba3d
00000080: 6e2d 183c 4bb7 bb3d 4e1a 9d3d 22a3 483d
00000090: 5087 193e 53d4 52bd 7436 173e c749 1c3e
000000a0: 39c6 9a3b 675f cbbc c6e1 32be 45af 02be
000000b0: aa18 b9bd 6d4b a2bc 139f 803d 14ae adbd
000000c0: 9b91 1abd eb20 4a3c add9 0a3d a919 043c
000000d0: 7546 0bbe ab79 2fbd 2cc8 9dbc d3be 803d
000000e0: adcd 8f3d a805 51bd 0191 c43d 60a7 c3bd
000000f0: 1d1a cd3c 6320 043c b08c 313d 95d6 1dbd
00000100: f63d a63d df98 893d 6162 dd3c 2f36 82be
00000110: d4aa 4e3c 6db2 f8bb 0b8a f93d 0085 183d
00000120: 8cb7 5bbd 2faf f93c 900c 0abe ef2a 1e3c
00000130: 839e 1fbe d765 c13c 7f03 19be 49c4 573c
00000140: 3fae 473d c8b5 a2bd c1a8 d0bd 3777 e0bc
00000150: 64bd d93d 6f84 b2bd 7e8f 51bd 6fe1 543c
00000160: 7b8c 953c 571e 6c3c 3bff 3c3e a803 f5bc
00000170: 9357 bfbd 5d13 c63d e13d c63c 6ca1 f43d
00000180: c0fa f53c 7e20 c2bd dda2 cd3a 377d 76bb
00000190: 1b1c 263d 1467 e23d 34b0 703c 4df3 56bd
000001a0: 4e5d f73d a20d 96bd 646e 98bd 40dc 973d
000001b0: 620f d4bd 089d 37be ba8b 29be 128f edbc
000001c0: 6ffc 6dbd f1cd 613d 85be 663d e4ef 6c3d
000001d0: 5db4 27be 1dc5 82bd 4f5c ea3b 0984 45bd

net.0.bias f4 [20]
7.4377404e-08 -4.7200248e-07 1.12513206e-07 5.4455302e-09 -3.5895706e-08 -1.4261023e-07 -4.2866986e-08 -5.561122e-08
-7.886475e-09 4.3480433e-08 -1.8326551e-07 -1.386122e-06 -2.5320533e-08 -2.6600588e-07 5.541968e-08 1.2482668e-07
-6.0725798e-09 -7.8898736e-08 1.0939061e-09 5.392814e-08
00000000: 69b9 9f33 8767 fdb4 ca9e f133 641b bb31
00000010: bf2b 1ab3 6720 19b4 c01c 38b3 2fd9 6eb3
00000020: 157d 07b2 3ebf 3a33 a4c7 44b4 ca0a bab5
00000030: 7180 d9b2 92cf 8eb4 9506 6e33 1908 0634
00000040: faa6 d0b1 0a6f a9b3 6658 9630 9e9e 6733

net.1.weight f4 [20]
0.117729016 0.14784586 0.21043576 0.05418021 0.17781323 0.14473517 0.18659052 0.13391252
0.124074526 0.13822944 0.121377796 0.27227372 0.20370442 0.15568595 0.20677948 0.20756346
0.08194715 0.13653472 0.18106076 0.15492286
00000000: e91b f13d e864 173e 797c 573e 11ec 5d3d
00000010: ac14 363e 7535 143e 9611 3f3e 5d20 093e
00000020: c91a fe3d 058c 0d3e ec94 f83d 7667 8b3e
00000030: e497 503e 236c 1f3e 00be 533e 848b 543e
00000040: e8d3 a73d c2cf 0b3e fe67 393e 19a4 1e3e

net.1.bias f4 [20]
-0.07196073 0.05141627 -0.025304517 -0.019144913 -0.0034028033 0.062345967 -0.047610626 0.061208684
0.021636896 -5.251886e-05 -0.0045700637 0.0074507245 -0.032133583 0.07079701 -0.12733285 0.041186344
0.007073247 0.04033568 -0.053300288 0.08270807
00000000: 2660 93bd de99 523d 6b4b cfbc cbd5 9cbc
00000010: 9101 5fbb 7c5e 7f3d 5c03 43bd f5b5 7a3d
00000020: dc3f b13c b247 5cb8 79c0 95bb 3525 f43b
00000030: 819e 03bd 06fe 903d 8b63 02be 03b3 283d
00000040: b2c6 e73b 0737 253d 6751 5abd d962 a93d

net.1.running_mean f4 [20]
-0.00056036323 -0.003462497 -0.006267575 0.0022191002 0.0045229676 -0.013457351 0.008370659 0.002691855
-0.003282821 0.0059671123 0.004645449 0.023262959 -0.0155903725 -0.002124399 0.008995706 -0.002611173
0.0061396346 0.011045875 0.00056535413 -0.0024390281
00000000: 57e5 12ba 0feb 62bb 3b60 cdbb 536e 113b
00000010: 6735 943b 397c 5cbc 1725 093c d569 303b
00000020: 9924 57bb c487 c33b da38 983b f691 be3c
00000030: c36e 7fbc 8039 0bbb ba62 133c 3720 2bbb
00000040: fd2e c93b c2f9 343c 4634 143a 1ad8 1fbb

net.1.running_var f4 [20]
0.015976347 0.0572486 0.04823808 0.0036660882 0.023163382 0.04761117 0.038331456 0.021096744
0.03736485 0.019669572 0.020313218 0.09940199 0.07067482 0.05235791 0.028954849 0.06542617
0.026071724 0.047195204 0.030468207 0.018922769
00000000: d4e0 823c 827d 6a3d 4b95 453d c142 703b
00000010: 22c1 bd3c ee03 433d 7201 1d3d 14d3 ac3c
00000020: e30b 193d 1522 a13c e867 a63c 4593 cb3d
00000030: f6bd 903d 3f75 563d b832 ed3c 28fe 853d
00000040: 5e94 d53c c24f 413d 7698 f93c ec03 9b3c

net.3.weight f4 [6, 20]
-0.09399285 -0.009781896 0.018499048 -0.016262894 -0.025882944 -0.04850052 0.048184585 0.018014556
-0.10643787 -0.06674533 -0.069396146 0.12168491 -0.03675025 0.0059922826 0.16922642 -0.0033236663
0.084405884 -0.020521076 0.03613804 0.050279878 -0.090098284 -0.090399526 0.05453362 0.043834075
-0.047527004 -0.068823874 0.12873761 0.00897645 -0.0016142784 0.023828663 0.07670688 0.09328889
-0.028906172 -0.09532503 0.005325015 -0.03536542 0.01860644 -0.084322065 0.07756101 -0.018958189
-0.030794399 -0.06499519 0.040207542 -0.018514952 0.022025913 -0.035457622 0.068858616 -0.0068052514
-0.034236506 -0.114107996 -0.011422543 0.034869768 0.069923446 -0.08817284 -0.14480986 0.18576689
-0.018667063 0.0484289 0.05917414 0.04927473 -0.0395638 0.04378609 -0.048755202 -0.010853059
-0.05369802 0.059291024 0.05385465 -0.035383575 0.025301956 -0.06093033 0.00871892 -0.097388975
-0.0031887495 -0.0008979304 -0.011778858 -0.00017014553 -0.024392692 0.07687452 -0.061648585 0.12462641
-0.016018705 0.06283741 -0.1037692 0.027009046 -0.1646306 0.06893897 -0.023831088 0.1102708
0.022757504 -0.00801371 0.09286371 -0.17615765 0.15211199 -0.077575624 -0.019340621 0.102289334
0.049791228 0.06564089 -0.021863382 0.12011062 0.018397886 0.027674396 0.025186231 0.024581483
-0.011996853 0.003947352 -0.02743935 0.06494038 0.069456205 0.030714871 -0.02612494 0.035028122
-0.035708185 0.09371751 0.13869064 -0.030983469 -0.004941268 -0.02094393 -0.03891323 -0.040626895
00000000: 537f c0bd 3f44 20bc 518b 973c c339 85bc
00000010: 7808 d4bc 7ba8 46bd 335d 453d 4393 933c
00000020: 19fc d9bd c7b1 88bd 911f 8ebd f035 f93d
00000030: 6e87 16bd e95a c43b b149 2d3e ded1 59bb
00000040: fedc ac3d d11b a8bc 7b05 143d 46f2 4d3d
00000050: 7385 b8bd 6323 b9bd a55e 5f3d 5c8b 333d
00000060: adab 42bd 88f3 8cbd cbd3 033e f611 133c
00000070: 3296 d3ba 5434 c33c 7f18 9d3d 3f0e bf3d
00000080: a3cc ecbc c539 c3bd 777d ae3b 55db 10bd
00000090: 886c 983c 0cb1 acbd 4fd8 9e3d 344e 9bbc
000000a0: 8944 fcbc 331c 85bd aab0 243d abac 97bc
000000b0: b06f b43c 033c 11bd bf05 8d3d 96fe debb
000000c0: 943b 0cbd 74b1 e9bd 9e25 3bbc 9ad3 0e3d
000000d0: 0634 8f3d f693 b4bd 0949 14be ad39 3e3e
000000e0: abeb 98bc 625d 463d 9560 723d 4dd4 493d
000000f0: a70d 22bd 0b59 333d 89b3 47bd 07d1 31bc
00000100: 74f2 5bbd 25db 723d b296 5c3d 5eee 10bd
00000110: 0c46 cf3c 1592 79bd cdd9 0e3c df73 c7bd
00000120: 57fa 50bb 1763 6bba 1cfc 40bc 1869 32b9
00000130: 2fd3 c7bc 6370 9d3d 3a83 7cbd 223c ff3d
00000140: a939 83bc e6b0 803d f284 d4bd 1342 dd3c
00000150: ed94 28be e02f 8d3d 6a39 c3bc a8d5 e13d
00000160: f26d ba3c f04b 03bc 542f be3d ac62 34be
00000170: 3fc3 1b3e f8df 9ebd 3970 9ebc 127d d13d
00000180: e3f1 4b3d bb6e 863d d61a b3bc 8ffc f53d
00000190: 2ab7 963c 6ab5 e23c 5b53 ce3c 1b5f c93c
000001a0: 738e 44bc ca58 813b 7dc8 e0bc 76ff 843d
000001b0: 0e3f 8e3d c19d fb3c f803 d6bc a679 0f3d
000001c0: bf42 12bd f7ee bf3d eb04 0e3e 0bd1 fdbc
000001d0: 5cea a1bb 9b92 abbc 7b63 1fbd 6368 26bd

net.3.bias f4 [6]
-6.2756994e-06 6.062832e-06 3.3371048e-06 -1.3355201e-06 5.0415778e-08 -3.5536266e-06
00000000: d993 d2b6 556f cb36 06f3 5f36 1f40 b3b5
00000010: bc88 5833 d77a 6eb6

net.4.weight f4 [6]
0.97440195 0.90418947 0.91327035 0.5833371 1.0653347 0.4959295
00000000: 6872 793f f678 673f 16cc 693f 9555 153f
00000010: e35c 883f 79ea fd3e

net.4.bias f4 [6]
0.38165042 0.37333706 0.42654654 0.26412567 0.55518395 0.31951228
00000000: af67 c33e 0926 bf3e 4f64 da3e 7b3b 873e
00000010: 8920 0e3f 1d97 a33e

net.4.running_mean f4 [6]
0.012727685 -0.011019786 0.015396993 0.0033061102 0.017647605 0.018705502
00000000: c887 503c 558c 34bc ab43 7c3c 53ab 583b
00000010: b691 903c 483c 993c

net.4.running_var f4 [6]
0.0017699364 0.0011742376 0.0014200873 0.00039283631 0.0023624012 0.00032122203
00000000: 36fd e73a e0e8 993a 3922 ba3a 99f5 cd39
00000010: 84d2 1a3b b169 a839

net.6.weight f4 [17, 6]
0.3339928 0.29261634 0.34215716 -0.106967434 -0.44722039 -0.16420533 0.3828445 0.20562133
0.34899664 -0.039076574 -0.45130196 -0.27866203 0.25201648 0.21111967 0.18244444 -0.112897605
-0.3004194 -0.100851946 0.21001305 0.17975007 0.12986787 -0.10668876 -0.24805835 -0.060720813
0.19717325 0.15817933 0.18880087 -0.079317726 -0.18679297 -0.12158686 0.26963288 0.21387577
0.21037233 -0.12019178 -0.29380625 -0.12221377 0.12242206 0.1020754 0.07591865 -0.05496461
-0.12943107 -0.031439826 0.3402753 0.23023915 0.35091287 -0.084627084 -0.37926424 -0.2693278
0.05796843 0.04912978 0.034046322 -0.026142707 -0.061938338 -0.011194731 0.31102997 0.26793763
0.32144484 -0.08753 -0.40309253 -0.23046918 0.29282093 0.22582869 0.24313559 -0.113565475
-0.3232057 -0.1574373 0.23920971 0.36474985 0.12496742 -0.5154559 -0.3557288 0.0940224
0.27600428 0.21641266 0.21602108 -0.117442265 -0.30037025 -0.13177697 0.116606124 0.09464871
0.07562047 -0.04875416 -0.117157966 -0.032376595 0.0612461 0.051407848 0.036438152 -0.027364738
-0.064803325 -0.013040589 0.19665581 0.17034225 0.117064215 -0.102112584 -0.23338602 -0.04885845
0.27518916 0.30481097 0.2731382 -0.16726702 -0.41366124 -0.1224958
00000000: 1b01 ab3e cfd1 953e 392f af3e be11 dbbd
00000010: 12fa e4be 7125 28be 3204 c43e 668e 523e
00000020: b0af b23e c20e 20bd 0d11 e7be caac 8ebe
00000030: 4e08 813e c12f 583e b7d2 3a3e dc36 e7bd
00000040: 92d0 99be 778b cebd a90d 573e 6710 383e
00000050: 15fc 043e a37f dabd 0203 7ebe 63b6 78bd
00000060: c9e7 493e c3f9 213e 0455 413e 5571 a2bd
00000070: a846 3fbe 8802 f9bd 520d 8a3e 4002 5b3e
00000080: d86b 573e 1c27 f6bd c66d 96be 374b fabd
00000090: 6bb8 fa3d e80c d13d 3d7b 9b3d 9222 61bd
000000a0: 9489 04be 0cc7 00bd 9038 ae3e d0c3 6b3e
000000b0: daaa b33e f750 adbd ec2e c2be 55e5 89be
000000c0: 4e70 6d3d 4f3c 493d 2874 0b3d 3b29 d6bc
000000d0: 0eb3 7dbd 1b6a 37bc 523f 9f3e 1f2f 893e
000000e0: 6b94 a43e ee42 b3bd 2562 cebe 1d00 6cbe
000000f0: a0ec 953e a33f 673e 89f8 783e 0495 e8bd
00000100: 387b a5be 3e37 21be 64f3 743e 7ec0 ba3e
00000110: ebee ff3d ebf4 03bf 1622 b6be d18e c03d
00000120: 6f50 8d3e 489b 5d3e a134 5d3e 9285 f0bd
00000130: 21ca 99be 8bf0 06be 31cf ee3d 2fd7 c13d
00000140: e8de 9a3d 71b2 47bd 84f0 efbd 529d 04bd
00000150: 31dd 7a3d 0991 523d 2c40 153d 042c e0bc
00000160: 9bb7 84bd 32a8 55bc 2460 493e 336e 2e3e
00000170: 5dbf ef3d 6720 d1bd bffc 6ebe cc1f 48bd
00000180: 98e5 8c3e 2f10 9c3e c5d8 8b3e 0c48 2bbe
00000190: 68cb d3be 14df fabd

net.6.bias f4 [17]
-0.13027583 -0.07844979 -0.040008564 -0.027497701 -0.048113994 -0.058886647 -0.009744371 -0.104619294
-0.0023620557 -0.0882137 -0.06584555 0.00769055 -0.058247432 -0.009409252 -0.0028886443 -0.018996583
-0.09586037
00000000: 0767 05be 49aa a0bd 05e0 23bd dc42 e1bc
00000010: 2e13 45bd 2033 71bd dba6 1fbc a442 d6bd
00000020: b8cc 1abb 62a9 b4bd 08da 86bd 0201 fc3b
00000030: dc94 6ebd 4329 1abc 694f 3dbb b99e 9bbc
00000040: 7152 c4bd
