30 weight-optimized multi-task models/model_18.pt (torch_old, 4405 bytes, 14 tensors)

net.0.weight f4 [20, 6]
00000000: 5aa6 2b3a 36b5 2bba e5e5 dcb7 88b2 79b9
00000010: 6bbd 353a 3e08 49ba 7ebf d8bc 8a05 913c
00000020: 8a4b a0bc ba34 ab3d b29a 563c 2f9e 20bd
00000030: aec6 1f3e f337 d13d d44f 343e 464e 163e
00000040: 3939 8f3c bdce cb3d 936c 023e 5e4f c53d
00000050: eca8 12bc 7311 e1bd 00a1 46bd 3f73 dc3d
00000060: 3e18 6dbd c9d0 753d 0e18 adbc 87f1 08be
00000070: 5e57 93bd a1ca 863d 8d08 bc3d 9381 15bc
00000080: 7378 c6bc 08c6 61bc 2740 59be 1829 023e
00000090: 3dd2 b53d ace3 98be 3891 0b3d a249 253e
000000a0: 10ff 873d b816 bf3a 284c acbb a996 d13d
000000b0: c557 4e3d 4fec 6abd ab30 bbbd 6587 c4bd
000000c0: a3ea 29bd d767 573d db67 f5bc 3438 8c3d
000000d0: 7a96 a33d a52a 163d 6d3d d9bd 3ba2 923d
000000e0: cec2 ad3c ecfc 3fbd f271 b03c 66d8 81bd
000000f0: 90e3 40be c6fb 43be 34ca 4a3d 16be c83d
00000100: 5dc0 f63d 73a5 36be e087 223c 91b6 43bd
00000110: 401a 5e3c 4121 b3bd f5f4 7bbd e39b 98bd
00000120: 46eb 4e3b 625e a7b9 61ea c13a 0da8 02bb
00000130: 97d5 15b9 da4d 6fba 3b7b c63d a6c2 d7bd
00000140: 6eba 9ebc 9ad3 10bd 06ef 6e3d fb7e 793c
00000150: 8216 933d 824e f4bb 3bf2 91bb 1b93 12bd
00000160: f754 54bd 24ee 193d ba46 b6bd 644a 77be
00000170: 72ae e93c 6ed5 1b3e b44b d63d 4bf0 6d3d
00000180: 3844 cdbd dedb fabc b66d 0fbe 7f2b a53d
00000190: 7c69 c7bd d662 2dbc c45d f13d e386 9cbb
000001a0: 58f1 57be eea7 79bd 68ab 3b3c 16c8 60bb
000001b0: f357 053e 1801 ad3c de05 edbc bc6b 26be
000001c0: c271 143d b830 8dbd 9698 f5bc 300c 9d3d
000001d0: 4605 2bbc 7768 20be 56ee 4fbd b4cd 9dbc
0.00065479206 -0.0006550135 -2.6333097e-05 -0.00023812999 0.00069328275 -0.00076687697 -0.026458498 0.017702837
-0.01956727 0.08359666 0.013098406 -0.039213356 0.15603134 0.102157496 0.17608577 0.14678296
0.01748334 0.099515416 0.1273673 0.09634279 -0.008951407 -0.10989656 -0.048493385 0.10764169
-0.057884447 0.060013566 -0.021129634 -0.13373385 -0.07194398 0.06581617 0.091813184 -0.009125131
-0.024227357 -0.0137801245 -0.21215878 0.12710989 0.088779904 -0.298612 0.03407404 0.1614137
0.06640446 0.0014578914 -0.005258102 0.10233814 0.050376672 -0.057354268 -0.09140142 -0.09596137
-0.041483533 0.052589264 -0.029956749 0.068466574 0.079876855 0.036661763 -0.10607419 0.07159849
0.021211054 -0.046872064 0.021538708 -0.06340103 -0.18836808 -0.19139013 0.049509242 0.09801881
0.12048409 -0.17836551 0.00992009 -0.04778153 0.013556063 -0.08746577 -0.061512906 -0.07451608
0.003157334 -0.00031923043 0.0014794582 -0.0019936592 -0.00014289316 -0.0009128727 0.09691473 -0.10535173
-0.019376006 -0.03535805 0.05833342 0.015228028 0.071820274 -0.007455648 -0.004453925 -0.035784822
-0.05183884 0.037580624 -0.08900209 -0.24149472 0.028525565 0.15218136 0.10463658 0.05809049
-0.10022777 -0.030622419 -0.14006695 0.08064937 -0.097369164 -0.010582646 0.117854625 -0.004776822
-0.21088159 -0.060951166 0.011454441 -0.0034298948 0.13021831 0.021118686 -0.028933462 -0.16252035
0.0362413 -0.06894058 -0.029979985 0.0766834 -0.010438269 -0.1566485 -0.050764404 -0.019263126

net.0.bias f4 [20]
00000000: 0b70 ac8f 1fe9 5d32 a58c 5034 33fb bdb3
00000010: 7ea6 6e31 8326 8234 2470 17b5 f2e5 82b3
00000020: 359c 5fb3 1335 07b1 7e53 83b4 96b0 bd34
00000030: fd2c e791 87f9 5cb3 3d18 79b2 f3d8 e9b2
00000040: 6f3c afb2 feb9 5e35 64fb 3c34 0fa5 4433
-1.7003667e-29 1.2916899e-08 1.9422676e-07 -8.846691e-08 3.4728198e-09 2.4242408e-07 -5.641507e-07 -6.0954235e-08
-5.2063303e-08 -1.9675255e-09 -2.44614e-07 3.5332477e-07 -3.64731e-28 -5.1449685e-08 -1.4499219e-08 -2.7223427e-08
-2.0400163e-08 8.29721e-07 1.760032e-07 4.5784926e-08

net.1.weight f4 [20]
00000000: ba24 9ab8 9331 ee3d d2f5 283e 6deb e93d
00000010: 7327 0c3e 588a f83d a3c8 8d3e 2737 243e
00000020: 1a23 c13d 2717 c13d b78a 573e 13a1 fc3d
00000030: 8ad6 5237 1d16 013e 8fe5 8a3d 3efe d23d
00000040: 29a6 5d3e 47c7 2d3e 2991 2a3e c72e 9c3d
-7.350133e-05 0.11630549 0.16500023 0.11421857 0.13686924 0.12135762 0.27692136 0.16036664
0.09430523 0.09428244 0.2104901 0.1233541 1.2566927e-05 0.12606092 0.06782066 0.10302399
0.21645416 0.1697055 0.16656937 0.076261096

net.1.bias f4 [20]
00000000: a8f4 9eba 9a35 17bd e0f4 a4bb f58e 453d
00000010: a4f8 6fbd 61d0 3fbc a481 8abd 6901 29bc
00000020: 9b49 1a3d 4d78 b13c 532f ceb9 4191 62bd
00000030: 22d5 48ba 3c44 b73c e482 8f39 ecca a23d
00000040: ca51 d5bd 5278 17bd 81be 4a3d 54c3 323c
-0.0012127357 -0.036916353 -0.005034074 0.048232038 -0.05858673 -0.011707396 -0.06763008 -0.010315278
0.037667852 0.02166381 -0.0003932664 -0.055314306 -0.0007661154 0.022371404 0.00027372607 0.079488605
-0.10415991 -0.03697998 0.049498085 0.010910828

net.1.running_mean f4 [20]
00000000: 38a5 c6b7 a627 e13b 900a 11bc 11d7 2ebc
00000010: 2a72 51bb 3791 77bc 4280 86bb f8bc e0bb
00000020: 1881 3f3c c3bf b13b 35c4 503c c191 0fbc
00000030: ab08 b4b9 859a a8bb 57e7 ffbb 7313 0d3c
00000040: a0ab 293c 68fe 5f3b 7e88 19bc 5c78 9abb
-2.3680375e-05 0.0068711815 -0.008852616 -0.010671393 -0.0031958916 -0.0151103055 -0.004104645 -0.0068584643
0.011688493 0.005424471 0.012742092 -0.008762778 -0.00034338734 -0.0051453733 -0.0078095603 0.008610594
0.01035586 0.0034178738 -0.009370921 -0.004714055

net.1.running_var f4 [20]
00000000: 9f93 8936 dda0 7e3c 75e7 543d 1e34 c33c
00000010: 1e52 843c 3429 503d 3c99 a63d 538d fd3c
00000020: 04e5 313d e3fe 8f3c 34e2 603d e329 323d
00000030: a58d 2438 ccb2 633d b6ce 2b3c 8d30 a13c
00000040: a5ab 963d 2008 373d f9dd 933d b912 6a3c
4.1001035e-06 0.0155412825 0.051978547 0.023828562 0.016152438 0.050820544 0.08134696 0.030951178
0.043431297 0.017577594 0.054903224 0.043496978 3.9232564e-05 0.055590436 0.010486295 0.019676471
0.07356957 0.044685483 0.07220072 0.01428669

net.3.weight f4 [6, 20]
00000000: 541c daba 3e09 09bd 6fde 82bd a25c ba3d
00000010: e993 883d c5f8 163d d1bb 59be fe5f fd3c
00000020: f7c7 ab3c 81b9 bd3d 2546 71bd d1bd 973d
00000030: d930 d138 ef33 8abc 749c 463d a6de 07be
00000040: 2cae 08be fac2 5bbd 9a85 19bd 07d2 623d
00000050: 8fd9 10b9 9c37 d0bd dd8f 6dbd 1e74 003c
00000060: d0b6 8abc 1f9d 843d 55e1 70bd d5e6 623a
00000070: 872b 84bc 08f8 3a3d 49d9 e13d e295 183c
00000080: 4cd3 a8ba 1fc8 7ebd b9a3 833b 0739 263d
00000090: 6cdf 86bd 99cb 2abd ae59 cfbd f559 003c
000000a0: 8a05 c9b8 42e3 b93d dbf2 10bd 55b5 ae3d
000000b0: bb74 adbd a837 e93c f293 1dbe 086d 5ebd
000000c0: 4f3e b03d 6a4b 6abd 6b43 18bd 292f c03d
000000d0: 69f0 8337 4be6 39bd 8344 1c3d 75ae d9bd
000000e0: 3c61 3d3e 9d00 ecbb 9072 1dbc 677c 55bd
000000f0: 27d8 34ba 0c09 993b afb3 a4bc e276 0dbd
00000100: 1512 023e 7f9b 943d 6a22 523d 50ed a5bd
00000110: d8d0 c83d 934e 893b e71a 2f3d b8fb fdba
00000120: 5fc0 9fbb a226 04be 9075 47bd fec9 f93c
00000130: 2ea6 cb3d eb42 2c3c 3148 43be a1f4 d1bd
00000140: cbed b23a 58df c0bd 44da dcbd d273 a0bd
00000150: 839c 99bd 7564 903c cfc7 a2bd 352a 94bd
00000160: 6257 01bc f3ee 6abd 60ca 033e 1b11 093d
00000170: 5430 a83a 4a97 dbbb 65c0 60bd 0138 6fbc
00000180: 4e5d 5abd e9ec 09be 40f0 473c 684e f63b
00000190: f051 853a a9fc 883c 9cee f5bc 7ae8 a5bd
000001a0: 1b58 ccbc 5191 793d 2c1b b83a 07cf 0a3e
000001b0: 33ce 5fbd 5463 983c 6231 103e e1d9 54bc
000001c0: e39a 553b dec1 493d 6492 58bc 9681 6dbd
000001d0: 57e5 3a3d 5bc7 d6bd dd7f e03c 63b2 89bb
-0.0016640523 -0.03345608 -0.06390082 0.090996996 0.066688366 0.03685834 -0.21263053 0.030929562
0.020969374 0.09263898 -0.058904786 0.074092515 9.974995e-05 -0.016870467 0.04848905 -0.13268527
-0.13347691 -0.05365274 -0.037480928 0.05537608 -0.00013813957 -0.10166857 -0.057998527 0.0078401845
-0.016932875 0.06475281 -0.058808643 0.00086556125 -0.016134037 0.045646697 0.11027772 0.009313079
-0.0012880354 -0.06220257 0.00401732 0.04058173 -0.06585583 -0.041698072 -0.10124527 0.007833947
-9.5854586e-05 0.09076549 -0.035387855 0.0853068 -0.0846953 0.028468922 -0.15388468 -0.0543032
0.086056344 -0.057200827 -0.03717367 0.09383995 1.5728367e-05 -0.04538564 0.038151275 -0.10628978
0.18494123 -0.0072022215 -0.009609833 -0.052120592 -0.0006898664 0.004670268 -0.020105211 -0.034537204
0.1270221 0.07256221 0.05130235 -0.081019044 0.09805459 0.004190275 0.042750265 -0.0019377386
-0.0048752273 -0.12905362 -0.0486961 0.030491825 0.09943806 0.010514001 -0.19070508 -0.102517374
0.001365119 -0.094175994 -0.10783818 -0.07834591 -0.07500555 0.017626027 -0.07948267 -0.07234613
-0.007894369 -0.057356786 0.12870169 0.03346358 0.0012831786 -0.0067013847 -0.05487098 -0.014600755
-0.05331164 -0.1346928 0.012203276 0.007516671 0.0010171514 0.01672204 -0.030021004 -0.08100982
-0.024944356 0.0609296 0.0014046184 0.13555537 -0.054640006 0.01860205 0.14081338 -0.0129913995
0.003259354 0.04925715 -0.013218496 -0.05798491 0.04562887 -0.10487243 0.02740472 -0.0042021736

net.3.bias f4 [6]
00000000: 1164 2837 cd6b d4b5 7aeb 8436 402d adb6
00000010: 3d81 f5b5 8476 8a33
1.0036879e-05 -1.5826605e-06 3.9613196e-06 -5.1610696e-06 -1.8291536e-06 6.4476836e-08

net.4.weight f4 [6]
00000000: 4718 453f c8e0 043f 6ada 713f 527b 593f
00000010: 2659 fe3e 7b34 1c3f
0.7699017 0.5190549 0.944739 0.84953797 0.4967739 0.6101758

net.4.bias f4 [6]
00000000: 690c 1f3f dd31 f03e ea3b 203f 06bc 073f
00000010: c97d e43e 4eb3 be3e
0.6212831 0.46913043 0.6259142 0.53021276 0.44627216 0.37246174

net.4.running_mean f4 [6]
00000000: d64c 09bd 6c42 63bc 29ba 89bc 4cb1 41bc
00000010: 8039 03bd a719 2a3c
-0.033520542 -0.013870817 -0.0168124 -0.011822056 -0.03203726 0.010382093

net.4.running_var f4 [6]
00000000: c986 ea3a 6af4 563a b376 c53a 219d 003b
00000010: 9570 803a dc2a ac3a
0.0017892952 0.00081998727 0.0015065282 0.0019624906 0.0009799177 0.0013135332

net.6.weight f4 [17, 6]
00000000: 62a1 e1be d99e 60be 52b5 d4be af81 e3be
00000010: 4621 d8be 22b1 8ebe c516 d9be f523 8abe
00000020: 12d1 b0be ec10 dbbe 9f30 87be 0594 bfbe
00000030: bd06 02be 7c14 edbd c7bb 4dbe bf6e 5bbe
00000040: 73c6 4cbd b79c bcbd 05dd ccbd fcdf 99bd
00000050: 5553 2ebe 4e96 2abe b853 d9bc bed0 5fbd
00000060: 6739 e1bd ed92 d7bd ef72 dabd 17f0 e0bd
00000070: 3822 96bd f3d8 e1bd 8c66 1ebe 2037 06be
00000080: 54c7 4dbe e234 54be 642b 80bd 2f21 ecbd
00000090: 7fba 6cbd 48e8 29bd 0ded b9bd 839e afbd
000000a0: 568b 99bc 31f4 07bd 0719 acbe dd54 8cbe
000000b0: 08b0 9cbe 390b a4be f25c 04be 9b3f afbe
000000c0: 6e63 f8bc fd6b 9cbc 906f 44bd 7460 31bd
000000d0: 34d8 09bc 0714 7cbc 12d7 99be 18a5 88be
000000e0: 0355 9dbe f04d b1be c8b9 20be 5548 8ebe
000000f0: 9f19 3ebe 469a 1fbe d8da 69be eb1d 6fbe
00000100: 617c 6abd cc9e 2bbe 4499 b9be 9a98 f9bd
00000110: 2368 1bbf ea56 7abe 5d47 00be 430a 4ebd
00000120: 30c6 1cbe c7ac 0bbe 50d8 51be e620 59be
00000130: 8e5e 79bd 99e6 04be e28b 67bd 43a8 2bbd
00000140: 5327 a9bd 456b 9fbd f257 adbc 298f 15bd
00000150: c541 03bd f016 b0bc c3f7 4abd 4e91 39bd
00000160: 3ec8 2abc 48d3 8fbc 7265 bbbd 379b 82bd
00000170: 64a6 28be 6879 1fbe 0f4e 92bc 6af4 39bd
00000180: 3da6 78be db3f 9dbe cfac adbe 2b02 d6be
00000190: 690d aebe cfdb 01be
-0.44068438 -0.21935596 -0.41544586 -0.44434878 -0.42212886 -0.27869517 -0.42400184 -0.26980558
-0.34534508 -0.42786348 -0.26404282 -0.37417617 -0.12697883 -0.11576173 -0.20091163 -0.21428965
-0.049993943 -0.092095785 -0.10003094 -0.07513425 -0.17023976 -0.16658899 -0.026529178 -0.05464243
-0.10997277 -0.10526071 -0.10666453 -0.109832935 -0.073307455 -0.11027708 -0.15468806 -0.13106966
-0.20095569 -0.20723298 -0.06258276 -0.11529767 -0.057795044 -0.041481286 -0.09078417 -0.085751556
-0.018743198 -0.033191863 -0.33612844 -0.27408496 -0.3060305 -0.32039812 -0.12926081 -0.34228215
-0.03032085 -0.019094462 -0.047957957 -0.043304875 -0.008413363 -0.015385634 -0.30046898 -0.26688457
-0.3072892 -0.34629774 -0.1569587 -0.2778956 -0.18564461 -0.15586194 -0.22837389 -0.23351257
-0.057247523 -0.16759795 -0.36249745 -0.121873096 -0.60705775 -0.24447218 -0.12527223 -0.050302755
-0.15309978 -0.13640128 -0.20492673 -0.21203956 -0.06088119 -0.12978591 -0.056529887 -0.041908514
-0.082594536 -0.07784132 -0.0211601 -0.03651348 -0.032045145 -0.021495312 -0.04955269 -0.04530459
-0.010423718 -0.017556801 -0.091502085 -0.06377261 -0.16469723 -0.15573657 -0.017859487 -0.045399107
-0.24282165 -0.3071278 -0.33920905 -0.4179853 -0.33994606 -0.12681507

net.6.bias f4 [17]
00000000: 4a26 af3f 7132 a23f d7cf 9a3e 4171 363e
00000010: 3d5a 223e e45a af3e ce97 3f3d 7fd6 773f
00000020: 2b35 353c c16b 6b3f 4679 e83e 3c13 7a3f
00000030: 1d03 b73e 29e3 223d 633f 443c 0aed 183e
00000040: 53c2 833f
1.368356 1.2671643 0.30236694 0.1781664 0.15854736 0.34249032 0.04677563 0.9681167
0.0110600395 0.91961294 0.45405024 0.976856 0.35744563 0.039767418 0.011978003 0.14934173
1.0293678
