30 weight-optimized multi-task models/model_1.pt (torch_old, 4405 bytes, 14 tensors)

net.0.weight f4 [20, 6]
0.102861114 -0.14334583 -0.012112708 -0.11103606 0.05835625 -0.013724378 0.014359015 -0.10769687
0.06015418 -0.037395675 -0.10877385 -0.013633577 0.025715575 0.045531623 -0.06347461 0.027819047
0.0035866145 0.0709769 -0.00023404359 -0.036073416 -0.11498305 -0.094471864 -0.054928385 -0.06241689
-0.03134893 -0.14608976 0.00053949637 -0.021233339 0.07231984 0.12436005 -0.045232143 0.08092473
-0.14773458 0.01787108 -0.0655192 -0.022612069 -0.097805865 0.04168411 -0.17239602 0.0060052676
0.036698163 -0.028478239 -0.14899066 -0.13406168 0.08878356 0.1233074 0.03625104 -0.052980598
0.22105925 -0.14346834 -0.21729739 0.0910492 0.017656911 0.12663276 -0.13771252 -0.060808312
0.0016634587 0.012396793 -0.06931811 0.0441588 0.0060332897 -0.0029589306 -0.0002831003 -0.01487866
0.004220369 0.007089977 -0.08831843 0.0805081 0.075882584 0.013103527 0.047482055 -0.0027002282
0.048581775 0.013372196 -0.043830927 -0.009436821 0.050962925 0.06138049 0.13167712 -0.042608272
0.121362075 0.15181376 0.04093382 -0.057679042 0.045718145 0.15060404 0.024023678 -0.14115776
0.031534754 -0.13138004 0.096229546 0.013809703 -0.0056861294 -0.0077654496 -0.12307434 0.042761315
0.03712667 -0.046900667 0.07025183 0.047100745 -0.0118732955 -0.052844714 0.06748693 0.06023186
-0.00831576 -0.014070267 -0.15916449 -0.04963866 0.13799672 -0.1279198 -0.111004755 -0.03337312
0.049487464 0.008200813 0.08044023 -0.07108906 0.12777318 0.21323085 -6.201654e-06 0.042958885
00000000: d9a8 d23d 40c9 12be 6174 46bc e066 e3bd
00000010: f706 6f3d 37dc 60bc 1342 6b3c 2d90 dcbd
00000020: 3b64 763d 352c 19bd d3c4 debd 5e5f 5fbc
00000030: 78a9 d23c 5e7f 3a3d fafe 81bd c5e4 e33c
00000040: 680d 6b3b 565c 913d 9969 75b9 b8c1 13bd
00000050: 3c7c ebbd 777a c1bd 96fc 60bd daa8 7fbd
00000060: bc67 00bd 8e98 15be fd6c 0d3a 8af1 adbc
00000070: 6d1c 943d 7bb0 fe3d 5745 39bd ddbb a53d
00000080: bc47 17be 5f66 923c ee2e 86bd f23c b9bc
00000090: 714e c8bd f5bc 2a3d 9588 30be d6c7 c43b
000000a0: d050 163d 324b e9bc 0291 18be 7747 09be
000000b0: 28d4 b53d 9788 fc3d f87b 143d 2f02 59bd
000000c0: 5b5d 623e 5de9 12be 3583 5ebe 0178 ba3d
000000d0: 3aa5 903c 05ac 013e 8304 0dbe 2312 79bd
000000e0: 6908 da3a eb1b 4b3c a7f6 8dbd dcdf 343d
000000f0: e7b2 c53b 9eea 41bb 146d 94b9 a0c5 73bc
00000100: 054b 8a3b 0a53 e83b 4be0 b4bd 6ee1 a43d
00000110: 5468 9b3d 2db0 563c 8b7c 423d 50f6 30bb
00000120: affd 463d 0e17 5b3c 0f88 33bd e59c 1abc
00000130: 80be 503d 1c6a 7b3d 5ed6 063e 0386 2ebd
00000140: ae8c f83d 1175 1b3e 39aa 273d dc40 6cbd
00000150: f342 3b3d f237 1a3e 4ecd c43c a98b 10be
00000160: 962a 013d 7d88 06be ff13 c53d 1842 623c
00000170: b652 babb 5075 febb 660e fcbd 7d26 2f3d
00000180: 2312 183d ea1a 40bd 31e0 8f3d b6ec 403d
00000190: 3688 42bc b373 58bd 9636 8a3d afb5 763d
000001a0: d33e 08bc fa86 66bc 04fc 22be e851 4bbd
000001b0: 034f 0d3e 68fd 02be 7656 e3bd 41b2 08bd
000001c0: 5eb3 4a3d b45c 063c d9bd a43d 2497 91bd
000001d0: f9d6 023e 3059 5a3e cd17 d0b6 a8f5 2f3d

net.0.bias f4 [20]
3.243688e-07 -1.9515356e-08 2.4136764e-08 -1.4922779e-07 -9.18244e-08 6.074721e-08 -4.4831378e-08 -1.4074685e-07
7.298378e-08 -2.6550498e-07 -2.2377122e-09 -3.619468e-08 2.4015552e-07 9.11167e-08 3.3166853e-07 1.645493e-07
-1.3181747e-08 2.420851e-08 1.1505358e-07 -2.1346123e-08
00000000: e924 ae34 b9a2 a7b2 4e55 cf32 6c3b 20b4
00000010: ff30 c5b3 2274 8233 9f8c 40b3 3320 17b4
00000020: 42bb 9c33 ba8a 8eb4 40c6 19b1 7974 1bb3
00000030: b9ee 8034 f0ab c333 2d10 b234 f8ae 3034
00000040: f075 62b2 14f3 cf32 6013 f733 9f5c b7b2

net.1.weight f4 [20]
0.194006 0.16569524 0.09586568 0.119108416 0.11412711 0.2015938 0.2019806 0.1160672
0.21218829 0.11608676 0.014105844 0.116933845 0.08385287 0.12670384 0.15757921 0.092815794
0.094854936 0.12849665 0.24794829 0.11033899
00000000: 82a9 463e 03ac 293e 3a55 c43d 1def f33d
00000010: 79bb e93d 9b6e 4e3e 01d4 4e3e a4b4 ed3d
00000020: e347 593e e5be ed3d 331c 673c 037b ef3d
00000030: 0ebb ab3d a7be 013e 725c 213e 3516 be3d
00000040: 4e43 c23d a094 033e 28e6 7d3e 69f9 e13d

net.1.bias f4 [20]
0.020034967 -0.025386225 0.040330607 -0.005416016 0.028811028 -0.073661625 -0.1428053 0.022106957
0.044842646 0.03118503 -0.0046727355 -0.021100972 0.026534326 -0.013539916 -0.020520812 -0.01256335
-0.011656422 -0.008819833 -0.14755394 0.017796448
00000000: 5f20 a43c c6f6 cfbc b531 253d d678 b1bb
00000010: 1b05 ec3c e8db 96bd 8d3b 12be a619 b53c
00000020: ecac 373d bf77 ff3c bf1d 99bb f2db acbc
00000030: 845e d93c 86d6 5dbc 431b a8bc 82d6 4dbc
00000040: 94fa 3ebc 1081 10bc 6118 17be dbc9 913c

net.1.running_mean f4 [20]
0.023068374 0.008281862 -0.0115950955 0.005538489 0.0013408898 -0.014509432 -0.009630181 0.007031423
-0.0003378207 -0.010164032 0.0005911186 -0.0058885054 -0.0031672225 0.0152056 0.011308591 -0.005413326
0.010346967 -0.0031635195 0.014983951 0.00145159
00000000: e3f9 bc3c a6b0 073c 5bf9 3dbc 377c b53b
00000010: ccc0 af3a f8b8 6dbc e8c7 1dbc da67 e63b
00000020: 871d b1b9 0a87 26bc 4cf5 1a3a 5df4 c0bb
00000030: 2d91 4fbb e920 793c ab47 393c 4562 b1bb
00000040: 5386 293c 0d53 4fbb 3f7f 753c 4743 be3a

net.1.running_var f4 [20]
0.115786314 0.056646653 0.02345592 0.01903493 0.033407874 0.061628103 0.06637751 0.020962851
0.1317556 0.0224662 0.00054713007 0.020777587 0.016981397 0.02896284 0.023384225 0.013137348
0.014152965 0.02551686 0.072775155 0.017904866
00000000: 6021 ed3d 5206 683d a126 c03c 24ef 9b3c
00000010: b2d6 083d c06d 7c3d eff0 873d 49ba ab3c
00000020: f1ea 063e 090b b83c 476d 0f3a c235 aa3c
00000030: 921c 8b3c 7a43 ed3c 4690 bf3c 083e 573c
00000040: d6e1 673c bc08 d13c 240b 953d 3aad 923c

net.3.weight f4 [6, 20]
0.033913862 -0.028885636 -0.06266335 0.04862578 0.0040242053 -0.003480667 0.009687224 -0.04526394
0.036441244 -0.033957478 -0.0077406676 -0.007684703 -0.04883979 0.044717442 -0.05794847 -0.008088824
-0.024412379 -0.025837418 0.19209181 0.008109972 -0.1098263 -0.032282487 -0.036827944 -0.079403035
-0.010062104 -0.012229618 0.10854647 0.11626963 0.065939315 0.12645267 -0.0013592886 -0.032277927
0.03835522 -0.032410726 -0.05861009 0.036733985 0.002353874 0.008862806 -0.10510064 -0.09236239
-0.13180336 0.041925296 0.040594712 -0.052598957 -0.083318375 0.15359426 0.12123392 -0.043176923
0.0865997 -0.047497183 0.0055147354 -0.06917671 -0.039533444 -0.024092408 -0.04565012 0.03932683
0.05497317 0.011505414 -0.037320845 -0.04182534 0.02166885 -4.2531014e-05 -0.031901225 0.04906952
0.028519165 0.11457859 0.056498267 -0.07388779 0.21392587 -0.0063555874 -0.008853671 -0.018854339
0.05620349 0.044766452 -0.025265306 0.0065908427 0.08916313 -0.06720432 -0.13675983 -0.008631215
-0.02587872 0.14303537 -0.08634024 0.07277771 0.0048918747 0.0036519573 -0.054162905 0.028273486
0.06529017 -0.014917605 -0.004351565 0.007309155 -0.027092474 -0.0072405296 0.048962116 0.016454862
-0.008102894 0.05810005 0.06617618 0.0031792591 0.08376411 -0.058408275 -0.044297416 0.017437559
0.11382633 0.019183092 -0.04557527 0.064744525 -0.014001046 -0.05134248 0.0008524229 -0.10442429
-0.07761369 0.092304945 -0.11973241 -0.07776804 0.020316746 -0.09377427 0.040856786 0.033618856
00000000: 43e9 0a3d 92a1 ecbc a455 80bd d32b 473d
00000010: 7bdd 833b e71b 64bb 2ab7 1e3c ae66 39bd
00000020: 6a43 153d ff16 0bbd 6da5 fdbb f6cf fbbb
00000030: 3b0c 48bd a329 373d 605b 6dbd fd86 04bc
00000040: 78fc c7bc fea8 d3bc b7b3 443e b0df 043c
00000050: 9cec e0bd a43a 04bd e6d8 16bd 0f9e a2bd
00000060: 86db 24bc bc5e 48bc 9d4d de3d c61e ee3d
00000070: 310b 873d cf7c 013e 282a b2ba dc35 04bd
00000080: 5d1a 1d3d 1cc1 04bd 2211 70bd 6076 163d
00000090: 7443 1a3b 4d35 113c 013f d7bd 7e28 bdbd
000000a0: 76f7 06be dcb9 2b3d a446 263d 0172 57bd
000000b0: d3a2 aabd d047 1d3e 7d49 f83d 49da 30bd
000000c0: 2f5b b13d 688c 42bd f4b4 b43b 85ac 8dbd
000000d0: d2ed 21bd 715d c5bc 9ffb 3abd 2c15 213d
000000e0: 8c2b 613d 3481 3c3c bedd 18bd 0c51 2bbd
000000f0: df82 b13c 5463 32b8 dcaa 02bd 1ffd 483d
00000100: 06a1 e93c 2ea8 ea3d ba6a 673d 7b52 97bd
00000110: 620f 5b3e 8842 d0bb fd0e 11bc 6a74 9abc
00000120: a135 663d 075d 373d 30f9 cebc fff7 d73b
00000130: 299b b63d 6ba2 89bd c50a 0cbe f169 0dbc
00000140: 9cff d3bc dd77 123e 27d3 b0bd 7b0c 953d
00000150: 054c a03b ad55 6f3b ecd9 5dbd cc9d e73c
00000160: dab6 853d f868 74bc 9397 8ebb a381 ef3b
00000170: 09f1 ddbc f741 edbb 808c 483d 59cc 863c
00000180: 00c2 04bc 51fa 6d3d 6187 873d 1e5b 503b
00000190: 858c ab3d 843d 6fbd 3571 35bd 36d9 8e3c
000001a0: c71d e93d dc25 9d3c 22ad 3abd c798 843d
000001b0: a564 65bc 7e4c 52bd 2275 5f3a 67dc d5bd
000001c0: edf3 9ebd 600a bd3d 4436 f5bd da44 9fbd
000001d0: 4e6f a63c b90c c0bd 7259 273d edb3 093d

net.3.bias f4 [6]
1.8616303e-06 -4.5763213e-07 -5.1645173e-07 -1.4209595e-05 -7.8619655e-07 7.785199e-06
00000000: 21dd f935 7bb0 f5b4 4ba2 0ab5 bf65 6eb7
00000010: 040b 53b5 2d9d 0237

net.4.weight f4 [6]
0.88024545 0.797009 0.9904404 0.91942567 0.49463728 0.8975581
00000000: c457 613f c808 4c3f 818d 7d3f 7b5f 6b3f
00000010: 1941 fd3e 5ec6 653f

net.4.bias f4 [6]
0.35747382 0.5483231 0.44612077 0.46312907 -0.07405767 0.378078
00000000: cf06 b73e e75e 0c3f f169 e43e 411f ed3e
00000010: 8cab 97bd 7193 c13e

net.4.running_mean f4 [6]
0.004148489 -0.0056009227 -0.0075754663 0.02698222 0.017561438 -0.0041118506
00000000: 0cf0 873b f287 b7bb 9e3b f8bb d109 dd3c
00000010: 01dd 8f3c b4bc 86bb

net.4.running_var f4 [6]
0.0010834008 0.0008825691 0.0009845725 0.00095272646 0.00050503423 0.0008471524
00000000: e600 8e3a 365c 673a c50c 813a 64c0 793a
00000010: 4664 043a 6f13 5e3a

net.6.weight f4 [17, 6]
0.26436242 -0.36663732 -0.3376688 0.3577324 -0.34672233 0.3235368 0.25112516 -0.39925945
-0.24958286 0.39652535 -0.23640257 0.32760036 0.23117045 -0.24929082 -0.22778906 0.18415718
-0.0053319004 0.20202571 0.19171034 -0.19259596 -0.20524982 0.13388027 0.0041080015 0.17481408
0.18238932 -0.17897677 -0.12955716 0.18191804 -0.026461054 0.14982562 0.24899748 -0.25245094
-0.22531967 0.21591507 -0.021052375 0.21368824 0.11003114 -0.10239255 -0.109020434 0.07553793
0.003900587 0.09958651 0.27993622 -0.35377175 -0.2262491 0.39946452 -0.14116146 0.2654298
0.051586032 -0.04770226 -0.054618075 0.03289705 0.0037226924 0.047980227 0.2990517 -0.35936466
-0.25455642 0.34205702 -0.11022987 0.26060137 0.26759022 -0.281778 -0.22977115 0.25757992
-0.034912463 0.23848952 0.18295564 -0.10410955 -0.5668376 0.15561111 -0.14926824 0.40414435
0.25776827 -0.25811124 -0.22507094 0.22304137 -0.023709903 0.21680728 0.10528124 -0.09474837
-0.09753058 0.07558971 0.0021696133 0.09304544 0.055147883 -0.05057482 -0.056530215 0.03535663
0.0035674293 0.050279636 0.17831372 -0.17746508 -0.19981861 0.11908259 0.009621481 0.16646966
0.31519637 -0.31531405 -0.3247659 0.26606336 -0.12688188 0.25072086
00000000: 835a 873e e3b7 bbbe ede2 acbe b328 b73e
00000010: 9785 b1be 9ea6 a53e 7a93 803e bc6b ccbe
00000020: a692 7fbe 5f05 cb3e 8413 72be 3cbb a73e
00000030: f2b7 6c3e 1846 7fbe 8941 69be b393 3c3e
00000040: 39b7 aebb d4df 4e3e b74f 443e e037 45be
00000050: 022d 52be e917 093e 6a9c 863b 7602 333e
00000060: 44c4 3a3e b045 37be a2aa 04be b948 3a3e
00000070: dac4 d8bc e36b 193e 32f9 7e3e 4041 81be
00000080: 33ba 66be d718 5d3e 0876 acbc 17d1 5a3e
00000090: 0258 e13d 2fb3 d1bd 1b46 dfbd a1b3 9a3d
000000a0: fea0 7f3b 03f4 cb3d cd53 8f3e 9221 b5be
000000b0: d8ad 67be 9d86 cc3e a18c 10be 6ae6 873e
000000c0: e04b 533d 7263 43bd 34b7 5fbd 0fbf 063d
000000d0: 6af8 733b ea86 443d 4e1d 993e a5fe b7be
000000e0: 3855 82be 1922 af3e 33c0 e1bd 8b6d 853e
000000f0: 9601 893e 3545 90be 2149 6bbe 84e1 833e
00000100: 5f00 0fbd 9936 743e b958 3b3e 6337 d5bd
00000110: 451c 11bf 8558 1f3e c6d9 18be 02ec ce3e
00000120: 34fa 833e 2827 84be ff78 66be f564 643e
00000130: 453b c2bc ba02 5e3e b19d d73d 6f0b c2bd
00000140: 1dbe c7bd c7ce 9a3d 1230 0e3b 9c8e be3d
00000150: bfe2 613d 8b27 4fbd 3a8c 67bd 1dd2 103d
00000160: 88cb 693b 05f2 4d3d df97 363e 68b9 35be
00000170: 409d 4cbe 93e1 f33d 6ba3 1d3c 0677 2a3e
00000180: 6b61 a13e d870 a1be b747 a6be 7539 883e
00000190: 53ed 01be 7c5e 803e

net.6.bias f4 [17]
-0.038313307 -0.10251371 -0.0314588 -0.020572478 -0.04691498 -0.0515774 -0.0077559487 -0.12889966
-0.002080275 -0.09598819 -0.071635716 0.03374244 -0.05617724 -0.008427764 -0.002303041 -0.010850615
-0.07376378
00000000: 6aee 1cbd b5f2 d1bd f1da 00bd 9d87 a8bc
00000010: ec29 40bd d342 53bd 9d25 febb 46fe 03be
00000020: 3955 08bb 7595 c4bd bfb5 92bd 8335 0a3d
00000030: 1b1a 66bd 9b14 0abc 9eee 16bb c7c6 31bc
00000040: 7711 97bd
