30 weight-optimized multi-task models/model_7.pt (torch_old, 4405 bytes, 14 tensors)

net.0.weight f4 [20, 6]
000000 e4 1a 97 3d 8f 1b b9 bd cf 31 41 be 71 bf 75 bd
       0.07378176 -0.090384595 -0.18866657 -0.059997026
000010 0a 6e 9d 3c e7 14 1a bd 18 d3 3c bd d1 9a bf 3d
       0.01921751 -0.03761759 -0.046099752 0.09355701
000020 27 bb b1 3b 70 af f3 bc 37 88 2c bb 35 4e 37 bc
       0.0054239216 -0.029746741 -0.0026326308 -0.01118808
000030 f1 34 27 3e fb 2d 5a bd 1a 54 ee 3d 71 eb 2f 3e
       0.1632879 -0.053266507 0.11637135 0.17179658
000040 e7 f0 4b 3b 4e c1 30 bd 6b a0 55 be 08 0e 5d 3d
       0.003111893 -0.0431531 -0.20861976 0.05396846
000050 be b6 f9 3d 8d e7 76 bd a7 7c c0 bc 6b 4f ef bd
       0.121930584 -0.060279418 -0.023496939 -0.1168507
000060 84 87 84 3c f0 cb 54 bd a1 b2 98 3d c6 47 67 bc
       0.0161779 -0.051952302 0.07455946 -0.014116233
000070 9f f0 80 bd 87 17 ef bd c3 40 aa 3c 40 65 0a bb
       -0.06295895 -0.11674409 0.020782834 -0.0021117479
000080 8b f7 65 be cc 92 b5 bd fd 7e 7a bd 0f 17 30 3d
       -0.22457711 -0.0886589 -0.06115626 0.04299074
000090 6a be ae 3c 3e 05 ab 3b 78 1d 93 bc 0a bd 93 bb
       0.02133103 0.005219131 -0.017958388 -0.004508619
0000a0 65 f1 e0 3c 86 be c7 3d 49 da 53 3d 36 4a 07 be
       0.027458856 0.09753136 0.051721845 -0.13211903
0000b0 7e 0d ee bc 77 b6 b3 3c a6 82 b4 3c ac 5b f8 3c
       -0.029059168 0.021937592 0.022034954 0.03031715
0000c0 6d 72 1a be 9a 89 d6 bd 0e ff c7 bb 44 58 9f 3d
       -0.15082712 -0.10475464 -0.006103403 0.07780507
0000d0 c6 a7 84 3c 62 59 ff 3d 95 11 52 be d1 03 a7 bd
       0.016193282 0.1246822 -0.2051452 -0.08155025
0000e0 0a fd 55 3d 11 7f 95 bb c3 da ad 3d 26 c0 d5 bc
       0.05224327 -0.0045622666 0.08488991 -0.0260926
0000f0 12 b4 35 bd 47 aa af 3d 48 6f 8b 3b c3 c9 1c be
       -0.04436118 0.085774 0.004255209 -0.15311341
000100 1f e4 f6 bd 8a 1e 60 3c 68 d3 91 3d a9 ce 0a be
       -0.120552294 0.013679156 0.07120401 -0.13555397
000110 7b ed 9c ba 7c 5a 8b bd 4d 3c f6 3d e8 93 31 bd
       -0.001197263 -0.06804368 0.1202322 -0.043353945
000120 dd fd ae bc a4 ff 8f be d0 90 78 3c f0 f4 7b 3d
       -0.021361286 -0.28124726 0.015171245 0.061512887
000130 96 65 c6 3d e9 dc 60 3e be 39 2c be ee e8 2b bd
       0.09687345 0.2195927 -0.16818902 -0.041970186
000140 88 63 88 bd 0e bb ba bb 45 8d 06 bd 72 f4 b2 bc
       -0.06659609 -0.005698568 -0.03284957 -0.021845076
000150 2e 0d 8b bd 9f 5b 70 bc 38 27 09 3d b3 7b 03 3d
       -0.06789623 -0.014670282 0.033484668 0.03210039
000160 66 33 77 3c 56 d3 17 bd ef 1b 8c bd d3 87 a5 3d
       0.015087938 -0.03706678 -0.068412654 0.08082547
000170 79 c1 2a 3e 9f ab 7d 3d 74 d5 d6 3c 87 c1 b3 3d
       0.16675366 0.06193125 0.02622483 0.08777147
000180 f6 31 a8 bc 5f bd 49 bc f5 14 5e 3d 65 be ea 3d
       -0.020531636 -0.012313216 0.054219205 0.11462096
000190 00 b1 a5 bd d1 ce 82 bd 48 cd 8d bc 0e 88 03 3e
       -0.08090401 -0.06387103 -0.0173098 0.1284487
0001a0 07 c6 42 bd c6 26 9d 3d 9d 8f b1 3d 4a 14 46 3d
       -0.047552135 0.07673411 0.0866997 0.048359193
0001b0 10 d2 e9 bd 36 a9 08 3c 22 b3 20 be 26 58 8c bb
       -0.11417019 0.008341124 -0.15693334 -0.004282969
0001c0 38 e8 f4 bc ee f2 eb bc f1 a6 6f 3d d8 92 20 bc
       -0.029895887 -0.028802361 0.058508817 -0.009800635
0001d0 5c 29 14 bc e3 f8 88 bc bf 38 16 be be e7 9b 3d
       -0.009043064 -0.016720241 -0.14670084 0.07612561

net.0.bias f4 [20]
000000 97 70 f4 31 df 89 42 b1 b5 11 13 30 7f dc 11 b5
       7.1141346e-09 -2.8309086e-09 5.350345e-10 -5.4337573e-07
000010 9b fa 64 b4 00 2d 88 33 88 dc 7a b0 f3 4b 1d b4
       -2.1325324e-07 6.341179e-08 -9.1262864e-10 -1.4649395e-07
000020 50 72 5b 33 a3 2a 75 b4 7e 7a e2 32 c4 37 fb b3
       5.1093878e-08 -2.2832914e-07 2.6365566e-08 -1.1698242e-07
000030 57 2c 62 35 88 05 55 31 e2 d4 bb 31 3d f9 e6 33
       8.4256084e-07 3.0998724e-09 5.4666183e-09 1.0755546e-07
000040 21 59 a1 35 37 e2 9f 33 b3 2a 29 b5 26 e3 f0 b2
       1.2021375e-06 7.445163e-08 -6.301954e-07 -2.8042972e-08

net.1.weight f4 [20]
000000 56 f8 36 3e 69 f7 a2 3d 60 c7 5b 3e 88 32 26 3e
       0.1786817 0.07957346 0.21462774 0.16230214
000010 e0 f8 30 3e 21 4c 54 3e 19 3f c6 3d f2 d1 11 3e
       0.17282438 0.20732166 0.09680004 0.14240244
000020 da 8c 0d 3e f0 94 24 3e a8 f9 00 3e 88 80 40 3e
       0.13823262 0.1607244 0.12595236 0.18799031
000030 e6 8d 63 3e 28 6c 26 3e 83 c8 47 3d 0e 4d 45 3e
       0.22222099 0.16252196 0.048775207 0.19267675
000040 fa 46 ec 3d 33 e5 16 3e 68 19 68 3e 3f d8 af 3d
       0.11536975 0.1473587 0.22665942 0.085861675

net.1.bias f4 [20]
000000 21 4b b3 bd 96 7c 32 bc b6 cd 6c bd 3f 85 21 3e
       -0.08754564 -0.010893961 -0.05781337 0.15773486
000010 e3 23 b2 bd aa bf 48 bd 57 40 56 bd 08 13 f1 bc
       -0.08698251 -0.04901091 -0.052307453 -0.02942802
000020 67 c3 9e 3d 21 a3 27 bd 1a 39 7f 3d 56 fe 52 3d
       0.07752114 -0.040927056 0.062310316 0.051512085
000030 b6 bb a6 3d d9 41 df bc 47 be 04 3d 6c d5 b2 bd
       0.08141272 -0.027253078 0.032408025 -0.08732113
000040 56 4d 4d bc fb 7e 63 3d 08 aa 0f be 80 0f 00 3c
       -0.012530645 0.05554102 -0.14029706 0.0078161955

net.1.running_mean f4 [20]
000000 6a 26 37 3c 18 41 3e ba 32 51 42 ba 68 f8 64 3a
       0.011178592 -0.00072576245 -0.0007412612 0.0008734525
000010 74 bf eb 3b ab 2d 7f 3b 20 b7 96 bb 7b 76 80 3a
       0.007194454 0.0038937132 -0.004599467 0.0009800935
000020 5b b2 78 bc da b8 6a bb 43 56 0b 3b 02 72 42 3c
       -0.015179242 -0.0035815747 0.0021261133 0.011868002
000030 8d c0 53 bc f4 ba 59 bb fc 81 cb ba e8 99 57 bc
       -0.012924326 -0.0033223005 -0.0015526409 -0.013159253
000040 c5 24 7e bb 06 88 e0 bb 4b 14 3d ba 58 b5 85 bb
       -0.003877924 -0.0068521528 -0.0007212802 -0.0040804558

net.1.running_var f4 [20]
000000 39 e7 1a 3d 82 19 36 3c 0f a9 0a 3d 2e 1f 8b 3d
       0.037818167 0.01111448 0.033852633 0.067930564
000010 97 4c 33 3d 3a 2f 01 3d 0d 81 45 3c 71 32 c8 3c
       0.043774214 0.03153918 0.012054694 0.024438115
000020 73 65 f4 3c ad 36 83 3c 85 b8 d6 3c 6d 65 c7 3d
       0.029833531 0.016017282 0.026211033 0.09736142
000030 0c 7b a9 3d 72 9b 0d 3d 41 89 af 3b c4 09 17 3d
       0.082754225 0.034572072 0.005356938 0.036874548
000040 f0 c3 b4 3c 3e 3d 9c 3d bf 2e 55 3d 35 7c 97 3c
       0.022066087 0.076288685 0.052046534 0.018491844

net.3.weight f4 [6, 20]
000000 b2 86 2c 3e a8 9c 65 3d 19 ae a1 3d 5f 36 83 bd
       0.16848257 0.056057602 0.078945346 -0.06406855
000010 af 90 87 bd 7d 9c 2c 3d 9e cb 52 bc b1 31 87 3d
       -0.06619393 0.042141426 -0.012865929 0.06601275
000020 45 bf ce bd ad d0 03 bd 7e b0 cb bc 7f bc 88 bb
       -0.100950755 -0.03218143 -0.024864431 -0.004172861
000030 86 7a bc 3d bf 02 e9 3c 66 2c 54 bc 73 0a ce 3c
       0.09203057 0.028443692 -0.012950039 0.025151467
000040 f2 dd 35 bd d9 e9 2e bd a2 d6 9b 3d 84 dc 0f bd
       -0.044401117 -0.042703483 0.07609297 -0.03512241
000050 23 a7 2c 3c c1 39 c0 bc b7 cf b7 3b 5e 68 08 be
       0.010537895 -0.02346504 0.0056094783 -0.13321063
000060 c7 8b 95 3d 71 f9 61 bc 93 5d 63 3b 07 25 bc bd
       0.07302051 -0.013792382 0.0034693226 -0.0918675
000070 ad 61 90 3d f5 3b 0e 3e fe 67 90 bd 1b 5c 2e be
       0.0704988 0.1389006 -0.07051085 -0.17027323
000080 1c ba 64 bd f2 c4 d5 3d e4 9a 39 bb ac c6 d5 bd
       -0.05584155 0.10437955 -0.0028321082 -0.10438284
000090 28 0a 10 3d bb 09 a1 3d 91 6e 4e 3e 54 92 52 3d
       0.035165936 0.07863184 0.20159365 0.05140908
0000a0 3b fb 8a 3d e3 84 0e 3d aa 07 3b 3e d8 e0 d8 3c
       0.067862 0.0347947 0.18264642 0.026474401
0000b0 fd 34 c4 bd ae 91 d5 3d 2b 53 7d bb 19 e2 56 3d
       -0.09580419 0.10428177 -0.0038654308 0.052461717
0000c0 9e 42 44 bd 5f 5c 7f bd 13 83 46 bd 03 db 2d bd
       -0.047915094 -0.06234395 -0.048464846 -0.042445194
0000d0 7e e7 53 3c e3 1c 9f bd 9d 77 ef 3c c9 fb 0e bb
       0.01293361 -0.077691816 0.02923184 -0.0021817556
0000e0 f2 95 09 3d b1 c8 5e bc 71 10 ad 3a a2 1a 27 bd
       0.033590265 -0.013597653 0.0013203752 -0.040796883
0000f0 03 56 a6 bd 4b c1 25 bc 13 0b 90 bc 4d 64 91 3d
       -0.08121874 -0.010116885 -0.017583406 0.07099209
000100 a6 a5 56 bd 7f ba 16 3d 51 75 e9 bc ba ed a9 3c
       -0.05240407 0.03679895 -0.028498324 0.02074324
000110 4a c2 5e bc e5 60 1b 3d 95 ef ac bd 82 65 ba 3d
       -0.013596127 0.037934203 -0.08444134 0.09101392
000120 59 7e 83 3d 7a 3c 74 bd a4 06 4f 3d ea 2b 8c 3c
       0.06420583 -0.059627987 0.050543442 0.017110784
000130 2d 2e ba bd e2 a4 a9 bd 65 9e c8 3c e1 e0 6c bd
       -0.090908386 -0.08283402 0.02448959 -0.05783165
000140 77 5d 6a 3c 4b a4 44 bc 83 dc a3 3d 19 9d 35 be
       0.01430451 -0.012002061 0.08001044 -0.17735709
000150 63 fd b8 3d 73 33 c4 3d 0f 49 f2 3d ea de c6 bd
       0.09032705 0.09580126 0.11830341 -0.09710486
000160 98 ca 5d bd 69 37 1b 3c 1a 61 42 bd 4a ba cd bd
       -0.054148287 0.00947366 -0.047455885 -0.100452974
000170 97 09 bb 3d c4 4d 88 3d c8 f8 67 bd 79 8d e5 3c
       0.091326885 0.066554576 -0.05663374 0.028021561
000180 bf 75 22 bd 92 74 3b 3c 53 15 aa 3d a2 16 af bc
       -0.039663073 0.011441367 0.083048485 -0.021373097
000190 af c3 5c bd cf 25 86 bd bb 66 0b 3b 6d 64 35 3c
       -0.053897556 -0.0655018 0.002127095 0.011071307
0001a0 e7 79 03 3e 89 e9 7f 3d ee cb d3 3c 36 6c f2 3c
       0.12839471 0.062478576 0.025854077 0.029592615
0001b0 ea 9e a2 3d 29 02 46 3c 5e 79 d4 3d 3a c7 ab bc
       0.07940467 0.012085476 0.103747115 -0.020969022
0001c0 4f d8 86 bc 49 8e 53 bd dc cc 2c bc d9 f1 07 3d
       -0.016460566 -0.051649366 -0.010546889 0.03318963
0001d0 73 b2 51 3d d6 f2 12 bd 2e d1 f9 bd 30 ac 84 3a
       0.051195573 -0.035876118 -0.12198101 0.0010122117

net.3.bias f4 [6]
000000 23 ed ab b5 e5 c8 86 36 d4 a3 11 36 84 40 21 36
       -1.2809509e-06 4.0168984e-06 2.1702044e-06 2.4028423e-06
000010 59 6a 89 b6 2b 14 c9 35
       -4.0952987e-06 1.4981537e-06

net.4.weight f4 [6]
000000 99 b8 82 3f c5 50 8f 3f 65 f0 3f 3f da dc 23 3f
       1.0212585 1.1196524 0.7497619 0.6400887
000010 d7 9c 4d 3f 59 87 0f 3f
       0.80317444 0.560659

net.4.bias f4 [6]
000000 46 3f bd 3e 1b f9 1c 3f f7 1c 99 3e 0f 43 aa 3e
       0.36962336 0.61317605 0.2990491 0.33254287
000010 4f f7 a0 3e 2b 17 93 3e
       0.3143868 0.28728613

net.4.running_mean f4 [6]
000000 87 0a 2f 3b 13 07 d6 bc e2 cf bd 3b e3 75 13 3c
       0.0026709156 -0.02612642 0.005792604 0.009000274
000010 f3 6c b7 bc 09 9b 4f 3c
       -0.022390818 0.012671241

net.4.running_var f4 [6]
000000 83 0c 0e 3b bc e7 2c 3b 9a 70 44 3a 17 48 35 3a
       0.0021674938 0.0026383242 0.00074935856 0.0006915344
000010 b4 1b ae 3a 5e ad 06 3a
       0.0013283403 0.0005137528

net.6.weight f4 [17, 6]
000000 04 95 79 3e 2f ac ee be 70 1d 9d 3e 6f 59 96 3e
       0.24373251 -0.4661574 0.30686522 0.29365107
000010 77 72 bc 3e 5f 00 76 be f1 4a a7 3e 01 bd e8 be
       0.3680608 -0.24023579 0.32674363 -0.454567
000020 0d e7 3b 3e 5a e0 74 3e 2b 50 c5 3e 61 b0 83 be
       0.18349858 0.23913708 0.38537726 -0.25720504
000030 62 de 86 3e 70 ce a5 be c2 69 49 3e a2 8c 02 3e
       0.2634154 -0.32384062 0.1966925 0.1274896
000040 96 25 ee 3d 63 86 e2 bd 8c 3f 61 3e 44 ee 89 be
       0.11628263 -0.110607885 0.21996897 -0.26939595
000050 f6 a8 23 3e 9e 13 eb 3d 70 f3 9b 3d 3a fa 9b bd
       0.15982422 0.11478351 0.076147914 -0.07616086
000060 6b 1b 5a 3e 52 34 51 be af 26 18 3e 1b 64 af 3d
       0.21299522 -0.20430115 0.14858507 0.085640155
000070 4a 93 04 3e 55 2d d9 bd 21 39 92 3e 0b 61 a5 be
       0.12946811 -0.106043495 0.2855921 -0.323006
000080 e0 41 53 3e 28 f4 03 3e 3b dc 14 3e a8 12 04 be
       0.20630598 0.12886107 0.14537136 -0.12897742
000090 33 ba ff 3d 93 a2 10 be 66 91 b0 3d 79 47 84 3d
       0.124866866 -0.14124517 0.086214826 0.06458945
0000a0 3b 9b 26 3d d2 01 1d bd 2f fa af 3e 6f f8 cf be
       0.040675383 -0.038331814 0.34370562 -0.40619227
0000b0 1e bf 29 3e ba 56 4c 3e 0c f7 b7 3e f5 97 80 be
       0.16576812 0.19954959 0.3593067 -0.25115934
0000c0 87 5a 70 3d 0a 80 87 bd 6c 3e 23 3d b9 d7 02 3d
       0.058680084 -0.066162184 0.039854452 0.03194401
0000d0 ea df 88 3c cb 27 85 bc 98 16 ab 3e 56 79 da be
       0.016708333 -0.016254326 0.33415675 -0.42670697
0000e0 72 a4 7a 3e 0b 57 1f 3e ce 75 94 3e 54 dd 62 be
       0.24476793 0.15560548 0.28996128 -0.22154742
0000f0 fd 44 9f 3e 5b f4 b1 be 68 e5 4a 3e 37 77 16 3e
       0.3110732 -0.3475674 0.19814074 0.14693914
000100 a7 db 3a 3e c5 40 1f be fc 9d 99 3e c4 df ec be
       0.18247853 -0.15552051 0.30003345 -0.4626447
000110 97 6a e1 3d 87 7a c9 3e 59 5e bb 3d 62 fa cd bd
       0.110066585 0.39351293 0.09148855 -0.10057522
000120 76 2c 96 3e 70 2f a7 be f6 b8 4f 3e fd d7 01 3e
       0.29330796 -0.3265338 0.20285401 0.12680049
000130 23 6e 18 3e 6a b2 0b be 12 88 f2 3d 51 35 01 be
       0.14885764 -0.13642278 0.118423596 -0.12617995
000140 b8 96 a4 3d 41 eb 71 3d ba 08 29 3d 7c 0c 1d bd
       0.0803656 0.059062246 0.041268088 -0.038341984
000150 ed da 80 3d 45 b5 8e bd 7b 2d 30 3d 1b 7d 08 3d
       0.06291757 -0.06968168 0.043012124 0.033322435
000160 09 eb 97 3c 21 d1 8f bc 63 8e 50 3e 60 c8 82 be
       0.01854469 -0.017555775 0.20366816 -0.255435
000170 a9 bd 13 3e c1 b2 e7 3d ea 73 85 3d 17 90 80 bd
       0.14427818 0.113133915 0.065162495 -0.06277483
000180 99 93 9b 3e 34 67 e6 be 0d d1 bc 3e 60 d8 c4 3d
       0.30386046 -0.45000613 0.36878243 0.09611583
000190 d1 5e 50 3e e9 9b 4d be
       0.2034867 -0.20079006

net.6.bias f4 [17]
000000 97 4f 18 be d6 b8 f8 bd 9f f5 2f bd 97 7d d5 bc
       -0.14874111 -0.1214463 -0.042958852 -0.026060862
000010 31 96 28 bd e4 d3 66 bd 7c 20 05 bc 42 f2 fd bd
       -0.04115886 -0.05635442 -0.008125421 -0.12399723
000020 a1 18 01 bb 46 bb c6 bd fc 4f 90 bd be c9 4c bd
       -0.0019698518 -0.09703688 -0.07046506 -0.049997084
000030 21 4e 6f bd e7 7e f8 bb 2f f5 e8 ba 45 75 9d bc
       -0.05842412 -0.0075834873 -0.0017773266 -0.019220958
000040 27 9f 67 bd
       -0.056548264
