30 weight-optimized multi-task models/model_9.pt (torch_old, 4405 bytes, 14 tensors)

net.0.weight f4 [20, 6]
0	0x3d8dbf42	0.06921245
1	0xbe5334f2	-0.20625666
2	0xbd6b4ab1	-0.05744428
3	0xbdfb44e4	-0.12268999
4	0x3e029948	0.12753785
5	0x3d82d0bd	0.0638747
6	0x3d2152e9	0.03938571
7	0x3e67b48e	0.2262747
8	0xbd3a45ec	-0.04547684
9	0xbdcf4648	-0.10120827
10	0xbe32065c	-0.17385238
11	0x3da8d30e	0.082433805
12	0xbe15ebe5	-0.14640768
13	0x3ccf9e44	0.025344022
14	0x3d6cf664	0.057852164
15	0xbdc9c985	-0.0985289
16	0x3da01448	0.07816368
17	0xbde4d431	-0.11173285
18	0x3e01e193	0.12683706
19	0x3d48c557	0.049016323
20	0x3e736370	0.23768401
21	0x3e5d7360	0.21626043
22	0x3d87c097	0.066285305
23	0x3daf9474	0.08573237
24	0xbe29337b	-0.16523544
25	0xbdcb570c	-0.09928712
26	0x3d9ae372	0.07562913
27	0x3b1fc1c3	0.0024376966
28	0x3d9704e7	0.07373982
29	0x3d731327	0.059344437
30	0xbd3ddd8d	-0.046353865
31	0x3d88221c	0.06647131
32	0x3d4a89d1	0.04944784
33	0x3d7a3909	0.06108955
34	0xbd64c942	-0.055855997
35	0xbdae04ee	-0.08497034
36	0xbd94d0c2	-0.0726638
37	0x3d4d9551	0.050191227
38	0xbe038c1e	-0.12846419
39	0xbbb6df5a	-0.005580825
40	0xbe3d0450	-0.18458676
41	0x3ca12aca	0.019673724
42	0x3d9be91e	0.07612823
43	0x3e26e7a8	0.16299307
44	0xbc9441ec	-0.01809784
45	0xbe1c3305	-0.15253837
46	0xbccbadc2	-0.024863128
47	0xbd9ae5ac	-0.07563338
48	0x3e1dad03	0.1539803
49	0x3c359137	0.011081985
50	0xbe5211d4	-0.20514613
51	0x3caa0fd4	0.0207595
52	0x3c6fcb56	0.014635881
53	0xbd3ed061	-0.046585444
54	0x3dc46c2e	0.09590946
55	0xbdf02179	-0.117251344
56	0x3da9e6f9	0.08296008
57	0x3d02aae2	0.031901248
58	0x3d054f22	0.03254617
59	0x3c90780a	0.017635364
60	0xbdb6b57c	-0.08921334
61	0xbc6b0714	-0.014344949
62	0x3d7579b7	0.05993053
63	0xbdff0616	-0.12452333
64	0xbe4d827d	-0.20069309
65	0x3de803e1	0.11328865
66	0x3d9e29dc	0.07722828
67	0x3dd0fb90	0.10204232
68	0xbda0b1ce	-0.078464136
69	0xbe1d210c	-0.15344638
70	0x3dc453cb	0.09586295
71	0x3dcacc0a	0.099021986
72	0x3d50277e	0.050818913
73	0xbdc2cb6b	-0.09511455
74	0x3d32ab81	0.04362059
75	0x3df4c165	0.119509496
76	0x3d0ed9a3	0.034875523
77	0x3e4547e7	0.1926571
78	0xbc31fc1e	-0.010863332
79	0xbb21c740	-0.0024685413
80	0xbcf94021	-0.030426087
81	0xbdccd899	-0.1000225
82	0xbe1dbfdd	-0.15405221
83	0x3e3ac2c0	0.18238354
84	0xbe2ce3cc	-0.16883773
85	0xbde8377e	-0.11338709
86	0x3d455924	0.048180714
87	0x3d58566e	0.0528168
88	0x3c33aa02	0.010965826
89	0xbdb5a467	-0.08869248
90	0x3bd20baa	0.006410082
91	0x3de6bc30	0.11266363
92	0x3c70949e	0.014683871
93	0x3d7cd691	0.061728064
94	0x3d8e08e2	0.06935288
95	0xbdd850e0	-0.10562301
96	0x3e03cf37	0.12872015
97	0x3da49445	0.08036093
98	0x3e277404	0.1635285
99	0x3cfbe4c2	0.030748729
100	0xbd214ab2	-0.039377876
101	0x3dc8e443	0.098091625
102	0x3ded7fa4	0.11596611
103	0x3d5c7bbc	0.05382894
104	0xbd281b0f	-0.04104143
105	0xbd06160c	-0.03273587
106	0xbe0081aa	-0.12549463
107	0xbcbabbc7	-0.022794617
108	0xbdee5482	-0.11637212
109	0xbcc0d14f	-0.023537306
110	0xbd400dc4	-0.046888128
111	0x3e213310	0.15742135
112	0x3d1c7eac	0.03820674
113	0x3d86763f	0.065655224
114	0x3d45379e	0.048148744
115	0xbe2038bd	-0.15646644
116	0xbdaf1a59	-0.08549947
117	0xbcb4607f	-0.02201867
118	0x3e007158	0.12543237
119	0x3d019b00	0.03164196

net.0.bias f4 [20]
0	0xb48432ff	-2.462402e-07
1	0xb4b1fd29	-3.3153017e-07
2	0x34a14573	3.0039118e-07
3	0xb437fefb	-1.7135964e-07
4	0x312e05ec	2.5323699e-09
5	0x34614d95	2.0982982e-07
6	0xb4239f8a	-1.5238598e-07
7	0xb555104b	-7.937239e-07
8	0x33832b3b	6.1080264e-08
9	0xb6457472	-2.9423068e-06
10	0xb30fb06a	-3.345523e-08
11	0xb32d4b7a	-4.0348347e-08
12	0xb6723d85	-3.609662e-06
13	0x3381192c	6.011609e-08
14	0x33c9791d	9.381822e-08
15	0x331387e6	3.4349704e-08
16	0xb1c70b97	-5.79298e-09
17	0xb4047e43	-1.2339392e-07
18	0x345b4f89	2.0424899e-07
19	0x348d399d	2.6305216e-07

net.1.weight f4 [20]
0	0x3e8ac694	0.27104628
1	0x3e5683e7	0.20948754
2	0x3e177b0e	0.14793035
3	0x3e79cdce	0.24394915
4	0x3db2da0e	0.08732997
5	0x3dfd0f00	0.12356377
6	0x3e71c75a	0.23611203
7	0x3e3081f8	0.17237079
8	0x3e53b890	0.20675874
9	0x3e55b5a3	0.2087007
10	0x3e4b2c75	0.19841178
11	0x3e4a0792	0.1972945
12	0x3e484c45	0.19560345
13	0x3e13b4e9	0.1442448
14	0x3e149017	0.14508091
15	0x3dd69d08	0.1047917
16	0x3e4cb78b	0.19991891
17	0x3e0ceb5f	0.13761662
18	0x3e621dbc	0.22081655
19	0x3e5ba530	0.21449733

net.1.bias f4 [20]
0	0xbc9a37b2	-0.018825386
1	0xbd57ebfe	-0.052715294
2	0x3d8658d9	0.06559915
3	0xbd0378bb	-0.03209756
4	0x3cafc2df	0.021455226
5	0x3da2c5d3	0.07947888
6	0xbd05bbc0	-0.032649755
7	0xbd511df1	-0.051053945
8	0x3d99748d	0.074929334
9	0xbdaa964e	-0.083294496
10	0x3c8bd53a	0.017069448
11	0x3d0a8d03	0.033825886
12	0xbcafa0ad	-0.02143892
13	0x3d0bd17d	0.03413533
14	0x3d30e840	0.04319024
15	0x3d3ac0da	0.045594074
16	0xbda5e95f	-0.08101153
17	0xbb172af7	-0.002306638
18	0x3d3a9fde	0.045562617
19	0xbd01f6a8	-0.03172937

net.1.running_mean f4 [20]
0	0xbc4a9bf2	-0.012366282
1	0x3ca59ffb	0.020217886
2	0xbc3ab437	-0.011395506
3	0xb9b17846	-0.00033849681
4	0x3a055355	0.0005085965
5	0xbb1590ba	-0.002282186
6	0x3c8b3262	0.016991798
7	0xbb9c7292	-0.0047744
8	0x3bb59764	0.005541729
9	0xbc73330a	-0.014843712
10	0x3b44d1d1	0.0030032287
11	0x3c48e8e6	0.012262559
12	0x3c44e478	0.012017362
13	0x3c727f99	0.014800929
14	0xbc2fcc12	-0.0107298065
15	0xb9d84e3a	-0.00041257014
16	0xb9faddc0	-0.00047848932
17	0xbaff04af	-0.0019456352
18	0x3ca406d5	0.020022789
19	0xbb9b6767	-0.004742551

net.1.running_var f4 [20]
0	0x3e1283cc	0.14308089
1	0x3d67e529	0.05661503
2	0x3cdbbfb2	0.026824806
3	0x3d8a6e92	0.06759371
4	0x3c2e8f67	0.010654307
5	0x3cfd362f	0.030909626
6	0x3dbfc8b7	0.09364455
7	0x3c53bdc6	0.0129236635
8	0x3d2e50ad	0.042557407
9	0x3d681ee7	0.056670096
10	0x3d9a5746	0.07536177
11	0x3d3cfb42	0.046138056
12	0x3d4873cb	0.048938554
13	0x3d37ce86	0.04487469
14	0x3cd23c6c	0.025663577
15	0x3cd4ffd7	0.0260009
16	0x3d0284ca	0.03186492
17	0x3c5ddc88	0.013541348
18	0x3daa5d0c	0.083185285
19	0x3d7ad61d	0.06123935

net.3.weight f4 [6, 20]
0	0x3d2ef159	0.042710636
1	0x3d3dc6f3	0.04633231
2	0xbe135e46	-0.14391431
3	0x3e0bbd17	0.13646351
4	0xbd8b2bc4	-0.06795457
5	0x3d580bbc	0.052745566
6	0x3d454c4a	0.048168458
7	0xbc9d5cb6	-0.019209247
8	0xbb1c4c8b	-0.0023849334
9	0xbd07dcba	-0.033169486
10	0xbdb63c4c	-0.088982195
11	0x3d3ba44d	0.045810986
12	0xbd6cbfae	-0.057799987
13	0xbd530107	-0.05151465
14	0xbd0f014e	-0.034913354
15	0x3d549fe6	0.051910304
16	0x3b3267a0	0.002722241
17	0x3d4c7d9d	0.04992448
18	0xbe085f2a	-0.13317552
19	0x3d689447	0.056782033
20	0xbcd48625	-0.025942871
21	0x3d3f06f9	0.04663751
22	0x3b8a0b34	0.0042127613
23	0xbd550f36	-0.05201646
24	0xbd91679b	-0.07099839
25	0x3c7d4ede	0.015460698
26	0xbd2502de	-0.040285937
27	0xbd42ddea	-0.047574915
28	0x3d6c6234	0.05771084
29	0x3d3a57ea	0.045493998
30	0x3c4c96be	0.012487112
31	0x3ca2a9b3	0.01985631
32	0xbc9205cb	-0.017825028
33	0x3cea13c8	0.028573886
34	0xbcd2c559	-0.025728868
35	0x3c78dbd6	0.015189132
36	0x3d64408c	0.05572562
37	0xbd8fb195	-0.07016293
38	0x3d771b04	0.0603285
39	0xbda4ea97	-0.08052557
40	0xbe0bee0f	-0.13665031
41	0x3c276973	0.010218012
42	0x3c793a0d	0.015211594
43	0x3bb4f6e7	0.005522597
44	0x3c6533c7	0.013989395
45	0xbd83c73c	-0.06434485
46	0x3e2f61ba	0.17127123
47	0xbdcebccc	-0.10094604
48	0x3dbf2e9d	0.09335063
49	0xbbb86002	-0.0056266794
50	0xbd79c3ed	-0.060977865
51	0x3d5080a8	0.050903946
52	0x3b2b3e86	0.0026129796
53	0x3df23225	0.118259706
54	0x3da75794	0.08171001
55	0x3dd63006	0.104583785
56	0x3d455c2c	0.048183605
57	0x3b20043c	0.0024416586
58	0x3c03a88d	0.008035791
59	0xbce85418	-0.028360412
60	0x3de9ab83	0.114096664
61	0x3d070e1d	0.032972444
62	0xbd1a1241	-0.037615065
63	0x3ceba3f4	0.028764702
64	0x3a790bd9	0.00095003616
65	0xbc94a7a5	-0.018146345
66	0xbc372e1c	-0.011180427
67	0xbde4166f	-0.11137091
68	0x3d96d3aa	0.073645905
69	0x3e4c3cc6	0.19945058
70	0xbcf43a0f	-0.02981284
71	0xbdd17dfe	-0.10229109
72	0xbd97a1e1	-0.07403923
73	0x3cd20f23	0.025641983
74	0x3cdfc68e	0.027316358
75	0xbd908cfd	-0.070581414
76	0x3d7f99e0	0.062402606
77	0xbdad14ed	-0.08451257
78	0xbd7f21a9	-0.06228796
79	0x3d47ab97	0.048747625
80	0xbe200c70	-0.15629745
81	0xbe18b1b7	-0.14911543
82	0xbc176de4	-0.009242509
83	0xbdca5238	-0.09878963
84	0xbd90f9d8	-0.07078904
85	0x3c5cf533	0.013486194
86	0x3d8f5c99	0.070000835
87	0x3b4a3379	0.0030853434
88	0x3dbdc58b	0.09266194
89	0x3cef37d6	0.02920143
90	0x3e03e3dc	0.1287989
91	0x3e0a4675	0.1350344
92	0xbbc4587b	-0.005991993
93	0x3d5859b9	0.05281994
94	0x3d8591a8	0.06521922
95	0xbd0e1ba9	-0.034694348
96	0x3e03a105	0.12854393
97	0xbc3b176a	-0.011419157
98	0x3d81f443	0.06345417
99	0xbe1adbf5	-0.1512297
100	0xbcfd0cb5	-0.030889848
101	0x3c8d2384	0.01722885
102	0xbd97b14f	-0.07406866
103	0x3d723e9c	0.05914174
104	0xbd852ce8	-0.06502706
105	0xbe0ab44e	-0.13545343
106	0x3e07ee5d	0.13274522
107	0xbc6e9e1c	-0.014564063
108	0x3e24abc3	0.16081147
109	0x3b92afa7	0.004476506
110	0xbdb3e8ae	-0.087846145
111	0x3d074e7c	0.033033833
112	0x3e38a7ab	0.1803271
113	0xbca11858	-0.019664928
114	0xbda6ddb9	-0.08147759
115	0xbd207134	-0.03917046
116	0x3d909397	0.070594005
117	0x3dc7e23b	0.09759947
118	0xbdab6c65	-0.08370284
119	0xbd011218	-0.031511396

net.3.bias f4 [6]
0	0xb72e1eb3	-1.0378356e-05
1	0xb4d231a8	-3.9151678e-07
2	0xb6b6ce01	-5.4480047e-06
3	0xb5b327d7	-1.3348134e-06
4	0xb3734f63	-5.6650048e-08
5	0x35b9d757	1.3846246e-06

net.4.weight f4 [6]
0	0x3f36d4ab	0.71418256
1	0x3f160e20	0.58615303
2	0x3f5dfd24	0.86714387
3	0x3f811437	1.0084294
4	0x3f4bdc8b	0.79633397
5	0x3f73ed7d	0.95284253

net.4.bias f4 [6]
0	0x3e628af7	0.22123323
1	0x3e589458	0.21150339
2	0x3f004456	0.5010427
3	0x3ecfe385	0.4060327
4	0x3f097b28	0.53703547
5	0x3ec01fff	0.3752441

net.4.running_mean f4 [6]
0	0xbc34493d	-0.0110037895
1	0x3af3ac54	0.0018590786
2	0x3ce12226	0.027482104
3	0x3b5b41b7	0.0033455917
4	0x3c76467e	0.015031455
5	0x3b89d3b0	0.0042061433

net.4.running_var f4 [6]
0	0x3aa6cb3e	0.0012725366
1	0x39bcc443	0.0003600438
2	0x3b079362	0.0020687212
3	0x3b10e7c8	0.0022110809
4	0x3ade2ae1	0.0016950035
5	0x3b48270e	0.0030540857

net.6.weight f4 [17, 6]
0	0x3ea17b6b	0.31539473
1	0xbd7c522c	-0.061601803
2	0xbed25ad9	-0.41084936
3	0x3eaed4ba	0.34146672
4	0xbe98a766	-0.29815215
5	0x3e9d0a92	0.30672127
6	0x3e1b3328	0.15156233
7	0x3d4b3011	0.049606387
8	0xbecf3bba	-0.40475255
9	0x3eccc7ef	0.39996287
10	0xbea0ce45	-0.3140737
11	0x3ec10574	0.37699473
12	0x3e41e54a	0.18935123
13	0xbddf59cf	-0.109058015
14	0xbe791025	-0.24322565
15	0x3e8ee4cc	0.27908933
16	0xbe5ef35c	-0.21772522
17	0x3e40de8e	0.18834898
18	0x3e1e6303	0.15467457
19	0xbdd79e35	-0.105282225
20	0xbe49c92c	-0.19705647
21	0x3e726420	0.23671007
22	0xbe34c014	-0.17651397
23	0x3e0e28c8	0.13882744
24	0x3e141ee1	0.14464904
25	0xbd2d971b	-0.042380434
26	0xbe14e249	-0.14539446
27	0x3e502677	0.20327173
28	0xbe3141c4	-0.17310244
29	0x3e391a1e	0.18076369
30	0x3e4b520d	0.19855519
31	0xbdd45e53	-0.103695534
32	0xbe72ff1c	-0.23730129
33	0x3e93df2b	0.288812
34	0xbe6c4c57	-0.23075996
35	0x3e57cdd8	0.21074617
36	0x3da6f982	0.081530586
37	0xbd5ba49d	-0.053623784
38	0xbdd73d06	-0.10509686
39	0x3e061213	0.13092832
40	0xbdc225da	-0.09479876
41	0x3d9f9bd0	0.07793391
42	0x3e35f337	0.1776856
43	0x3c91a0cc	0.01777687
44	0xbeb19cd3	-0.3468996
45	0x3ea9922c	0.33119333
46	0xbea4c5ae	-0.32182068
47	0x3ec3dadd	0.38252917
48	0x3d193616	0.037405096
49	0xbcdaa08c	-0.026687883
50	0xbd4f4459	-0.05060229
51	0x3d7d6d26	0.06187167
52	0xbd359fd0	-0.044341862
53	0x3d1027c3	0.03519417
54	0x3e7837d8	0.24240053
55	0xbd223c63	-0.03960837
56	0xbeae59e6	-0.34052962
57	0x3ea99412	0.3312078
58	0xbea1f2d9	-0.3163059
59	0x3ea3c72e	0.319879
60	0x3e47b72a	0.19503465
61	0xbd911030	-0.07083166
62	0xbe860c08	-0.26181054
63	0x3e9a2791	0.30108312
64	0xbe86bba9	-0.26315048
65	0x3e7ea490	0.24867463
66	0x3e36194d	0.17783089
67	0xbf03e4b1	-0.5152083
68	0xbe812b87	-0.2522852
69	0x3ece27e0	0.40264797
70	0xbe80006a	-0.25000316
71	0x3dee9d01	0.1165104
72	0x3e4a6d01	0.19768144
73	0xbdbcfef3	-0.09228315
74	0xbe7745e2	-0.24147752
75	0x3e92753a	0.28605062
76	0xbe75d233	-0.24005966
77	0x3e5b40d7	0.21411453
78	0x3d9c7591	0.076396115
79	0xbd3a1965	-0.045434374
80	0xbdc12d39	-0.09432454
81	0x3df7ee40	0.121059895
82	0xbdb58dc0	-0.08864927
83	0x3d9d45c8	0.07679325
84	0x3d238d79	0.03992984
85	0xbce1edee	-0.027579274
86	0xbd58d61b	-0.052938562
87	0x3d853655	0.06504504
88	0xbd41b6cd	-0.047293473
89	0x3d19383f	0.037407156
90	0x3e0ce4fb	0.13759224
91	0xbdd3c222	-0.10339762
92	0xbe40cad0	-0.18827367
93	0x3e62b92f	0.22140954
94	0xbe268c34	-0.16264421
95	0x3df9eac4	0.12202981
96	0x3ec86fbd	0.3914775
97	0xbe52b198	-0.20575559
98	0xbe962c85	-0.2933084
99	0x3e95e0f8	0.292732
100	0xbe9704c5	-0.29495826
101	0x3e678af2	0.22611597

net.6.bias f4 [17]
0	0xbd270064	-0.040771857
1	0xbdb3a214	-0.08771148
2	0xbbeb14c9	-0.0071741086
3	0xbaa3a55d	-0.0012485195
4	0xbc616118	-0.013756059
5	0xbca06d42	-0.019583348
6	0xb8c9c8b7	-9.621813e-05
7	0xbd91e887	-0.07124429
8	0x39f2b3d2	0.00046291813
9	0xbd385f26	-0.045012616
10	0xbd0a4722	-0.033759244
11	0x3db1f609	0.086895056
12	0xbcaa595c	-0.020794563
13	0xb97016f2	-0.00022896731
14	0x398d5e8d	0.00026964062
15	0xb9f1a146	-0.0004608726
16	0x3b8a6379	0.004223284
