30 weight-optimized multi-task models/model_12.pt (torch_old, 4405 bytes, 14 tensors)

net.0.weight f4 [20, 6]
00000000: ac69 3b3e 665b debd b8b9 90bd 03c1 b43d
00000010: 7bac b93b 3daa 0e3d 4500 663d 919a c53d
00000020: f8ce 14be 6d0e 81bc f9f8 f0bd 0750 613c
00000030: 08f0 f2bc 1c3b 903d ebf8 47bc a490 4ebe
00000040: 5ddc bb3d 58d6 e23d 282e 293d ebab e1bc
00000050: a88e 053d 7185 b1ba 76b0 adbd b61d 3f3d
00000060: f102 043d f7b4 63be 3bac de3c c1c9 98bc
00000070: 5569 c23d 00a1 783d d02b 4bbd 2b47 9dbd
00000080: e245 d6bd dac8 53bd 6f7e 77bd 3d66 6b3c
00000090: 41d9 f73d 8833 403c 678a 03be 665f ff3c
000000a0: 1d56 00bd 3163 ec3c 1103 1cbc 321f 91bd
000000b0: d7c9 6d3b e1ed cabc 0229 923d 4008 e33b
000000c0: 6bbe 6e3e 8e73 15be 0308 05be 40ba a03d
000000d0: 9814 293c e83e 9e3d b71e 113e 919f e3bd
000000e0: 22a9 45bd d577 8b3d aa83 c63c 29fb 0d3d
000000f0: fd90 1d3e 383d 513e d0c9 89bb 1d65 f0bd
00000100: c633 8bbd 7892 bfbd 6cde 53bc 7258 b839
00000110: 0674 e73c 3835 c83c bcd9 f7bb f5f2 33be
00000120: 6955 d63d 2ac7 063e 2175 0cbe 7247 56be
00000130: b45c 1a3d a624 60bd 90a9 993d 0f4d 27bd
00000140: f675 e5bc 1b40 0fbe 8591 8a3b 1f82 30bc
00000150: ed91 debd 0482 923c dffc 343d 1449 1bbd
00000160: efb0 15be 51b5 fcbc 4f2c e53c 6f9a 81bd
00000170: 5e70 823b a113 aebc 2aab 53bd b986 7dbd
00000180: bf8b 2b3e a176 9e3d 34f7 4a3e e16a 0e3e
00000190: bb0e 553d 8cad bf3d 0959 34ba 6544 9abc
000001a0: 3e7e e03a b1c0 e5bc e7a0 55be 74f1 063e
000001b0: abef 4b3d 864d afbd a736 ccbd 5973 843d
000001c0: c6fe 6e3d d7d6 8ebd 75ae bcbd ce15 013e
000001d0: b28c 71bb 7ec7 0cbe 7a51 af3d e1dc cbbd
0.1830203 -0.108572766 -0.07066673 0.088258766 0.005666313 0.03483032 0.0561526 0.09648622
-0.14532077 -0.015753949 -0.11766238 0.01375199 -0.029655471 0.07042524 -0.012205343 -0.20172364
0.0917289 0.11076039 0.041303784 -0.027547797 0.03260675 -0.0013543797 -0.08480923 0.046659194
0.032229368 -0.22237001 0.027181735 -0.018650891 0.09492747 0.060700417 -0.04960233 -0.0767959
-0.10462548 -0.05170522 -0.06042331 0.014367637 0.12101985 0.011731036 -0.12845765 0.03117342
-0.031332124 0.028855892 -0.009522215 -0.07086028 0.0036283636 -0.024771633 0.07136728 0.0069284737
0.23314826 -0.14594862 -0.12991337 0.07848024 0.010319851 0.07726842 0.14171873 -0.11114419
-0.048257 0.068099655 0.024232704 0.034663353 0.1538734 0.2043351 -0.004204966 -0.11738036
-0.067969844 -0.093541086 -0.0129314475 0.00035161112 0.028253566 0.02443944 -0.0075637978 -0.1757315
0.104655094 0.13161913 -0.13716556 -0.20925692 0.037686065 -0.05472245 0.075030446 -0.040844973
-0.02801035 -0.13989298 0.004228773 -0.010773211 -0.10867677 0.017884262 0.04418647 -0.03791149
-0.14618276 -0.030848177 0.02797523 -0.06328284 0.0039806804 -0.021249594 -0.051676907 -0.06189606
0.16752528 0.077374704 0.19820863 0.13907959 0.052016 0.09359273 -0.00068797224 -0.018831441
0.0017127467 -0.028045984 -0.2086216 0.13178045 0.049789112 -0.08559708 -0.099713616 0.06467313
0.05834844 -0.06974571 -0.092129625 0.12605974 -0.0036857543 -0.13747975 0.08560462 -0.09954239

net.0.bias f4 [20]
00000000: 0221 88b2 92a8 53b3 1e72 2634 15bc 40b2
00000010: fb8f 0035 274e 9434 2904 d8b3 5d2c 43b2
00000020: edc1 3633 cf23 30b4 bb80 67b2 6a5e 19b2
00000030: 1737 8433 29c5 5d34 7f40 8bb3 0576 cb33
00000040: a648 acb3 8540 c5b2 1023 da33 c45b e533
-1.5847494e-08 -4.928058e-08 1.550147e-07 -1.1218636e-08 4.7893235e-07 2.7624012e-07 -1.00590405e-07 -1.1360581e-08
4.255155e-08 -1.6404304e-07 -1.347524e-08 -8.927239e-09 6.15675e-08 2.0653955e-07 -6.484424e-08 9.474392e-08
-8.022589e-08 -2.2963158e-08 1.0157794e-07 1.06803355e-07

net.1.weight f4 [20]
00000000: 23dc 5b3e f1a2 583e 2aac 3d3e e006 cf3d
00000010: 9b51 803e 10fb 133e a80e 343e 10ab a53d
00000020: 82b6 873e 44ff 743e 09a5 443e c1bc 273e
00000030: 24af 503e 29b0 373e bcce 1a3e e966 053e
00000040: 7dfa 313e 643a 2a3e 38f3 d33d fb0a 063e
0.21470694 0.21155907 0.18522707 0.10108733 0.2506226 0.14451241 0.17583716 0.08089268
0.2650643 0.23925501 0.19203581 0.16380598 0.20379311 0.17938294 0.15117925 0.13027538
0.1738071 0.16623837 0.10349125 0.13090126

net.1.bias f4 [20]
00000000: 6f52 abbd db5f 9fbc f450 46bb 8e24 67bd
00000010: 2aa6 aabc 786b f1bc f63f 233b 9012 c93c
00000020: 0c8d c2bd 1787 21be 72f6 a8bd a495 87bd
00000030: 9a73 c23c d49b 9a3c 3d7e 693d b059 98bd
00000040: b39f 643d d762 e6bb b4dc a73d 35e8 d9bb
-0.08365332 -0.019454887 -0.0030260654 -0.056431346 -0.020831186 -0.02947019 0.002490995 0.024544984
-0.09499559 -0.15774189 -0.08250131 -0.066203386 0.023736764 0.018873133 0.057005156 -0.074389815
0.055816364 -0.0070308256 0.08196393 -0.0066499957

net.1.running_mean f4 [20]
00000000: 6c87 fe3b 6b2c 423c f6ad 7d3b a96b 4abc
00000010: 47ce 40bc 8471 9cbb 5676 7d3c 620b b8ba
00000020: 11ad 4c3c 7619 b13b 6542 95bb d37b 24bc
00000030: d0a6 063c 6b25 5dbc 595b b3bc c057 83bc
00000040: 02b9 c33b 6fdd 95bc 73a0 3f3c de33 4f3b
0.0077676084 0.01185141 0.0038708425 -0.01235477 -0.01176793 -0.0047742743 0.015470108 -0.0014041478
0.012492434 0.0054046465 -0.004555034 -0.010039288 0.008218482 -0.013497691 -0.021894144 -0.016033053
0.0059729824 -0.018294064 0.011695969 0.0031616609

net.1.running_var f4 [20]
00000000: 4586 3e3d 60ea 0f3d 006c 0a3d 3a33 4b3c
00000010: d270 bd3d 0eed 473c c0df a93c 5eec 573c
00000020: d49c c13d 6ed4 1d3d f13e 8a3c 45b6 153d
00000030: 6799 f63c 28b6 5e3d 704d 5a3d 1580 be3c
00000040: 0e24 5b3d 13bb 543d a8c8 af3c 9b9b ab3c
0.04651477 0.035135627 0.033794403 0.01240235 0.092500344 0.012202514 0.020736575 0.013178913
0.09453741 0.038532667 0.016875716 0.03655078 0.030102445 0.054372936 0.053296506 0.023254434
0.05350118 0.05193622 0.021457985 0.020948222

net.3.weight f4 [6, 20]
00000000: fdb0 c63d 901f 23bc f042 f1bd 6274 0a3d
00000010: 3284 873d d814 fe3d 0e18 adbd d1be a7bc
00000020: 0067 453e 6cc4 f73d e50f 2bbd bc49 1fbd
00000030: 49ba dfbc a790 db3c 912e 0abe 221e 8ebd
00000040: d820 583c 3058 a6bd 1d31 c53a 9ad0 52bd
00000050: ba5a c43c 40e0 503d c0e5 39bd 14de 67bc
00000060: c030 12bd 2234 143d bd02 efbd d59d 883c
00000070: 1078 623d d6c5 d43d 07b0 7c3d c3d2 e13d
00000080: 753a 4c3a 32ff 7bbb d1db 4b3d a7a5 f33c
00000090: 080b aebb 797c 263c 9127 533c afa1 5f3c
000000a0: 326c 553d c316 f73d 49cd 4f3d d773 dd3c
000000b0: cad9 b6bd 36fe 58bd 172a f83c d705 0fbd
000000c0: 4f9d a0bc 263e 123c e6ec 1ebd 4ed7 cbbc
000000d0: dbb9 98bd a30c 97bd b006 83bd 3bee 413d
000000e0: cd83 dabc 73cd 693c 6dee a83d 1d2c 9c3c
000000f0: 2222 953d 57bf 7ebd 2b90 5d3d 4ee0 b03c
00000100: eb22 d8bd 6b09 e13c d80e 95bd 7dae 83bc
00000110: 79f8 e03d aea1 e13c 73f1 fabd 9323 b4bc
00000120: 88c7 d9bd a1f9 25be 5d3d 2f3d d502 04bd
00000130: 90a9 86bd b4be 523d 8ca6 bb3d bde4 9f3d
00000140: 56a9 623d 9b96 a13c 7aad 4fbd b3e8 ab3d
00000150: b045 bbbd bdb0 19bd 74e0 aabd 55e6 1ebc
00000160: 8175 223d c9f3 283e 1bfc ab3b 9ded d23d
00000170: 3855 d6bd 185f 933d 0cc5 93bb 500f a03d
00000180: 1559 f3bd 64e4 c33d 4bd1 843d 835d ae3c
00000190: 0180 e73d 0cf1 1e3e 9203 0d3c ba7f cebc
000001a0: 6d22 b7bd 6b18 81bd b0a8 01bd 0d47 bbbd
000001b0: 2576 123d 8d29 4d3d 60ce 2cbd 638a c73c
000001c0: ae2f 93bd 560f aabc 95f8 9bbd 209e 703d
000001d0: 0d08 93bd 1f90 cb3c d261 093d f6ec 413c
0.097017266 -0.009956256 -0.117803454 0.033802398 0.06617011 0.124063194 -0.08451854 -0.02047673
0.19277573 0.120980114 -0.041763205 -0.038888678 -0.027310507 0.026802374 -0.13494326 -0.06939341
0.013191424 -0.08122289 0.0015044544 -0.05146847 0.023969043 0.05099511 -0.045385122 -0.014152069
-0.035691023 0.03618253 -0.11670444 0.016676823 0.05529028 0.10389297 0.06169131 0.11026528
0.0007790693 -0.0038451669 0.04977018 0.029742075 -0.0053113736 0.0101615125 0.012887851 0.013649388
0.052105136 0.12064888 0.050732885 0.027032776 -0.08928259 -0.05297681 0.030293508 -0.03491768
-0.01960626 0.00892595 -0.038800143 -0.024882939 -0.07457324 -0.07375457 -0.0639776 0.047346335
-0.026674176 0.014270174 0.08248601 0.019064004 0.07281901 -0.062194195 0.054092567 0.021591332
-0.10553535 0.027470311 -0.07278222 -0.016074413 0.109848924 0.027542915 -0.12253084 -0.02198962
-0.10633761 -0.16208507 0.04278313 -0.032229263 -0.0657531 0.0514514 0.09162626 0.078073
0.055337273 0.019725135 -0.05070255 0.08393993 -0.09144151 -0.037522066 -0.08343592 -0.00969847
0.03966284 0.16499247 0.005248559 0.102992274 -0.10465473 0.07195872 -0.004509574 0.07815421
-0.118822254 0.095650464 0.06485232 0.021284824 0.11303712 0.1552164 0.008606808 -0.02520739
-0.08942113 -0.063034855 -0.031655014 -0.09144411 0.035757203 0.050088454 -0.042189002 0.02435798
-0.071868286 -0.020759266 -0.07615773 0.05874455 -0.0717927 0.024848996 0.033540554 0.011836281

net.3.bias f4 [6]
00000000: f353 ed35 72e8 9735 571a 1535 b79f f5b5
00000010: 5bf2 3935 a536 e5b5
1.7682308e-06 1.1318027e-06 5.5545155e-07 -1.8300406e-06 6.9270544e-07 -1.7077733e-06

net.4.weight f4 [6]
00000000: 2a78 b93f 0499 e83e 79ba 2d3f 73c9 403f
00000010: 736c 143f f367 313f
1.4489796 0.45429242 0.6786266 0.7530739 0.5797798 0.6929924

net.4.bias f4 [6]
00000000: 5a2e 1d3f 16cb 773e 8d11 a83e d961 c43e
00000010: 2fa7 963e be4f b93e
0.6139885 0.24198565 0.3282589 0.38355902 0.29424426 0.3619365

net.4.running_mean f4 [6]
00000000: 1034 abba 64c6 6b3c 5aa2 1abc 2c0d a5bc
00000010: dde7 35bb 2131 42bc
-0.001306178 0.014390562 -0.009438122 -0.020147882 -0.002775661 -0.011852534

net.4.running_var f4 [6]
00000000: 825b 703b 1dd4 ce39 4aef 603a 709f 633a
00000010: 768f 103a a954 383a
0.0036675637 0.0003944942 0.0008580579 0.0008683121 0.00055145414 0.00070316583

net.6.weight f4 [17, 6]
00000000: 439c 043f fe62 2bbe e037 88be b8d2 8dbe
00000010: fae8 95be b9a1 5abe d679 083f 2873 99be
00000020: 5d2d 2dbe ff88 9fbe 9b72 40be 32b6 37be
00000030: 475c c23e 4628 6fbd 8233 22be 98f5 49be
00000040: 70a2 ddbd f149 28be 5640 a13e 66d1 1fbd
00000050: f789 14be 4062 18be ddf8 9abd 43a1 13be
00000060: d357 9d3e 9681 85bd fcc0 97bd 9ab2 0ebe
00000070: 67ac c2bd ed4d a6bd 7579 d13e 6ea3 97bd
00000080: a5a4 1cbe 9cbe 4bbe bbe0 ebbd 631d 22be
00000090: b57e 393e c9e4 b2bc c57a 99bd ada7 9ebd
000000a0: 1fb3 15bd 45a3 92bd 3984 083f 23a1 81be
000000b0: 5f42 ebbd 93d7 8dbe 5a49 53be 9e25 15be
000000c0: 2210 b33d a9cc 1fbc 2213 17bd 14f8 10bd
000000d0: 7868 84bc 6ac9 0ebd c257 023f 0200 31be
000000e0: eded 2ebe 5960 93be 0400 4abe 04ba 3abe
000000f0: 5715 e53e 96b2 eebd b0bb 17be 8574 62be
00000100: a352 0cbe 8d7f 21be 21e8 cd3e fcf7 b3bd
00000110: 5847 d1be f99c a8bd dd09 60be 5ba2 d9be
00000120: 8024 d73e dc72 acbd a93f 1cbe d31c 4cbe
00000130: bc61 f7bd 140b 23be edbc 323e ee9a b6bc
00000140: eaee 86bd 4706 92bd 93d8 0cbd ce6a 80bd
00000150: 5c46 bd3d a963 27bc b474 1dbd 9978 19bd
00000160: c7d7 8ebc 31d7 13bd 1b54 963e 1ff8 11bd
00000170: 12dd 0ebe e5e4 0abe 34fa 89bd 3b75 0ebe
00000180: 0a66 ee3e e741 323d 8d1a 86be d598 87be
00000190: 8209 94be 0806 89be
0.51800936 -0.16736981 -0.2660513 -0.27699828 -0.2927931 -0.21350755 0.53310907 -0.2997067
-0.16911836 -0.31159207 -0.18793719 -0.17940596 0.37961027 -0.058388017 -0.15839961 -0.19722593
-0.10821998 -0.16434456 0.31494397 -0.039018057 -0.14505754 -0.1488123 -0.07566998 -0.14416985
0.30731067 -0.06518857 -0.07409856 -0.13935319 -0.095055394 -0.08120332 0.40912977 -0.074042186
-0.15297182 -0.1989693 -0.11517473 -0.15831523 0.18114741 -0.021837609 -0.074941196 -0.07746825
-0.036547776 -0.071600474 0.53326756 -0.2531825 -0.11487269 -0.27703533 -0.2063345 -0.14565131
0.087433115 -0.009753385 -0.03688348 -0.035392836 -0.016163096 -0.034860052 0.5091516 -0.17285159
-0.17082949 -0.28784445 -0.19726568 -0.18235022 0.44742844 -0.11655156 -0.14817691 -0.22114761
-0.13703398 -0.15771313 0.40216163 -0.08787534 -0.40874743 -0.08233065 -0.21878763 -0.4250668
0.42020035 -0.08420345 -0.1525866 -0.1993287 -0.12079188 -0.15922195 0.17454882 -0.022290673
-0.06588538 -0.071301036 -0.03438623 -0.062703714 0.092419356 -0.010216632 -0.038441375 -0.037468527
-0.017436875 -0.036093894 0.29361042 -0.035637017 -0.13951519 -0.13563879 -0.067371756 -0.13911907
0.46562225 0.04351988 -0.26192132 -0.2648379 -0.28913504 -0.26762414

net.6.bias f4 [17]
00000000: f9d4 d73d 5522 653d 5b8e edba eb27 9cbb
00000010: 3a1f 12bc fef0 d2bb f602 aabb 7065 cdbb
00000020: 45cb e5ba ece4 043d 6c70 13bc 0844 3b3e
00000030: e719 a7bb 4ccc 97bb 4b26 eeba 920e d2ba
00000040: 21c5 b03d
0.10538668 0.055940945 -0.001812409 -0.004765501 -0.008918578 -0.00643742 -0.0051883413 -0.006268196
-0.0017531893 0.03244488 -0.008998971 0.1828767 -0.0050995233 -0.0046325084 -0.0018169371 -0.0016026071
0.08631349
