30 weight-optimized multi-task models/model_11.pt (torch_old, 4405 bytes, 14 tensors)

net.0.weight f4 [20, 6]
0.046594117 0.10530106 -0.10843396 -0.0056942073 0.0978029 0.08576559 0.07188884 -0.021930216
0.08780917 -0.041325517 -0.14333382 0.08367297 0.055548914 -0.0048440015 0.10018655 0.03341179
-0.015298568 0.024375338 0.08736756 0.0019758204 0.18748894 0.18866561 0.04647343 0.07739539
0.17427647 -0.020994402 -0.23970711 -0.014038667 -0.016605338 0.06601563 -0.026870944 -0.10832977
-0.002267492 0.0046927514 0.060746204 0.093455665 -0.11495127 -0.10716461 -0.0032260427 0.16185845
-0.04708757 0.09096625 -0.18240333 0.038307644 -0.062215295 -0.076811954 0.029625136 -0.067034595
-0.10384849 0.027290717 0.038146198 0.053370032 -0.038826786 0.019213157 0.11587535 -0.19257465
-0.019166404 0.054070342 0.09984618 -0.015663238 0.19525586 0.08944898 -0.103804536 -0.04886528
0.034531392 0.021837123 -0.0352762 -0.008917163 0.003677282 -0.028877394 -0.12528376 0.01775993
0.013176618 -0.010198317 0.028591692 0.09313673 -0.0083317105 -0.03351454 -0.04435495 -0.04638018
-0.07767342 -0.015329696 0.040305264 0.06559748 -0.22246894 -0.083343916 0.058125094 0.071229324
0.08205499 -0.04669227 0.0125416955 0.025335228 -0.14967059 -0.03242075 -0.0012172207 -0.046366576
0.0046089254 0.018611552 0.008497744 -0.012635818 -0.044365603 -0.02955064 0.10255962 -0.086902104
0.081585616 0.009304121 0.03887494 0.058273684 0.019751688 0.09345041 -0.00037103094 -0.15302181
-0.016724745 -0.03235251 0.0640079 -0.1288793 0.00959908 -0.07336611 0.053965207 -0.027566828
00000000: 79d9 3e3d 15a8 d73d a012 debd 7996 babb
00000010: e34c c83d dfa5 af3d 753a 933d ffa6 b3bc
00000020: 4bd5 b33d f244 29bd 1ac6 12be bc5c ab3d
00000030: 4287 633d 6eba 9ebb 9b2e cd3d cdda 083d
00000040: d8a6 7abc caae c73c c3ed b23d c47c 013b
00000050: 1afd 3f3e 8f31 413e ec5a 3e3d 7981 9e3d
00000060: 8875 323e 74fc abbc c875 75be 7002 66bc
00000070: eb07 88bc 3433 873d 7420 dcbc 00dc ddbd
00000080: 349a 14bb a7c5 993b 03d1 783d af65 bf3d
00000090: 926b ebbd 1e79 dbbd 046c 53bb 39be 253e
000000a0: e5de 40bd 834c ba3d f0c7 3abe 7ae8 1c3d
000000b0: 77d5 7ebd 964f 9dbd 6ab0 f23c 6f49 89bd
000000c0: 84ae d4bd c890 df3c 303f 1c3d 899a 5a3d
000000d0: d608 1fbd e964 9d3c 0e50 ed3d 4a32 45be
000000e0: dd02 9dbc dd78 5d3d 277c cc3d 3150 80bc
000000f0: 27f1 473e 0731 b73d 7997 d4bd f626 48bd
00000100: ca70 0d3d c4e3 b23c c77d 10bd 4b19 12bc
00000110: 8efe 703b 4990 ecbc 634a 00be 467d 913c
00000120: bee2 573c d716 27bc 2039 ea3c 78be be3d
00000130: ba81 08bc 8b46 09bd 89ad 35bd 25f9 3dbd
00000140: 3e13 9fbd 6829 7bbc 2217 253d f957 863d
00000150: e6ce 63be 37b0 aabd 9414 6e3d aee0 913d
00000160: 720c a83d 6540 3fbd af7b 4d3c d38b cf3c
00000170: 3f43 19be 9fcb 04bd 268b 9fba e1ea 3dbd
00000180: 7806 973b 4177 983c 1f3a 0b3c 7606 4fbc
00000190: b5b8 35bd 2f14 f2bc c70a d23d bbf9 b1bd
000001a0: 5c16 a73d 5070 183c 543b 1f3d 63b0 6e3d
000001b0: 4bce a13c ee62 bf3d ee86 c2b9 c0b1 1cbe
000001c0: 5502 89bc 1184 04bd 9316 833d eff8 03be
000001d0: 7645 1d3c f940 96bd 9f0a 5d3d d4d3 e1bc

net.0.bias f4 [20]
8.2639126e-08 1.2035584e-07 5.7465996e-08 9.6223e-08 -1.4859936e-07 -1.12956265e-07 -1.7154632e-07 1.849354e-07
2.4572646e-09 -9.778233e-09 -4.0986396e-07 9.577838e-08 5.6345364e-08 -3.9121957e-08 1.4069824e-08 3.5041117e-07
-6.8993042e-09 -4.3621737e-09 3.3251706e-07 -4.693936e-07
00000000: 5777 b133 293b 0134 88d0 7633 27a3 ce33
00000010: ae8e 1fb4 5d92 f2b3 4b32 38b4 a892 4634
00000020: a8dc 2831 20fd 27b2 460b dcb4 b9ae cd33
00000030: 6200 7233 0c07 28b3 beb7 7132 2520 bc34
00000040: ec0e edb1 16e2 95b1 cc84 b234 f700 fcb4

net.1.weight f4 [20]
0.14585242 0.12717226 0.10847723 0.17363611 0.1595444 0.11065813 0.14639774 0.20555936
0.13712882 0.25233632 0.16718484 0.10060972 0.052361485 0.098295465 0.16527611 0.1273797
0.0444779 0.16457681 0.17815094 0.16400433
00000000: 565a 153e 7239 023e 4f29 de3d aacd 313e
00000010: 9b5f 233e bba0 e23d 4ae9 153e 277e 523e
00000020: 7f6b 0c3e 3a32 813e 8132 2b3e 780c ce3d
00000030: ff78 563d 224f c93d 243e 293e d36f 023e
00000040: 752e 363d d386 283e 336d 363e c0f0 273e

net.1.bias f4 [20]
0.069781385 0.05719359 -0.014163908 -0.00398852 0.08121751 0.027537413 0.057796095 -0.028638242
-0.04013872 -0.050634477 0.026492272 0.05456976 -0.0017862963 -0.005621216 -0.01884366 0.006600797
-0.0027050425 -0.06399141 -0.10677417 0.013047326
00000000: 8be9 8e3d d343 6a3d bc0f 68bc 21b2 82bb
00000010: 5e55 a63d 2496 e13c 99bb 6c3d bf9a eabc
00000020: 8068 24bd 1966 4fbd 5206 d93c 8a84 5f3d
00000030: 2822 eaba 2d32 b8bb 055e 9abc 804b d83b
00000040: 1547 31bb ee0d 83bd 6bac dabd 74c4 553c

net.1.running_mean f4 [20]
-0.011861074 0.006300768 0.0028449122 -0.00036034937 -0.008914158 -0.0014547183 -0.0012550256 -0.0009459147
0.0001350348 0.0012815676 -0.0067875357 0.003992445 0.00076721684 -0.004132266 0.0019490815 -0.0040295226
0.0020987312 0.0023954825 0.001567748 0.004494058
00000000: f354 42bc ac76 ce3b b571 3a3b 46ed bcb9
00000010: b00c 12bc 3fac beba ac7f a4ba 43f7 77ba
00000020: 2198 0d39 46fa a73a fa69 debb 0ed3 823b
00000030: 0d1f 493a f667 87bb 5378 ff3a 160a 84bb
00000040: de8a 093b 87fd 1c3b e57c cd3a e442 933b

net.1.running_var f4 [20]
0.06332351 0.041293208 0.011754926 0.044693347 0.06988705 0.016353307 0.04056771 0.036195025
0.029034568 0.07987686 0.038252022 0.022231976 0.004138583 0.01229312 0.030091025 0.018054705
0.0039267195 0.051585656 0.011024848 0.07307086
00000000: c2af 813d 1123 293d bc97 403c 5f10 373d
00000010: f120 8f3d 5ff7 853c 542a 263d 3c41 143d
00000020: e7d9 ed3c 7b96 a33d 27ae 1c3d d51f b63c
00000030: f39c 873b 1569 493c 7481 f63c 76e7 933c
00000040: b6ab 803b 7b4b 533d 90a1 343c 2da6 953d

net.3.weight f4 [6, 20]
0.07817836 0.1282888 0.040787857 -0.10850573 0.0075895716 -0.06063924 0.050098658 0.132528
-0.11974001 -0.09244339 0.089839876 0.1073449 0.003732074 -0.028464993 0.06320997 0.042000692
0.015172804 -0.016573261 0.049386915 -0.13145512 0.07506538 0.056139324 0.04762218 -0.04731276
0.03880086 -0.06746444 0.14525923 0.04823258 -0.02704925 -0.11476721 0.024752062 -0.048045125
0.03715118 -0.077656426 -0.059707157 0.114515185 -0.047274075 0.075539686 0.006480721 -0.05611614
0.037279475 0.01163061 0.025251577 0.014596789 0.06525243 0.089113966 -0.0028148377 0.0051261317
0.006963964 -0.07259671 -0.01909318 -0.050326888 -0.029363351 0.0002831018 -0.06667114 0.0015544973
0.0014627688 -0.027157666 -0.02828576 0.012742556 -0.038544666 0.022046953 0.061271947 0.043572646
0.13610217 -0.0028931573 -0.012299509 0.11671102 -0.0068317107 -0.045545883 0.120314665 -0.06981197
-0.031243475 -0.061260726 -0.08479667 0.056305125 0.0059744394 -0.0016069581 -0.0010196563 0.046055112
-0.027623666 0.0040568756 0.067437805 0.0104801105 0.008803276 -0.033523716 -0.03263356 -0.046697896
0.007617342 0.12361676 -0.10502552 -0.013257516 0.005614517 0.043427445 -0.03826377 0.07098618
-0.017505115 0.13313493 -0.12986104 0.07415629 -0.05459633 -0.0290915 -0.011351077 0.050161824
0.09856147 0.036369197 -0.044476505 0.06122209 0.0049455785 0.14483929 -0.016615616 0.0067562787
-0.02156639 -0.038352944 -0.10813297 0.03816609 -0.018409222 0.059623808 -0.07902399 0.03570717
00000000: fa1b a03d 245e 033e 2b11 273d 4138 debd
00000010: f1b1 f83b da60 78bd 4034 4d3d 6cb5 073e
00000020: 403a f5bd f652 bdbd f8fd b73d a5d7 db3d
00000030: d095 743b 6b2f e9bc 3b74 813d eb08 2c3d
00000040: 5a97 783c a6c4 87bc ef49 4a3d 2c9c 06be
00000050: e1bb 993d 59f2 653d 7a0f 433d 06cb 41bd
00000060: a7ed 1e3d cc2a 8abd d6be 143e 878f 453d
00000070: 6496 ddbc 120b ebbd d6c4 ca3c f7ca 44bd
00000080: d62b 183d 550a 9fbd 7e8f 74bd f086 ea3d
00000090: 76a2 41bd 8db4 9a3d 3a5c d43b 0ada 65bd
000000a0: 5db2 183d 508e 3e3c 65dc ce3c 5f27 6f3c
000000b0: 11a3 853d 6281 b63d 2479 38bb 1cf9 a73b
000000c0: f731 e43b 95ad 94bd 4d69 9cbc 9123 4ebd
000000d0: 698b f0bc 486d 9439 e18a 88bd 46c0 cb3a
000000e0: 60ba bf3a c179 debc 8ab7 e7bc 27c6 503c
000000f0: 03e1 1dbd d09b b43c 4bf8 7a3d 3b79 323d
00000100: 5e5e 0b3e 209b 3dbb e183 49bc 3006 ef3d
00000110: 8bdc dfbb 528e 3abd 8967 f63d 94f9 8ebd
00000120: 51f2 ffbc 87ec 7abd e0a9 adbd 34a0 663d
00000130: 3bc5 c33b 91a0 d2ba fda5 85ba 49a4 3c3d
00000140: 074b e2bc 8aef 843b d51c 8a3d c5b4 2b3c
00000150: 9e3b 103c 2a50 09bd c5aa 05bd 4b46 3fbd
00000160: e59a f93b c92a fd3d 9f17 d7bd 0d36 59bc
00000170: fbf9 b73b fae0 313d 79ba 1cbd 3461 913d
00000180: e366 8fbc 8654 083e 4bfa 04be 41df 973d
00000190: 67a0 5fbd 4c51 eebc def9 39bc 7c76 4d3d
000001a0: 99da c93d def7 143d ff2c 36bd 04c4 7a3d
000001b0: 850e a23b c050 143e 791d 88bc c663 dd3b
000001c0: ffab b0bc fa17 1dbd d274 ddbd 0c54 1c3d
000001d0: f0ce 96bc 1838 743d 54d7 a1bd ae41 123d

net.3.bias f4 [6]
-7.316666e-07 1.3194231e-06 -9.93539e-08 7.201919e-06 1.9349745e-06 2.9735008e-06
00000000: bf67 44b5 0817 b135 625c d5b3 03a8 f136
00000010: 9cda 0136 5b8c 4736

net.4.weight f4 [6]
0.9281023 0.7916961 0.3944683 0.9401054 0.83130115 0.9049563
00000000: 1d98 6d3f 98ac 4a3f c0f7 c93e bfaa 703f
00000010: 27d0 543f 37ab 673f

net.4.bias f4 [6]
0.58983445 0.4171546 0.22623746 0.34424093 0.40009198 0.2781886
00000000: 64ff 163f 4a95 d53e cbaa 673e 5940 b03e
00000010: dbd8 cc3e bc6e 8e3e

net.4.running_mean f4 [6]
0.022303602 0.014298253 0.0034628252 0.02613724 0.006438424 0.018252425
00000000: 0bb6 b63c 3843 6a3c 91f0 623b c41d d63c
00000010: 6af9 d23b 1c86 953c

net.4.running_var f4 [6]
0.0015791543 0.0009286084 0.00025747923 0.0007543999 0.0007754877 0.0013473341
00000000: a0fb ce3a db6d 733a 47fe 8639 ecc2 453a
00000010: 194a 4b3a 0899 b03a

net.6.weight f4 [17, 6]
-0.33948097 -0.34915793 0.24365492 0.31721038 0.29964542 0.26007354 -0.40827927 -0.23673408
0.181887 0.35141456 0.2533378 0.29413164 -0.26449546 -0.19832937 0.04171992 0.19451678
0.20474371 0.2177097 -0.21096382 -0.1712909 0.023855697 0.1475451 0.17444056 0.18202624
-0.21742688 -0.10444244 0.058407057 0.1711719 0.1460176 0.17211688 -0.2807539 -0.19119501
0.055594172 0.22123241 0.20783685 0.2408336 -0.1153942 -0.088672854 0.014958038 0.08588478
0.09967593 0.10548131 -0.3934515 -0.20265414 0.20059265 0.34802824 0.22734231 0.2841673
-0.053268023 -0.043268204 0.006222863 0.040335678 0.048598457 0.050845586 -0.37918416 -0.23094364
0.13799869 0.32587603 0.25015807 0.28160062 -0.3189021 -0.20030037 0.08060303 0.25923368
0.22016236 0.26136965 -0.19859818 -0.499772 0.009675385 0.12643479 0.3455748 0.24795096
-0.2887124 -0.1916103 0.061605893 0.23121955 0.20664293 0.245655 -0.10827738 -0.07942171
0.016038777 0.08487842 0.09219108 0.10085166 -0.056640632 -0.04495504 0.006606603 0.042197675
0.050354872 0.052906696 -0.19650866 -0.16569443 0.021113997 0.13455673 0.16693053 0.17069124
-0.32756835 -0.29350692 0.038958803 0.25927493 0.2210357 0.32135323
00000000: 73d0 adbe d4c4 b2be ad80 793e 6669 a23e
00000010: 206b 993e 5c28 853e fb09 d1be 6b6a 72be
00000020: 9640 3a3e 9cec b33e 7eb5 813e 6c98 963e
00000030: f36b 87be db16 4bbe 82e2 2a3d 682f 473e
00000040: 56a8 513e 4bef 5e3e e606 58be e266 2fbe
00000050: 066d c33c 1016 173e 8ca0 323e 1665 3a3e
00000060: 27a5 5ebe ebe5 d5bd 3d3c 6f3d b047 2f3e
00000070: a385 153e 683f 303e fabe 8fbe a0c8 43be
00000080: b7b6 633d c08a 623e 2fd3 543e 159d 763e
00000090: cb53 ecbd 1d9a b5bd 8f12 753c 5ce4 af3d
000000a0: e522 cc3d 9606 d83d 7a72 c9be 9184 4fbe
000000b0: 2968 4d3e c230 b23e 6ccc 683e 607e 913e
000000c0: 922f 5abd 003a 31bd 29e9 cb3b 0637 253d
000000d0: 2d0f 473d 7643 503d 6d24 c2be 7d7c 6cbe
000000e0: 874f 0d3e 39d9 a63e b814 803e f52d 903e
000000f0: 2347 a3be 8a1b 4dbe 3413 a53d 47ba 843e
00000100: 3e72 613e 3ed2 853e 525d 4bbe 1ee2 ffbe
00000110: 8285 1e3c 1f78 013e 2eef b03e dbe6 7d3e
00000120: 1dd2 93be 7e35 44be 7656 7c3d d1c4 6c3e
00000130: 349a 533e fc8c 7b3e 88c0 ddbd d9a7 a2bd
00000140: c163 833c bdd4 ad3d adce bc3d 518b ce3d
00000150: 0200 68bd c722 38bd 347c d83b 78d7 2c3d
00000160: e940 4e3d b1b4 583d 9139 49be cdab 29be
00000170: 43f7 ac3c 3dc9 093e d6ef 2a3e afc9 2e3e
00000180: 0ab7 a7be 8a46 96be 4493 1f3d afbf 843e
00000190: 2f57 623e 6988 a43e

net.6.bias f4 [17]
-0.10456832 -0.105797306 -0.030597642 -0.015205073 -0.036394957 -0.04562615 -0.0062641515 -0.10846092
-0.00090739725 -0.09327962 -0.05636771 0.031037843 -0.048274465 -0.007317682 -0.0020609968 -0.01043357
-0.04130006
00000000: ea27 d6bd 42ac d8bd e8a7 fabc b31e 79bc
00000010: e112 15bd 7ce2 3abd 8343 cdbb c220 debd
00000020: 66de 6dba 6309 bfbd d4e1 66bd 1343 fe3c
00000030: 72bb 45bd 2ac9 efbb ca11 07bb 90f1 2abc
00000040: 402a 29bd
