30 weight-optimized multi-task models/model_13.pt (torch_old, 4405 bytes, 14 tensors)

net.0.weight f4 [20, 6]
000000 0f 93 ca bd 94 c2 99 bc a2 99 91 bd 67 61 54 3c
       -0.098913305 -0.01876954 -0.07109381 0.012962676
000010 02 7a 0a be c2 4c e7 3d 5b 98 ea bd 24 43 a9 3d
       -0.13523105 0.11293937 -0.11454841 0.08264759
000020 4b f0 5a 3c 35 39 26 be a5 a8 ac bd 00 3c 1f bd
       0.013362954 -0.1623276 -0.08430604 -0.03887558
000030 cf 13 b7 3d ee 36 0d be 41 90 14 bd 3d 25 61 3c
       0.08939325 -0.13790485 -0.036270384 0.013741788
000040 ec d4 9e 3d c7 70 2e 3c e8 cf d8 3d 25 cc 28 3e
       0.077554554 0.010647005 0.1058653 0.16484125
000050 a4 7f f4 bc 5a 12 03 be 6d 4b 0b bd 72 78 89 bd
       -0.02984602 -0.1279997 -0.03400748 -0.06712426
000060 65 cf 4e bd 75 23 45 bd d6 1f 42 be ac d6 ee bc
       -0.050490756 -0.048129518 -0.18957457 -0.029155098
000070 74 25 b6 bb c4 94 dd bc ef 03 98 bd 66 48 e0 bc
       -0.005558664 -0.027048476 -0.07422625 -0.027378272
000080 a7 c0 91 bb b3 f3 34 3d 83 de 4b 3e 0c cc 8a bc
       -0.004448015 0.044177722 0.199091 -0.016943
000090 d0 a1 ad 3d d2 a2 79 ba b2 38 d4 bd ac 74 7d 3d
       0.08478129 -0.00095228583 -0.10362376 0.061878845
0000a0 50 ae 3f 3d 0a 56 a2 bc 23 c8 dc bd 16 83 7f be
       0.046797097 -0.019816417 -0.107803605 -0.24952349
0000b0 98 8a a9 3c 6a c7 b8 3d 2d 4b 15 3e d7 f9 33 3d
       0.02069597 0.0902241 0.14579459 0.043939438
0000c0 fb c9 d4 bd 6a ae 29 bd 4b d2 26 3d 91 29 53 3c
       -0.10390087 -0.0414261 0.040727895 0.012888328
0000d0 e0 e5 6a 3e d4 3c f7 bd d1 71 a8 bd 8d ef 31 3d
       0.22939253 -0.12072149 -0.08224834 0.043441344
0000e0 67 f7 a0 bc bd c0 23 be 76 35 a1 ba 99 92 8c 3d
       -0.01964922 -0.15991493 -0.0012299258 0.06863899
0000f0 19 54 10 bd c5 ee 1a 3e 2d 35 da 3d 90 74 77 bd
       -0.03523645 0.15130146 0.10654674 -0.060413897
000100 a6 51 9e bd dd 9e 0c 3d d4 2d 97 bd c0 c1 e8 bd
       -0.07730417 0.03433119 -0.07381788 -0.1136508
000110 14 aa 31 3d 3f 7d f2 3d 82 ab eb bd 5e e0 1c bd
       0.04337509 0.11840295 -0.11507322 -0.03829991
000120 87 23 3a 3e 56 c8 04 3e df c3 2a 3e 91 ff 7b 3d
       0.18177615 0.12967047 0.16676281 0.061523024
000130 fb 79 9f 3d f1 f6 3d bd af 38 30 3e ca 41 03 3c
       0.07786938 -0.04637808 0.17209123 0.008011291
000140 ee 36 0f 3d f2 c3 b8 3d 8b 24 2a bd 4a 00 c3 3a
       0.034964494 0.090217486 -0.041538756 0.0014877405
000150 62 1d 15 bc d3 da ca bb 23 2c 36 be c6 a6 36 be
       -0.009101244 -0.0061906367 -0.17790274 -0.17837057
000160 26 86 49 bd 72 3d 81 bd 9e 36 e0 bd d9 13 86 bc
       -0.0492002 -0.06310548 -0.109479174 -0.016366886
000170 df 21 e7 3d ae 44 bc bd dc 41 89 bd 1c 08 12 3d
       0.11285757 -0.09192787 -0.06702015 0.035652265
000180 c4 e6 10 3e d9 c3 c7 bc fd b8 8b bd ba 6c a5 3d
       0.1415053 -0.02438538 -0.06822393 0.080773786
000190 b4 c7 4b 3d d0 b0 a8 bd e8 91 41 bd cf f6 7a 3c
       0.049751 -0.08236849 -0.047258288 0.015317633
0001a0 8b ce 04 be 42 87 b1 ba 7d c4 0a 3c ee 12 f3 bc
       -0.12969415 -0.0013544338 0.008469698 -0.029672112
0001b0 92 d9 1b bd 0b 45 20 bd f0 7e 49 3d 78 95 d3 3d
       -0.038049288 -0.039128345 0.049193323 0.10331243
0001c0 c2 be 41 bd a6 88 d8 3c 03 e3 4b 3e 75 f1 da 3d
       -0.04730106 0.026432347 0.19910817 0.106905855
0001d0 d8 7a 11 3d 33 8e aa 3d 68 7e 4c 3d b8 cb db 3d
       0.035517544 0.083279036 0.049925238 0.10732216

net.0.bias f4 [20]
000000 75 08 e8 b3 0b 47 3f 34 ba f0 c0 33 c5 b7 0b 35
       -1.080488e-07 1.7814106e-07 8.9844846e-08 5.2048955e-07
000010 52 08 34 b4 97 9f cd 33 cb d1 00 33 43 4d 6d b3
       -1.6766833e-07 9.5750856e-08 2.9993128e-08 -5.525113e-08
000020 b6 f5 2d b4 9b d0 f1 b3 ce e9 ee 33 74 17 51 b3
       -1.620127e-07 -1.1260382e-07 1.11252675e-07 -4.8682935e-08
000030 79 d6 3e 32 45 8c 65 32 07 fc 7e b3 8c 73 a7 32
       1.1108221e-08 1.3361448e-08 -5.93682e-08 1.9493903e-08
000040 85 1f 83 b4 f5 27 82 33 4f 3f 21 34 a4 6e c0 34
       -2.4423585e-07 6.060865e-08 1.5017325e-07 3.5843289e-07

net.1.weight f4 [20]
000000 5f 6a 0b 3e 57 4c e1 3d ba b7 5c 3e 9f 70 13 3e
       0.13614796 0.11000889 0.21554461 0.1439843
000010 c1 c2 13 3e 38 40 bd 3d be 96 cc 3d 12 bf 38 3e
       0.14429761 0.092407644 0.09989689 0.18041638
000020 1e 75 36 3e c8 b8 be 3d f4 99 e6 3d 35 95 16 3e
       0.17818114 0.09312588 0.11259833 0.14705355
000030 f8 64 45 3e 55 9e 13 3e eb 03 2d 3e 25 32 23 3e
       0.19276798 0.14415868 0.16896026 0.15937097
000040 9e cb b9 3d 85 8a 10 3e b2 67 d7 3d 44 d6 25 3e
       0.0907204 0.14115341 0.10517825 0.16195017

net.1.bias f4 [20]
000000 1f 7f 93 3d 5a 6e 91 3d af c3 83 bc 2b d5 5f bd
       0.07201981 0.07101126 -0.01608452 -0.054646652
000010 42 a3 0f bd 6b 0c 58 3d 18 fb 57 3d 2c b2 de 3d
       -0.035067804 0.052746218 0.052729696 0.10873827
000020 91 fe 98 bd f6 dc 99 bc 7f 72 11 3d 80 c9 0a 3d
       -0.0747043 -0.01878212 0.035509583 0.03388357
000030 36 1e 2b bb 29 7f b1 bc 97 5d ca 3c 3b 04 ac 3b
       -0.0026110536 -0.02166708 0.02470283 0.0052495277
000040 f9 01 be 3c 47 54 e5 bd 47 1e 79 bd a1 7b 75 bc
       0.0231943 -0.11197715 -0.06081989 -0.014983089

net.1.running_mean f4 [20]
000000 c5 4c 38 3c 82 57 42 3c 02 fe 1d bc 57 71 60 3b
       0.011248772 0.011861684 -0.00964308 0.0034247243
000010 ed a4 33 ba 21 0a 65 bc 8b d8 f5 bb 38 ef 45 bc
       -0.0006852884 -0.013979466 -0.0075026206 -0.01208096
000020 63 2c 81 bc 2e 0d b6 3b 77 df 26 3c b9 99 d1 3b
       -0.015768236 0.0055557704 0.010185114 0.006396499
000030 7f e3 ea bb 80 8f ef ba 14 9e 8c 3b f1 0d 27 3c
       -0.007168233 -0.0018277019 0.0042913053 0.010196195
000040 1e 16 22 bc e3 01 8c ba 14 27 14 3b b1 fe d3 bb
       -0.009892968 -0.0010681715 0.00226063 -0.0064695706

net.1.running_var f4 [20]
000000 48 76 4f 3d 3f 15 0f 3d 17 8b 55 3d c7 2e fd 3b
       0.05064991 0.03493237 0.0521346 0.0077265236
000010 3c 77 e3 3c 59 cf 92 3c f3 cf 9a 3c 53 32 b5 3c
       0.027766816 0.017921137 0.018897986 0.022118723
000020 da 33 a5 3c 28 79 33 3c c3 00 b6 3c 7c e5 f8 3c
       0.020166326 0.010954179 0.02221716 0.030382864
000030 2d 87 3f 3d c9 2d 82 3c e1 f8 f4 3c ca 04 f4 3c
       0.046759773 0.015890973 0.029903831 0.02978744
000040 5a ea c1 3c 74 69 c6 3c 18 20 1b 3c a2 6c 5e 3d
       0.023671318 0.024220206 0.009468101 0.05430282

net.3.weight f4 [6, 20]
000000 76 32 0b 3a 65 44 1b bd 30 dd ff bc 77 87 40 bd
       0.00053099485 -0.037907023 -0.0312334 -0.04700419
000010 0d 2b 0f 3c 6e 5a d4 ba ac 0f 91 3d 98 91 b3 bd
       0.008738291 -0.0016201267 0.07083067 -0.08768004
000020 59 1c 4f 3d a5 5b cf 3b 83 54 0b 3d 0b 9e 8c bc
       0.050564144 0.0063280636 0.034016144 -0.017165205
000030 dd 6d 9c bd 30 37 09 3d 3a a8 ce bd 86 ef ac 3c
       -0.07638142 0.033499897 -0.100906804 0.021110307
000040 3c 53 c3 3c 78 af a3 bc 24 cc 18 bd e0 11 0f 3c
       0.0238434 -0.019981131 -0.03730406 0.008732289
000050 9c 2c 92 bc c6 21 d0 bd d0 06 a5 bd 43 ce fd 39
       -0.017843537 -0.10162692 -0.0805794 0.00048409597
000060 dd 6e cd 3d e9 97 b3 bd 64 2f 85 3d 88 40 f0 3c
       0.10030911 -0.08769209 0.0650318 0.029327646
000070 f3 64 d2 bd 4c 74 4a bd ef a0 f3 bc 05 84 bc bd
       -0.10273161 -0.049427316 -0.029739825 -0.09204868
000080 98 52 8e 3d 00 45 fe bc 5c 01 21 3d bd 29 50 3d
       0.06949347 -0.031038761 0.039307937 0.050821055
000090 41 33 e4 bb da c6 6e 3d da f3 2b 3d 8d 3d 2c 3e
       -0.0069641178 0.05829511 0.0419806 0.16820355
0000a0 16 5d 81 bd e2 02 e0 3d df 08 1a bc 1a ed 87 bd
       -0.06316583 0.1093805 -0.009401529 -0.066370204
0000b0 7a ad 3f 3d 47 aa 0a bd 0f 4e 6f 3d 47 ad 25 be
       0.0467963 -0.033853795 0.05842405 -0.16179381
0000c0 6c d2 21 3d 50 eb b2 bb 6a 7f 8a bd e2 ea 0b 3e
       0.039507315 -0.0054601803 -0.067625836 0.1366382
0000d0 cf 1f 67 bd 26 2e 95 3d 1e 48 c7 bd f3 7e c6 3d
       -0.05642682 0.07284193 -0.09730552 0.096921824
0000e0 9a 6b 1e 3d c5 97 82 bd b9 36 cc bc df d1 68 bd
       0.038676836 -0.06376604 -0.024928438 -0.056840774
0000f0 8f 31 06 bd 8d b5 49 bc 16 39 3a 3e 2f 09 ad bd
       -0.032762107 -0.0123113515 0.18185839 -0.08449017
000100 b7 38 a8 3d 11 b1 c8 bd c3 8e 63 bb 26 7b 85 3d
       0.082139425 -0.09799398 -0.0034722544 0.06517629
000110 f8 27 08 bc 31 f1 1f 3b f7 27 f3 3b d3 b3 5c bd
       -0.008310311 0.0024405236 0.0074205357 -0.05388243
000120 d8 83 e1 3c 1a 34 b5 3c 32 49 23 3d 07 72 4e bd
       0.027528688 0.02211957 0.039864726 -0.050401714
000130 d2 ee ef 3d 47 1e 1e 3c 7b 25 c0 bc a7 b1 3e 3d
       0.11715473 0.009650773 -0.023455372 0.04655614
000140 57 1e 8d bd e7 1f 22 bd 75 c6 a6 3c 02 ae ba bd
       -0.068905525 -0.039581206 0.020358304 -0.091152206
000150 6a d9 4c 3d de 6f a9 bc eb 29 31 3d c1 74 0b 3d
       0.05001203 -0.020683225 0.043252867 0.034046892
000160 ea 67 8e bd 7a 08 17 3d 5f d9 92 3d 30 74 5d 3d
       -0.06953414 0.03687332 0.071703665 0.054065883
000170 ef c4 db 3d 79 64 25 3e 3a aa 85 3d 5c 13 b2 bd
       0.107309215 0.16151609 0.06526609 -0.08695099
000180 03 02 66 3d db c8 96 bd a2 6b c6 bc 6e de ba bc
       0.056154262 -0.07362529 -0.024221245 -0.02281114
000190 68 bd 29 3e 2e ae 30 bd 5f 79 16 be 2b 96 91 bd
       0.16576159 -0.04313486 -0.14694737 -0.071087204
0001a0 3d f0 cf 3d be ba 5e 3c 94 92 b1 3d a7 f8 69 bd
       0.10153244 0.0135943275 0.08670536 -0.0571219
0001b0 a0 80 e4 3c cc 01 c3 3d 73 b5 b9 bd e7 1b 11 3d
       0.027893364 0.09521827 -0.09067812 0.035427
0001c0 5c 31 39 3c 99 98 49 3d cc e8 a6 bc 2f d2 b2 39
       0.011303272 0.049217794 -0.020374678 0.00034107405
0001d0 99 49 7a 3c 80 09 1e 3e 6f bd bf bd 69 7e 5c 3d
       0.015276336 0.15433311 -0.093623035 0.05383149

net.3.bias f4 [6]
000000 b7 7c 18 b7 90 06 3a 36 ad af 1c 37 79 92 31 37
       -9.088943e-06 2.771998e-06 9.339227e-06 1.0584125e-05
000010 b8 04 9f b6 9b a2 bd b6
       -4.7391186e-06 -5.6515687e-06

net.4.weight f4 [6]
000000 41 af 02 3f fe ea 39 3f 00 43 42 3f b6 a0 82 3f
       0.51048666 0.72624195 0.75883484 1.0205295
000010 4d 99 5b 3f 12 1a 84 3f
       0.85780793 1.0320456

net.4.bias f4 [6]
000000 41 ac 22 3e 4e 0a a9 3e e4 fb f0 3e 14 f1 cb 3e
       0.15886022 0.33015674 0.47067177 0.39832366
000010 0f 7d cd 3e 76 2d 12 3f
       0.40134475 0.5710062

net.4.running_mean f4 [6]
000000 8a e7 af bc 3b 83 60 bb 86 42 71 bc bb 80 ac 3c
       -0.021472711 -0.0034257907 -0.014725333 0.021057477
000010 fa 1b a9 3c 81 59 07 3c
       0.020643223 0.0082610855

net.4.running_var f4 [6]
000000 24 48 c2 39 a5 9d 1a 3a 5f 09 ae 3a 64 35 0a 3b
       0.00037056312 0.00058981247 0.0013277939 0.0021088952
000010 ea 14 88 3a a7 2f ef 3a
       0.001038221 0.0018248454

net.6.weight f4 [17, 6]
000000 e0 b5 02 be e2 02 a3 3e 29 c0 9a be 07 2e b7 3e
       -0.12764692 0.31838137 -0.30224732 0.35777304
000010 f1 1b 7e 3e df 87 db be b3 19 ef 3c d8 ed ae 3e
       0.24815346 -0.428771 0.029187059 0.34165835
000020 56 12 ac be d4 f5 c0 3e 9d df 66 3e b0 7d d4 be
       -0.3360774 0.37687552 0.22546239 -0.41502142
000030 56 9f a7 bd 7e c8 0c 3e 29 d9 27 be cc f4 8a 3e
       -0.08184688 0.13748357 -0.16391434 0.2713989
000040 5a c3 77 3e 25 fb 8e be 95 71 a6 bd f8 5d bb 3d
       0.24195614 -0.27925983 -0.08127133 0.091487825
000050 02 59 f6 bd bb 69 6a 3e d6 10 4d 3e 9e dd 72 be
       -0.12028696 0.22891895 0.20025954 -0.23717353
000060 40 c5 08 bd 87 05 10 3e ee ce 35 be 7a 0a 5c 3e
       -0.033391237 0.14064609 -0.17754719 0.21488371
000070 c7 a3 3f 3e 42 6e 23 be 3b f3 a1 bd 37 0d 24 3e
       0.1871482 -0.15960029 -0.07907721 0.16020666
000080 8c 0a 44 be e9 26 95 3e e6 9e 7e 3e 7c 4c 8a be
       -0.19144648 0.2913125 0.24865302 -0.27011478
000090 b9 03 21 bd c0 ef 4c 3d 28 01 8d bd d1 3b 07 3e
       -0.03931019 0.05003333 -0.06884986 0.13206412
0000a0 31 3d e3 3d a7 41 00 be 5e 87 07 3b f5 5c a0 3e
       0.11095656 -0.12525044 0.002068005 0.3132092
0000b0 8c 35 af be 0b 2f c8 3e e9 f8 4e 3e bf 6f af be
       -0.3422054 0.3909839 0.20212139 -0.34264943
0000c0 87 b3 9e bc 4f c9 a3 3c e7 32 fd bc 69 61 81 3d
       -0.019372715 0.019993452 -0.030908061 0.06317408
0000d0 a5 d0 56 3d b7 11 7d bd 33 8b 22 bd 5f f1 89 3e
       0.052445073 -0.061784472 -0.039683532 0.26941964
0000e0 69 43 9c be e9 71 b3 3e c2 0c 8d 3e cd 76 b6 be
       -0.3052018 0.35047844 0.27548796 -0.35637513
0000f0 31 05 6a bd 1d 11 44 3e d8 fb 7d be b0 46 a4 3e
       -0.057133857 0.19147153 -0.24803102 0.3208518
000100 cc d0 74 3e 1e c9 90 be 03 9f d8 be 60 0d be 3d
       0.23907775 -0.2827844 -0.42308816 0.09279895
000110 33 5b 37 be 01 44 a6 3e ab f3 41 3e 0d d9 f2 be
       -0.17905883 0.32473758 0.18940608 -0.47431222
000120 6d 5c 90 bd d3 57 28 3e 40 e2 56 be a8 20 99 3e
       -0.07048879 0.16439752 -0.20984745 0.29907727
000130 c5 01 7c 3e 9c 0f 8a be 90 21 08 bd 87 4a 51 3d
       0.2461005 -0.26965034 -0.033235133 0.051096465
000140 df 1a 8e bd 76 89 01 3e 4c ce d4 3d a4 dc e5 bd
       -0.06938719 0.12650093 0.103909105 -0.112237245
000150 96 0a a2 bc db 1e b4 3c f8 e0 08 bd 4b 83 89 3d
       -0.019780438 0.02198737 -0.033417672 0.06714495
000160 fd a5 65 3d dc 83 83 bd d0 58 a5 bd a9 88 9f 3d
       0.056066502 -0.064216346 -0.0807358 0.07789738
000170 df 37 db bd 5a 15 5a 3e 14 f1 3a 3e 38 7b 6a be
       -0.10704016 0.21297207 0.18256027 -0.22898567
000180 a4 f1 60 be 6a 9e 58 3e f6 8c 6c be 66 84 7d 3e
       -0.21967179 0.2115418 -0.23100647 0.24757537
000190 63 4a d1 3e 99 0f ad be
       0.40877065 -0.33800963

net.6.bias f4 [17]
000000 39 c1 b6 3c ca dd 93 bc ab b3 e4 bc ff cb 67 bc
       0.022308933 -0.018050093 -0.027917704 -0.014147758
000010 5a 40 05 bd 7e 43 20 bd 05 96 cd bb f9 f1 21 bd
       -0.032532074 -0.039126866 -0.0062739872 -0.039537404
000020 ee bd ca ba b1 41 fa bc 78 9c 00 bd 1f 0d 4d 3e
       -0.001546798 -0.030548902 -0.03139922 0.20024537
000030 90 c6 0b bd 36 f0 c5 bb f9 e4 ab ba 46 01 30 bc
       -0.03412491 -0.0060405983 -0.0013114504 -0.010742491
000040 31 f9 c6 bc
       -0.024288746
