30 weight-optimized multi-task models/model_16.pt (torch_old, 4405 bytes, 14 tensors)

net.0.weight f4 [20, 6]
00000000: c9b7 6dbb a8ee f03b 3712 b43b fbbd 323b
00000010: 120a 09bb 7e0e 413b 4e42 a53d 5d63 5cbe
00000020: 2dfa 263c 626e 713d 18d9 053e fcd4 ff3b
00000030: af57 b5bd 1693 d2bd b6f8 6c3d e668 53bc
00000040: 7155 3dbe 6128 083e 84ec f93d f2d1 453e
00000050: 51a8 11bd b419 34be 0ecc 06bc 5c4b 7dbd
00000060: 1c61 34bc f1f1 ff3b 8c1b 09be 4e1b 42be
00000070: b7b4 18bd 8835 4bbd 9ea2 2e3d e391 c0bc
00000080: 653d 67bd d398 89bd f45b 033d 4151 54bc
00000090: ee87 d7bc 9f30 7e3d 946f 33bd c7cf 2d3d
000000a0: 98cb 3d3e 37c9 8f3c b8dd bcbd 08ed 2abe
000000b0: 0fc8 263d fcdc f93d 8fe1 d83d 7e0a 023d
000000c0: e446 4abe 2c0b b0bd 8750 d53b 2937 803b
000000d0: fbb7 f23d 1f1b e9bd e953 17be ebe8 11bd
000000e0: 7f0e 6dbd 23ca 5f3d afa2 62bd d79c cabc
000000f0: 9456 17bd 4013 48bd 181c 9cbd c42f 1cbd
00000100: 3574 7e3d 22db 073d 2925 583d c767 39bc
00000110: 8323 233c 2549 b3bd 8cf3 20be 0589 cd3d
00000120: 1c8c bcbd ea16 253d 5037 58bd dddc 9f3b
00000130: 10fd 7cbd 839e 3b3d 86e8 4b3b 3316 2fbb
00000140: 6be1 2abc 6b71 b43b b5c1 013b 3672 97b9
00000150: f076 e93d 98a3 413d fe22 3e3e 4e15 373e
00000160: 0d50 083e a0b5 503d 58c0 653e 5f3b 1c3d
00000170: d52a d8bd 90ee 9c3d dd1d bb3c f953 c23d
00000180: c291 623d ef3b 83bd 1027 c13c eb15 bbbc
00000190: 2777 e2bd e1b0 fa3c ba88 783e 970e babd
000001a0: 39bf 0dbd 5276 803d 2715 dabc 0f04 d23b
000001b0: ee59 5ebd a84c f3bc 94b0 5bbe e44d 00bd
000001c0: a491 4a3d 2252 8cbd 43b6 e5bd 88d3 d8bb
000001d0: cbb8 c43d 08f9 033d e2de f2bd cf46 96bc
-0.0036272875 0.007352669 0.0054953354 0.0027273882 -0.0020910543 0.00294581 0.08069287 -0.21522279
0.0101914825 0.05894316 0.13071096 0.007807372 -0.08854615 -0.10281961 0.057854377 -0.012903428
-0.18489625 0.13296653 0.12203315 0.19318369 -0.03556091 -0.1758793 -0.008227361 -0.061839446
-0.011009481 0.007810824 -0.13389415 -0.18955728 -0.037281718 -0.0496116 0.042635553 -0.023507064
-0.056455035 -0.06718602 0.032070115 -0.012958826 -0.026309934 0.062058087 -0.04380758 0.04243448
0.18534696 0.017552001 -0.09221977 -0.16691983 0.040718134 0.122003525 0.10589897 0.031748287
-0.19753605 -0.08595881 0.0065098437 0.0039128256 0.11851498 -0.11382126 -0.14778103 -0.03562252
-0.057875153 0.054636132 -0.05533093 -0.02473299 -0.0369478 -0.048846483 -0.07622546 -0.03813149
0.062122542 0.033167966 0.052769814 -0.011316246 0.009957197 -0.087541856 -0.15717906 0.100359
-0.09206411 0.040305056 -0.052787125 0.004878624 -0.061764777 0.045805465 0.0031113937 -0.0026716113
-0.01042972 0.0055066845 0.0019799296 -0.00028886058 0.11399639 0.047275156 0.18568036 0.17879221
0.13311787 0.05095446 0.22436655 0.03814256 -0.105550446 0.0766269 0.022841388 0.09488673
0.055314787 -0.06407916 0.023578197 -0.0228376 -0.11057883 0.03060192 0.24270907 -0.09084814
-0.034606192 0.06272568 -0.026621414 0.006409175 -0.054284982 -0.029699638 -0.21454078 -0.031324282
0.0494553 -0.06851603 -0.11216404 -0.0066170134 0.09605559 0.032219917 -0.11858918 -0.018344311

net.0.bias f4 [20]
00000000: 340b c5a9 0747 cb33 da6a 89b4 76df 61b1
00000010: ca28 3ab4 eb4b 0934 3d8b 3e35 fa05 a334
00000020: 59d5 8234 f6c5 b534 1417 de33 1894 66b4
00000030: 84a9 18b4 51ff bf1e 6b50 d0b4 7ced 9534
00000040: 47a4 2133 18c6 8d34 404a 9333 7e60 0434
-8.750501e-14 9.465844e-08 -2.5595983e-07 -3.2868832e-09 -1.7337439e-07 1.2786738e-07 7.0983134e-07 3.0365464e-07
2.4369618e-07 3.3857913e-07 1.03418785e-07 -2.1474295e-07 -1.4217773e-07 2.0328508e-20 -3.880153e-07 2.7926205e-07
3.7635143e-08 2.640743e-07 6.858727e-08 1.2328562e-07

net.1.weight f4 [20]
00000000: 4165 903b 4873 7b3e 131e 0c3e 7d37 1a3e
00000010: 2bf4 083e 413d af3d 10e0 003e 30bc c43d
00000020: 1534 163e d109 313e 73ff b43d 368e e43d
00000030: 3537 dc3d 9f3b 073c a573 3c3e effe 0e3e
00000040: 2188 db3d 0ab3 873e e495 083e d486 e13d
0.0044066017 0.24555695 0.13683347 0.1506023 0.13374393 0.08556605 0.12585473 0.096062064
0.14668305 0.17288901 0.088377856 0.11159937 0.107527174 0.008253961 0.1840349 0.13964437
0.10719324 0.26503783 0.13338429 0.110120445

net.1.bias f4 [20]
00000000: ed59 41bc 3ff7 a1bc ee73 833b 20ab edba
00000010: 7f9b 8e3c 461e 1e3c 3ec7 413d 9233 853d
00000020: fd0d 0abd edb2 3bbd 346f 0ebd 5df9 7bbb
00000030: 4b9e 3b3c df08 87bc 2ffe 1dbc 64bc 833d
00000040: d388 96bb 0a73 75be 68d5 a43c 150c 683d
-0.011801225 -0.019771216 0.0040116226 -0.0018132664 0.01740813 0.009650772 0.047309153 0.06503977
-0.033704747 -0.045824934 -0.03477402 -0.0038448193 0.011451314 -0.016483722 -0.009643122 0.06432417
-0.0045939474 -0.23969665 0.020121291 0.056652147

net.1.running_mean f4 [20]
00000000: 61b2 3f3a 0e24 91bc 0878 b43c e96d 1cbb
00000010: 8856 55bb 8743 f2bb 6f11 86bc 019b f0bb
00000020: 55bc 0cbc 2f6f e33b a560 08bc 8738 633c
00000030: cc15 033c 7ac0 34ba 1af9 b8bb 8765 21bc
00000040: 43c8 093c 32d7 efbb f030 54bc dcbd 923c
0.00073126523 -0.017717388 0.022029892 -0.0023869222 -0.0032552797 -0.007393304 -0.016365735 -0.0073426967
-0.008589824 0.0069407444 -0.008323823 0.013868458 0.008000802 -0.00068951363 -0.0056449296 -0.009850866
0.0084095625 -0.0073193545 -0.012951121 0.017912798

net.1.running_var f4 [20]
00000000: 152f 2f39 4274 b13d 374a 1b3d 247c 793c
00000010: 4f2e d73c 7a2d 813c 548e 333d f3bc ce3b
00000020: db93 993c 7ea4 3d3d 1957 2b3c d7d4 853c
00000030: e875 193d fd2d 2f39 9939 713d 2e30 953d
00000040: 8624 8b3c 3f94 8a3d 4d03 233d 0fc1 443d
0.0001670684 0.086647525 0.037912574 0.015227351 0.026267199 0.015768755 0.043836907 0.0063091456
0.01874726 0.04629945 0.010457777 0.016336842 0.03746596 0.00016706433 0.05889282 0.0728458
0.01698519 0.06766557 0.03979807 0.048035678

net.3.weight f4 [6, 20]
00000000: e29b 043c cd5b ccbd 21b3 5d3c 6d87 a7bd
00000010: 76a0 d0bd 8bf4 3bbd 4d26 aa3d 496c 16be
00000020: b291 853b f269 3fbd 7f87 873b 3da1 123e
00000030: 731a 83bb 6de2 09ba a72b cdbd fc65 0ebd
00000040: aa96 e93d b9e5 e43d c5eb d93d 5e24 cebc
00000050: fd09 383b e9cc bd3a 25ef 0abe eb74 703c
00000060: 8531 903d 33c3 09bc 9d96 f63a 4574 31bd
00000070: ebc7 b6bd fbeb af3d 2814 863c c397 043d
00000080: e9bd 553c 4862 06bc 74ff 063e aad1 143e
00000090: d156 843d ef17 0abe 4c52 2bbd 75cc 72bc
000000a0: 7bde 0d3c cfe2 513d 43e0 49bd 40ba cabd
000000b0: 0181 8e3d 763c 743c 039e c6bd b610 6a3b
000000c0: b73f 02bd 5f41 f4bc 5fa7 bf3c 7f89 c93c
000000d0: 8dc5 9ebc 7918 6e3b ab1a e93c dcfc 563d
000000e0: b660 e9bb 4a4e 6b3e 8c9f 933d b408 b6bd
000000f0: 1262 a2bb 16f8 493d 8254 e73b d4c6 c1bc
00000100: 43bf c83d d81f 093d c30e 0ebd 9841 06bd
00000110: ccee 1f3e 3676 d03d 0cca 88bd 485b 00bd
00000120: 490e 923c 1611 beb6 9e4c 81bc 9331 ddbd
00000130: 4fce 68bd ce39 173e 372a 19bd 48cd 963d
00000140: cc7c f1ba 86b5 7e3e 46a0 edbc 3fab e1bd
00000150: ad81 f13c ab94 013b a1c7 d7bd 1ade 0c3d
00000160: 6b8f 233c e7be 96bd 7d94 2b3c 5e96 193c
00000170: cb3a 563d 5b8c ae3b faca 1d3d 7169 dfbc
00000180: 1006 2fbc 6595 ab3d fd9b 9e3d cab2 aabd
00000190: e58d ccbb 4b45 02be ddbf 8a3d 473c 5ebd
000001a0: 0625 25bd 0f2c e9bd 9f04 1f3d 9e74 11bd
000001b0: 000b 593d f2a4 0f3e e4e4 97bd 8f44 583c
000001c0: 767b 073e ae5b c6ba 92a7 6c3c 8025 d83d
000001d0: 77cc 1fba 27e6 fd3c 3a48 ce3d cf8b d1bd
0.008093806 -0.09978447 0.013531477 -0.08180127 -0.101868555 -0.04588751 0.083080865 -0.14689745
0.004076206 -0.046731897 0.0041360254 0.1431932 -0.0040009557 -0.00052598753 -0.10018092 -0.03476523
0.1140569 0.111766286 0.106406726 -0.025163826 0.0028082125 0.0014480624 -0.13567789 0.014676313
0.07040695 -0.0084083555 0.0018813197 -0.043323774 -0.0892485 0.085899316 0.016367033 0.032371294
0.013045766 -0.008202143 0.13183385 0.14533105 0.064618714 -0.13485692 -0.04182653 -0.014819254
0.0086590005 0.051241692 -0.04928614 -0.098988056 0.06958199 0.014906993 -0.09698107 0.0035715527
-0.031799044 -0.029816328 0.023395238 0.024601696 -0.019381309 0.0036330505 0.0284551 0.05248724
-0.0071221245 0.22979084 0.072081655 -0.08888379 -0.0049555385 0.04930886 0.0070596347 -0.023654379
0.09802105 0.033477634 -0.034682047 -0.0327774 0.15618438 0.10178797 -0.066791624 -0.031337053
0.017829077 -5.6644303e-06 -0.015783604 -0.10800471 -0.056837376 0.14768144 -0.037393775 0.07363373
-0.0018424033 0.24873933 -0.029007088 -0.11018991 0.02948078 0.001977245 -0.10536123 0.0343915
0.009982924 -0.073606305 0.010472414 0.009374229 0.052302163 0.0053267903 0.03852365 -0.027271958
-0.010682598 0.08378104 0.07744596 -0.083348826 -0.006242501 -0.12721746 0.06774876 -0.054256704
-0.04031851 -0.11385357 0.038822766 -0.035511605 0.052989006 0.14027765 -0.07416704 0.013199939
0.1323069 -0.0015133524 0.014444249 0.105540276 -0.0006095836 0.030993534 0.1007237 -0.102317445

net.3.bias f4 [6]
00000000: 1ad0 26b8 cc87 0c35 1d59 87b6 0c26 f1b3
00000010: 5650 02b7 2711 8b36
-3.9771294e-05 5.2351675e-07 -4.0336877e-06 -1.1229358e-07 -7.7673085e-06 4.1445196e-06

net.4.weight f4 [6]
00000000: 1d61 373f af8e 1b3f 8399 803f a4c8 173f
00000010: d900 833f cfb4 6f3f
0.7163256 0.6076459 1.0046848 0.5929053 1.0234634 0.93635267

net.4.bias f4 [6]
00000000: 4f8e bb3e c43f a23e 86c5 af3e d0a5 bb3e
00000010: 8453 fb3e 8a7f fa3e
0.3663201 0.31689274 0.34330386 0.36649942 0.49087155 0.4892543

net.4.running_mean f4 [6]
00000000: be9d 90bc 9ad0 5c3c 5855 743b abb1 343c
00000010: 9c6b 573c 01dd 1a3c
-0.017653342 0.013477469 0.0037282314 0.0110286875 0.013148215 0.0094521055

net.4.running_var f4 [6]
00000000: 2055 3a3a 1a90 033a 840d c03a d4e5 5d3a
00000010: 7bbb 033b 7b97 ee3a
0.00071080215 0.0005018726 0.0014652465 0.0008464728 0.002010076 0.0018203104

net.6.weight f4 [17, 6]
00000000: 8369 83be 7681 943e 35a5 963e dd46 78be
00000010: d780 cd3e 2581 c2be 2baf 61be f237 6f3e
00000020: 829a c23e 93b6 aebe f373 b63e 456f a3be
00000030: 78d0 2fbe d3e1 d63d beb0 803e 1bd6 efbd
00000040: b286 8c3e 2698 81be d353 12be 3e89 833d
00000050: d230 553e f8b9 8fbd 16dd 6f3e 2418 59be
00000060: beaf 0ebe ae01 df3d 6ac0 533e 103c f7bd
00000070: 3aad 563e 37ef 0abe 3820 3cbe dbe0 f73d
00000080: 4e62 8e3e 49a1 09be 738a 933e c638 75be
00000090: 7feb 96bd 3ecd f03c 2b33 fd3d 914f 16bd
000000a0: 0c91 0b3e 574a debd 5187 5ebe 2200 553e
000000b0: 7d66 c03e 0dd5 a7be 6519 b73e 9bba 83be
000000c0: 4294 02bd 9a05 473c 86c1 773d 52c5 76bc
000000d0: a03c 883d d9e0 52bd 962a 62be 9985 5e3e
000000e0: 0f3f b23e 3429 8bbe 1a46 b53e eef8 9cbe
000000f0: a5a9 41be d198 0c3e 0fee 9c3e 3cf8 39be
00000100: cb01 a13e d20a 81be a733 c5be 4a37 1f3e
00000110: 8899 523e db44 673d c559 953e cf83 ecbe
00000120: 2a1a 3dbe 0ca9 fb3d 4436 923e ec32 12be
00000130: 7d6c 963e 8a37 78be c47f 88bd c1a5 ef3c
00000140: 7b18 f53d e5ec 16bd a44a 043e e400 c6bd
00000150: 9f7f 0bbd cacc 563c d472 833d 86bf 87bc
00000160: d380 903d d450 5dbd 9416 08be 89c3 563d
00000170: 0ecf 443e 5473 7ebd 6a06 603e 887d 4fbe
00000180: 41f9 8cbe ede7 8e3e 52e2 923e efac ffbd
00000190: ef71 a53e da4b c9be
-0.25666437 0.2900502 0.29422918 -0.24245782 0.4013736 -0.37989154 -0.22039478 0.23361185
0.38008505 -0.34123668 0.35635337 -0.3192083 -0.17169368 0.10492291 0.25134844 -0.11710759
0.27446514 -0.25311393 -0.14289789 0.06422661 0.20819405 -0.070178926 0.23424181 -0.21200615
-0.13934228 0.10888992 0.20678869 -0.12072003 0.20964518 -0.13567816 -0.18371665 0.12103435
0.27809376 -0.13440432 0.28816566 -0.23947439 -0.07369136 0.029394742 0.12363275 -0.036696974
0.1362955 -0.10854023 -0.21731307 0.20800832 0.37578192 -0.32779732 0.35761562 -0.25728306
-0.03187967 0.012147332 0.060487293 -0.015061693 0.06652188 -0.051483963 -0.22086558 0.21730651
0.34813735 -0.27179873 0.35405046 -0.30658668 -0.1891237 0.1373017 0.30650374 -0.181611
0.3144668 -0.25203568 -0.3851597 0.15548435 0.2056638 0.05646215 0.2917005 -0.46194312
-0.18467012 0.122881025 0.28557026 -0.14277238 0.29379645 -0.24239936 -0.06664994 0.029253842
0.1196756 -0.036847014 0.12919098 -0.096681386 -0.034057256 0.013110349 0.06418386 -0.016570818
0.07055821 -0.05403216 -0.13289863 0.05243257 0.1921961 -0.062121704 0.21877447 -0.2026273
-0.27533916 0.2791132 0.28688294 -0.12484156 0.32313487 -0.39315683

net.6.bias f4 [17]
00000000: f9ec 1dbd 512a 2dbd 8f6f bcbc 53bb 42bc
00000010: 36fc 0abd 78a6 18bd 7b9d 87bb f038 94bd
00000020: d344 7c39 efdb 40bd 2d75 41bd 4333 c83d
00000030: 39d9 15bd 3665 8bbb 6585 f538 0470 1ebc
00000040: 0050 0fbc
-0.038556073 -0.042276684 -0.023002414 -0.011885482 -0.033931933 -0.037268132 -0.004138646 -0.072374225
0.00024058232 -0.047084745 -0.04723089 0.097754024 -0.036584113 -0.0042540086 0.00011707357 -0.009670261
-0.008747101
