30 weight-optimized multi-task models/model_24.pt (torch_old, 4405 bytes, 14 tensors)

net.0.weight f4 [20, 6]
00000000: da81 9fbd ff4c 8abc 1505 47bd b85e 9b3d
00000010: 7f26 c9bd ec32 053d eb56 7d3d 0122 98bd
00000020: 0423 9cbc af95 94bd ad7e 17be 0f17 583c
00000030: 88b3 c73d 6560 94be 0273 793d e1d0 843d
00000040: 3733 cb3d 0578 923c ee1a 283d 5da3 9d3d
00000050: 4b52 6cbb 198d 78bd 8228 07bd ecbe 44bd
00000060: a707 233b 5d02 98bd 5da2 783c 86b2 6a3d
00000070: 2dab 883d 903e 793d 89a5 2ebc 4dcd bc3d
00000080: f154 bdbd 7567 7ebb 1f28 10bd d336 c0bb
00000090: fe47 abbd f4dd 7e3b 2765 b1bd d3c5 963b
000000a0: 1ab9 31bd 7e96 18bc 0847 033d ce45 8b3d
000000b0: 0aeb c3bc 1440 9c3d f1b6 b63d 3991 5f3d
000000c0: fe2c 1abd 5cf5 5ebd 59e3 f5bd 9efb 13be
000000d0: 13bb c6bd 66e2 873c f10d 73bd 1203 9d3d
000000e0: 6881 943d c7ca 00be 78e5 a13d fbe3 36be
000000f0: 0afc 9b3d 59da ee3d 2b10 05be c628 5dbe
00000100: 1e97 033c c0cf 6abd 790a 8e3e 6b0f 52bd
00000110: ee12 a8bd aa3f 203e f8c2 4e3c 0303 b63d
00000120: 378b bf3d 0287 4e3d 861c f43d 3682 df3d
00000130: 4a56 3f3d 3d71 a43d 02d9 39bd c233 9a3d
00000140: fb42 5f3b 7ca4 aebd 4a15 0a3d 1597 06bd
00000150: 4227 dbbd 3110 ab3c 1149 c13d f1fd 4a3d
00000160: 6c2a 17bd 95dd 123d f062 44bd 0ee9 14bd
00000170: 01af 2b3d 8ba6 363d 19d1 dabd 6708 54bd
00000180: dcbd 353e 5cca f0bd fb9a 82bd 4ff9 413d
00000190: fd6a 973c bb61 a33c 650a 843d c918 993d
000001a0: 047b 10bd 5285 07be a8b6 60be b3bd 273e
000001b0: 1caa bcbc 8bd8 9fbb 841a 3cbe 20b7 41bd
000001c0: f018 163c e7b1 63bd 3d87 43be f9c0 19be
000001d0: 0252 243d 108a 463d 4d19 3e3d 2024 01be
-0.07788439 -0.016882418 -0.04858883 0.075864255 -0.09821796 0.032519266 0.06185047 -0.07428361
-0.019059666 -0.072551124 -0.14794417 0.013189091 0.0975104 -0.28979793 0.060900696 0.06485153
0.09921878 0.017879495 0.041041307 0.07697175 -0.0036059793 -0.060681436 -0.032997616 -0.04803364
0.0024876387 -0.07422326 0.015175429 0.05729916 0.06673274 0.06085068 -0.010659584 0.092188455
-0.09244717 -0.003881899 -0.035194512 -0.0058659106 -0.08363341 0.0038889619 -0.086618714 0.004601219
-0.043389417 -0.009313224 0.032050163 0.068004236 -0.023915786 0.076294094 0.08921612 0.054581854
-0.037640564 -0.05443321 -0.12006254 -0.14451453 -0.0970365 0.016587447 -0.059339467 0.07666601
0.07251245 -0.12577353 0.07905096 -0.17860405 0.07616432 0.1166274 -0.12994449 -0.21597585
0.008031635 -0.057327032 0.27742365 -0.051284235 -0.082067356 0.15649286 0.012619726 0.08887293
0.09352725 0.050421722 0.11919503 0.10913508 0.04671315 0.08029411 -0.04537297 0.07529403
0.0034067023 -0.08527467 0.03371171 -0.032858927 -0.10700847 0.020881744 0.094377644 0.049558584
-0.03690569 0.03585585 -0.047945917 -0.03635507 0.041914944 0.04459242 -0.106844135 -0.051765826
0.17748207 -0.11757347 -0.063772164 0.0473569 0.018483633 0.019944062 0.06447295 0.074754305
-0.035273567 -0.13234451 -0.21944678 0.16380958 -0.023030333 -0.004878109 -0.1836949 -0.047293782
0.009161219 -0.055589583 -0.19094558 -0.1501502 0.04011727 0.04847151 0.046410847 -0.12611437

net.0.bias f4 [20]
00000000: 084b 3eb3 1ac1 a7b2 48fa 4f32 bf06 22b4
00000010: a563 4cb3 4454 f031 74b3 2334 cb56 2634
00000020: b315 2634 dcdb 4cb4 39e6 9f33 ba66 a3b3
00000030: c685 1534 7276 c4b2 b84b 7835 2c83 dfb3
00000040: e3fd d133 5f56 03b3 389f 4432 18f1 4eb4
-4.4306063e-08 -1.9529171e-08 1.2105893e-08 -1.508988e-07 -4.7588077e-08 6.994499e-09 1.5245843e-07 1.549153e-07
1.5467849e-07 -1.9078965e-07 7.445892e-08 -7.608965e-08 1.3925373e-07 -2.2871266e-08 9.2497385e-07 -1.0408107e-07
9.7785026e-08 -3.057937e-08 1.1444904e-08 -1.9272954e-07

net.1.weight f4 [20]
00000000: 11ac de3d f576 263e 851a 933e 0158 f83d
00000010: 1c43 8d3d 7d2b 0e3e 055c f43d cf2d 073e
00000020: 50c1 003e ba04 0d3e aa01 1f3e 6299 623e
00000030: 141e 033e 2f90 743d b8fd 173e 5fd2 f23d
00000040: 82b2 7d3e 5109 f63d dae0 143e 63ff 6c3e
0.10872663 0.16256316 0.2873117 0.121261604 0.06897566 0.13883777 0.11931614 0.13201068
0.12573743 0.13771334 0.15527979 0.22128823 0.12804443 0.059707817 0.1484288 0.11856531
0.24775127 0.12013496 0.14538899 0.23144297

net.1.bias f4 [20]
00000000: fc9e e13c 7165 b8bd 8413 e6ba 89d1 23bd
00000010: ebbf 0f3d c537 f7bd b21b 9cbd 0db3 4c3d
00000020: 2325 03bc cd25 b1bc 9ef6 24bc a10e 0e3d
00000030: eafe c63c 5fb8 8b3c 0236 83bd 0719 693b
00000040: db43 61be ab9f 363d d5d7 003b c953 e1bd
0.02754163 -0.090037234 -0.0017553424 -0.03999475 0.035095137 -0.12071184 -0.0762247 0.049975444
-0.00800446 -0.02162447 -0.010068564 0.03468192 0.024291474 0.017055688 -0.064067855 0.0035567896
-0.21998541 0.044585865 0.0019659896 -0.11002309

net.1.running_mean f4 [20]
00000000: d8c8 a93b 9a6f 9d3b feb6 143b f158 60b9
00000010: 9866 f3ba 3055 31bb bd68 e439 cdd5 cfbb
00000020: da87 2cbb f654 3439 bb18 3dbc 09d6 7bbb
00000030: e115 383a a153 70bb 696b c53b 2844 2f3c
00000040: fa64 18bb 3fc0 95ba be0e c4bb de96 0f3c
0.005181413 0.0048045637 0.002269208 -0.00021395438 -0.0018570004 -0.0027058832 0.00043565585 -0.0063426257
-0.002632609 0.00017197788 -0.011541541 -0.0038427135 0.0007022303 -0.003667094 0.006024767 0.010697402
-0.0023253546 -0.0011425092 -0.0059832027 0.008763997

net.1.running_var f4 [20]
00000000: 28e0 363d 0331 403d c083 0d3e 137b 9e3b
00000010: e102 4b3c 70c6 e93c 9f78 d93c 79b2 323d
00000020: e606 f53c 2c13 6f3d 38cb f03c f778 ad3d
00000030: cdf5 fa3c ee6f 883b d59a ed3c 9db8 e43c
00000040: d750 643d cff9 713d 4e9d e83c 8137 193d
0.044647366 0.04692174 0.1381979 0.004836449 0.012390823 0.028537005 0.026546774 0.043627236
0.029910516 0.058367893 0.029393777 0.08470338 0.030634785 0.0041637337 0.029004494 0.027920062
0.055741157 0.059076127 0.028395321 0.03740645

net.3.weight f4 [6, 20]
00000000: 082a 9cbc a4e3 d73d 8639 c4bd 2e13 963c
00000010: e9fb 49bd 841e 7ebd 95ad 9ebd c989 0e3c
00000020: 454f 89bd f0fb df3c 9561 63bd 7082 523d
00000030: 837c a4bc 1ad8 773c 1685 20bd 4cfc 013e
00000040: f643 54bd 0f7f b73d bc60 333d de9f 0d3e
00000050: 0003 0ebd 7621 9dbc dfd3 a03c 3f66 2fbd
00000060: 7ff4 15bc 4331 ed3a f604 e23b 382a a6bd
00000070: d003 c13b b6b8 31bd 3f28 bfbb cf3f 293e
00000080: 77f1 0c3d 7674 3c3c 2640 383c e322 45bc
00000090: 9da8 8fbc a991 54bc f5b4 9c3d 5bfc eabc
000000a0: dcf6 9cbb 44e7 27bd 2606 963d f5c8 12bd
000000b0: 6991 093a 35d5 a63c 1c8b 0cbd c371 dfbd
000000c0: 8887 313d 237d dfbd ebb1 0d3d 978b 623d
000000d0: 9323 8e3d 1e7d 5d3c 8642 6cbd 5eb7 25bd
000000e0: 99c2 613e 1ace fcbc b354 d53d def7 46bd
000000f0: 46cb 283d 096e d13c febe d63c 0d10 5a3c
00000100: 721e 97bc c88b df3c 4bc4 1d3d 6c21 813c
00000110: 0d0d f03b 7b52 a6bd 898b 513d c976 013e
00000120: 7b1c f63d 7d0f 8fbc 3d9b 3bbc 1016 c03b
00000130: 83a7 46be cc19 2ebd f433 ed3b 0a79 6fbd
00000140: 060e 03bc c019 07be cac3 243e 85d3 ddbd
00000150: b01a 6f3d 60fb 89bd d073 0cbb 0a53 bbbc
00000160: 7792 d53c bf72 ccbc eeca e0bc bf8d e6bc
00000170: 91b3 123d 2e3e 25bd 747b b6bc 81a5 a03c
00000180: ec01 19be d312 75bc 6f76 1d3d 266d 543d
00000190: b086 083e 5118 973d ede7 eabd c9c2 5abd
000001a0: 9007 62bd 0810 1d3e 65eb fb3d 5341 2c3d
000001b0: cf3d 9ebd c57b 33bd e4d9 fdbd 42c3 b73d
000001c0: b465 30bd 4e68 443d 1423 d6bd a7b4 43bd
000001d0: e3b3 e83a f7d7 703d 5c0a d03d d446 783d
-0.01906301 0.10541466 -0.09581284 0.018319692 -0.049312506 -0.06204082 -0.07747952 0.008699843
-0.067045726 0.027341813 -0.055512983 0.051393926 -0.020078903 0.015127206 -0.03918942 0.126939
-0.051822625 0.089597814 0.043793425 0.13830516 -0.03467083 -0.019180994 0.019632278 -0.04282212
-0.009152531 0.0018096346 0.006897564 -0.08113521 0.005890347 -0.043389045 -0.005833655 0.16528247
0.034409966 0.011502376 0.011245763 -0.012032243 -0.017536456 -0.012974181 0.07651702 -0.028684786
-0.00479017 -0.040992036 0.073253915 -0.03583618 0.0005247803 0.020365337 -0.034312353 -0.1091037
0.043342143 -0.1091254 0.034593504 0.055308904 0.06940379 0.0135186 -0.05768063 -0.040458076
0.2204689 -0.030859996 0.10416546 -0.04857623 0.04120948 0.025565164 0.026214119 0.013309491
-0.018447135 0.027288333 0.038517278 0.015763007 0.0073257745 -0.08121201 0.05115846 0.12642969
0.12017151 -0.01746344 -0.011450586 0.005862005 -0.19399838 -0.04250507 0.0072388593 -0.05846504
-0.007998949 -0.13193417 0.16090313 -0.1083136 0.05837506 -0.06737399 -0.0021431334 -0.022866745
0.026070816 -0.024957059 -0.027440514 -0.028143762 0.03581578 -0.040342502 -0.022275664 0.019610168
-0.1494214 -0.014958101 0.038443025 0.051861905 0.13332629 0.07377685 -0.114700176 -0.053408418
-0.055182993 0.15338147 0.12300757 0.042054486 -0.07726633 -0.043819208 -0.12395075 0.08972789
-0.04306574 0.047951035 -0.10455909 -0.047779705 0.0017753806 0.05879971 0.10158226 0.060614422

net.3.bias f4 [6]
00000000: 3176 d135 47d0 0536 10e6 24b7 d6a1 9b35
00000010: 4dd1 54b6 bd08 1737
1.5606112e-06 1.9939778e-06 -9.828727e-06 1.15955e-06 -3.171229e-06 9.002336e-06

net.4.weight f4 [6]
00000000: 2ba3 243f c740 303f a444 8b3f a101 2b3f
00000010: 0675 2b3f f40d 893f
0.64311475 0.6884884 1.0880322 0.6679936 0.6697544 1.0707383

net.4.bias f4 [6]
00000000: 0854 f63e 2628 8c3e 5e01 bc3e ad93 a73e
00000010: cf07 b93e 1735 103f
0.48110986 0.2737438 0.36719793 0.32729855 0.3613877 0.5633101

net.4.running_mean f4 [6]
00000000: d662 5b3b 2876 4a3c 21ed 633c de69 903c
00000010: b500 213c 8e7a 393b
0.003347566 0.012357272 0.013911516 0.017628606 0.009826829 0.0028301808

net.4.running_var f4 [6]
00000000: f840 5e3a b81a 4f3a 934b fa3a 6f63 2a3a
00000010: 1b08 df39 766b e33a
0.0008478309 0.0007900405 0.0019096009 0.0006499802 0.00042539914 0.0017350751

net.6.weight f4 [17, 6]
00000000: 783c 8fbe 1593 fa3d f4f6 cb3e afeb a93e
00000010: c279 7e3e 4ecf ddbe f53f a5be 16d3 843e
00000020: 702d ab3e 624f 9c3e a94d 7d3e bd6c c4be
00000030: a6fa 33be df4c 313e 3626 8f3e 0b1e f53d
00000040: 9a8f 003e 6f39 95be 0953 05be a06e 0e3e
00000050: 6a67 6f3e b0f8 a03d 9e67 e83d 97ab 78be
00000060: 1fed 29be 0c1a 1c3e 6334 653e 14c2 053e
00000070: 3bdd 9b3d 3a23 30be 5556 46be da50 443e
00000080: 646c 993e e6f7 0d3e 5325 063e 6b0e 93be
00000090: a3ac 8fbd d5f7 a13d a4bb 073e 7858 263d
000000a0: a3cf 753d 0e34 00be 9ab9 a8be 8436 8c3e
000000b0: bd10 ae3e c6b9 8e3e 2162 4c3e 363c a7be
000000c0: 4ccb f3bc 2fd9 143d 2c33 7e3d ac39 803c
000000d0: 5755 f53c 35bf 75bd 11c3 95be 3ffe 7e3e
000000e0: 8143 af3e 81d3 7a3e 9eb2 393e 2d8f bebe
000000f0: 4586 6cbe 0dc6 593e 0698 a33e 61d4 243e
00000100: 2cbf 183e de0b 9dbe 2b03 bdbd bdcf f93d
00000110: 50a7 a33e 4836 963d 275c ba3e 15b1 f0be
00000120: 11cd 4fbe c8d7 473e 66b9 9c3e acf8 0d3e
00000130: 35a3 023e 1556 93be 1bb2 8abd 19f2 9d3d
00000140: 6c77 023e e8a5 273d 5a12 5e3d 8987 e7bd
00000150: 2f8e 05bd 9173 1e3d 4034 873d b75f 913c
00000160: 1123 fc3c 4eff 7ebd a53f ecbd 115d 003e
00000170: 24ac 5c3e da08 863d 6f4c df3d 256c 6dbe
00000180: e4e7 84be 9847 4d3e bf93 ac3e 9f6b 573e
00000190: ebff 2f3e d452 d6be
-0.27975821 0.12235085 0.39836848 0.33187625 0.24851134 -0.43322223 -0.32275358 0.25942296
0.33433104 0.30529314 0.24736656 -0.3836421 -0.17576084 0.1731448 0.2795884 0.11968621
0.1255478 -0.2914538 -0.13019957 0.13909388 0.23379293 0.078599334 0.113478884 -0.24284206
-0.16594361 0.15244311 0.22383265 0.13062316 0.07610556 -0.17200938 -0.1936887 0.19171467
0.29965508 0.13864097 0.13100176 -0.28721938 -0.0701535 0.07908598 0.13255173 0.040611714
0.06001247 -0.12519857 -0.32954103 0.27385342 0.33997145 0.2787611 0.19959308 -0.32663125
-0.029760025 0.036339935 0.06206052 0.0156525 0.02994792 -0.059996802 -0.29250386 0.24901675
0.3423119 0.24494745 0.18134543 -0.3721861 -0.23098095 0.21266957 0.31951922 0.16096641
0.14916676 -0.30673116 -0.0922912 0.12197826 0.31963587 0.07334572 0.36398432 -0.47010103
-0.2029307 0.19515908 0.30610198 0.13864392 0.12757571 -0.28776613 -0.06772252 0.07712192
0.12740868 0.040929705 0.05421672 -0.11305148 -0.0326063 0.03868443 0.06601763 0.017745836
0.03077844 -0.062255196 -0.11535577 0.12535502 0.21550041 0.06544657 0.109032504 -0.23185785
-0.25958169 0.20046842 0.3370647 0.21037148 0.17187469 -0.41860068

net.6.bias f4 [17]
00000000: 6351 85bd a14b aebd 5de4 8fbc 0a60 31bc
00000010: e667 ecbc eaea edbc e374 8abb 0a60 c5bd
00000020: f8ad 72b9 f5ff 51bd 605d 27bd 5340 e6bc
00000030: 3f06 fbbc 4528 90bb 7282 beb9 e9fa debb
00000040: 0f1e 193c
-0.06509664 -0.08510519 -0.017564947 -0.01082612 -0.028858136 -0.02904268 -0.0042253598 -0.096374586
-0.00023143727 -0.05126949 -0.040860534 -0.028106844 -0.030642627 -0.0043993318 -0.00036336813 -0.006804813
0.009345545
