30 weight-optimized multi-task models/model_14.pt (torch_old, 4405 bytes, 14 tensors)

net.0.weight f4 [20, 6]
000000 8f 64 f2 3c 92 27 49 3e e3 e2 ed bc 29 21 39 be
       0.029588966 0.19644001 -0.029038852 -0.18079056
000010 1e 6b 48 bb 38 a6 a5 bd ec 60 d9 bd 71 02 50 bc
       -0.0030581425 -0.08088344 -0.106141895 -0.012695895
000020 b6 d5 f5 bd be 6a cb b9 21 3d bf bc 54 ca 1f bc
       -0.12003653 -0.00038798706 -0.023344578 -0.009752829
000030 6b 59 a2 3d d5 d7 81 3d fb e6 60 bb 70 1d 2a bc
       0.079272114 0.06339995 -0.0034317363 -0.010382995
000040 b2 52 a9 bc 78 8d d6 3d 69 70 43 3d 5f e7 87 bd
       -0.020669315 0.10476202 0.047714625 -0.066359274
000050 50 d9 b4 3b ab e4 9e bd 5f f9 f1 bd db c0 8d bc
       0.0055190697 -0.07758459 -0.11815142 -0.017303875
000060 eb 61 03 3e 01 14 09 3d df f4 11 3e 8f 2f e8 3d
       0.12830321 0.033466343 0.14253567 0.11337196
000070 63 c9 32 3d 33 4a 9b 3d 3c 4d f7 bd 00 eb e4 bd
       0.04364909 0.07582512 -0.12075278 -0.11177635
000080 0a 93 2e 3d 5a b3 a3 3d 6b c6 6f 3d 17 31 bd bd
       0.042620696 0.07993193 0.058538835 -0.09237879
000090 5f fa 4d 3e 23 6e ed bd 5c 8b 79 bd 98 9d 36 3d
       0.2011504 -0.115932725 -0.06092392 0.044583887
0000a0 24 d1 04 3d 4b 4c a0 3c 1b 3d 83 bc 8e fe f3 3c
       0.032426015 0.01956763 -0.016020348 0.029784467
0000b0 36 6f c6 bd 6b b1 83 3d 21 62 45 3d f0 48 19 3d
       -0.096891806 0.06430324 0.048189286 0.037423074
0000c0 95 6e 1b 3d 8f 5b cf 3d dd 7f 26 3c bd f8 26 bd
       0.037947256 0.10124885 0.010162321 -0.04076456
0000d0 25 76 22 3d 7f f5 7b bd bb e8 cb 3d 08 7f d3 3d
       0.039663453 -0.06151342 0.09956499 0.10326964
0000e0 b4 f3 03 be db b1 1c bd 0e 07 e4 3c f7 06 b7 bc
       -0.12885934 -0.038255554 0.027835395 -0.022342188
0000f0 5a f3 62 3b 68 92 36 3d ed 9e 11 be c0 21 2e be
       0.0034629912 0.044573218 -0.14220782 -0.17005062
000100 cc 4c d8 3a 02 c9 64 bd f3 c2 30 bd 29 89 64 3d
       0.001650238 -0.05585576 -0.043154668 0.05579487
000110 e0 a9 11 be e3 07 dc bc 85 fb 91 bd 18 6f 40 bb
       -0.14224958 -0.02685923 -0.07128052 -0.0029363092
000120 4b ec a8 bd 68 51 24 3e 5f 45 d9 3b 55 79 16 be
       -0.08248194 0.16046679 0.006630584 -0.14694722
000130 fb 79 3b be 60 13 59 bd 98 fb 1a bd 44 0d c2 3d
       -0.1830825 -0.052996993 -0.037837595 0.094751865
000140 65 5b 3d be 2a de 50 bd 78 49 9b bc a1 b7 67 bc
       -0.18491895 -0.050993122 -0.018955931 -0.014142902
000150 48 73 f7 bd c3 5d 86 bd 0f 0a 8c 3d a9 b7 06 3d
       -0.12082535 -0.065608524 0.06837856 0.032889996
000160 fa c3 58 3c fa 8e b2 3c 7f 2f a7 bd f1 ae 9c 3b
       0.013230318 0.021796692 -0.08163356 0.004781597
000170 d4 7a aa bd cd 7a 85 bd 2d ce df bd eb 1c 66 bd
       -0.08324209 -0.06517563 -0.10927997 -0.056179922
000180 ff af 28 3e 7e 20 5e bc 10 31 0e 3e ee 4f 08 3e
       0.16473387 -0.013557551 0.13885903 0.13311741
000190 f4 4c 94 3c 6e 8f dd bc 9b 2f bf 3d 6f d3 5d be
       0.0181031 -0.027045932 0.09335252 -0.21662687
0001a0 85 46 b0 3a a6 af 82 bd df 30 3e 3d 7e d1 88 3d
       0.0013448751 -0.063811585 0.046433326 0.066805825
0001b0 01 d1 b1 bc cc e2 80 bc a2 7b 6f 3c 75 56 88 bd
       -0.021706106 -0.015733145 0.014616879 -0.06657115
0001c0 16 63 3b be 55 4c d4 3d 16 7b 3d 3e ee 1f 88 bd
       -0.18299517 0.10366122 0.18503985 -0.06646715
0001d0 10 e4 22 be 74 f9 cd 3d b0 1f cc bc f9 2f 19 3d
       -0.15907311 0.10057345 -0.024917454 0.037399266

net.0.bias f4 [20]
000000 df 55 f0 35 1a 87 5d 33 5c 20 be 34 f2 e2 0a 36
       1.7906385e-06 5.1578446e-08 3.5413802e-07 2.0695702e-06
000010 df 89 ad b3 6e e2 fb 34 67 0c db 33 f6 26 80 b2
       -8.081019e-08 4.6917143e-07 1.0200238e-07 -1.4918879e-08
000020 9d 5a a5 b3 bb 8f bc 34 4d 89 aa 37 d2 f5 a4 b4
       -7.699894e-08 3.5122306e-07 2.0329515e-05 -3.0726238e-07
000030 43 ba 0d 34 d2 38 e1 35 e1 f9 ab b3 c8 d8 de 34
       1.319941e-07 1.6780343e-06 -8.008261e-08 4.1508451e-07
000040 8a 95 80 34 b8 89 82 33 30 ec 23 34 d3 5e a2 b4
       2.3950662e-07 6.0786476e-08 1.5266482e-07 -3.0243845e-07

net.1.weight f4 [20]
000000 44 d1 1b 3e 69 d8 1b 3e b9 e9 f1 3d 85 97 14 3e
       0.15216547 0.15219273 0.11812157 0.14510925
000010 ce d6 0f 3e 08 76 f2 3d da ca 7a 3e 1b 5b 0f 3e
       0.14046785 0.11838919 0.24491444 0.13999598
000020 cb 67 87 3d 6f 10 04 3e 66 09 0c 3e 0b bd 13 3e
       0.06611594 0.12896894 0.1367546 0.14427583
000030 2d 6f 1f 3e 9f 0c 50 3e a6 47 ba 3d 9f 03 d0 3d
       0.15569754 0.20317315 0.09095697 0.10156941
000040 f4 a3 36 3e 64 95 83 3e 66 6b bb 3d 49 1d 09 3e
       0.1783598 0.25699914 0.09151344 0.13390078

net.1.bias f4 [20]
000000 70 aa fb bc 53 0f b4 bd 36 96 9e 3c e7 62 b9 bd
       -0.03072092 -0.08791985 0.019358736 -0.09052067
000010 6c 69 dd bc 5d b5 79 bc df 7e cc bd 0e 50 6f bd
       -0.027027808 -0.015240994 -0.09985136 -0.058425955
000020 a6 60 9b bc 49 7f 90 ba 20 4f a7 bc 4e 21 28 bd
       -0.018966984 -0.0011024262 -0.020423472 -0.041047387
000030 70 f4 a6 3d dd fe 16 be d8 ab 4b bc 9e 2e 07 3d
       0.081520915 -0.1474566 -0.012431107 0.033003442
000040 b7 47 74 bd f9 5b 99 bb 7d 0e 22 3d 8e f0 62 3d
       -0.059638705 -0.0046801534 0.0395646 0.055405192

net.1.running_mean f4 [20]
000000 58 ed 1d ba 9d 3d 04 3c 07 8f 58 bb b3 c4 5e 3a
       -0.00060244417 0.00807133 -0.0033044235 0.00084979384
000010 03 fb 17 bc 12 b5 8a 3a 7d c2 78 3b 36 44 ba 3b
       -0.009276154 0.0010582528 0.003795772 0.005684401
000020 c6 1c dd b8 5c c5 f9 3b d5 56 d5 3b c3 dc 20 3c
       -0.00010543461 0.007622404 0.0065105953 0.009818259
000030 ad 59 fc 3a 8b 49 3d 3c ef 4e 90 bb d5 9f 05 3c
       0.00192528 0.011553179 -0.004403941 0.008155783
000040 e9 5c 7f bb 08 e0 b9 bb 84 fd 3b bb d5 b6 48 3c
       -0.003896529 -0.0056724586 -0.0028685043 0.012250622

net.1.running_var f4 [20]
000000 da 76 3e 3c dd 20 f6 3c e1 0a 65 3c 8a fd 2a 3d
       0.011625016 0.030044967 0.0139796445 0.0417457
000010 c5 45 07 3d 0c 45 7b 3c 62 bd 9a 3d bf ff 1d 3d
       0.03302552 0.015336286 0.07555653 0.038573977
000020 c2 f1 a9 3b 4b d9 9f 3c 44 eb 9d 3c ad 0d 15 3d
       0.0051862905 0.019512793 0.019277222 0.036389995
000030 c0 aa a2 3d 2c fb 41 3d 42 d8 07 3c 4d 8f 09 3d
       0.07942724 0.047358677 0.008291306 0.033583928
000040 98 bd f7 3c af a7 0c 3e 71 b4 21 3d 9e e2 32 3d
       0.030241773 0.13735841 0.039478723 0.04367315

net.3.weight f4 [6, 20]
000000 1e 56 8b bc 16 59 93 bd 58 68 67 3d 1e 71 dc 3d
       -0.017008837 -0.07194726 0.056495994 0.10763763
000010 79 8b f2 bb 04 04 f9 3c 2d 03 a3 bd d8 cf 42 3c
       -0.0074018803 0.030397423 -0.0795959 0.011890374
000020 ce 83 47 bc ff 7f e6 3d d0 ec ac bd 0f ac ad bd
       -0.012177421 0.11254882 -0.08443606 -0.08480083
000030 2b f6 d4 3d 8d d7 a5 bd 18 37 49 3c 4e 98 73 3d
       0.10398515 -0.08097754 0.012281202 0.05947142
000040 79 39 48 bc 0d 3b 03 be b0 22 ed 3c 21 05 74 3d
       -0.012220734 -0.12815495 0.028947204 0.059575204
000050 ba 6d c6 3c c2 1f 06 3d b1 85 57 bd ea 8c 09 bd
       0.024222244 0.03274513 -0.052617732 -0.03358165
000060 f3 e7 a1 3d c3 f9 96 3d ab 1b 87 3d 5e 1d 14 bc
       0.07905569 0.07371857 0.06597074 -0.009040205
000070 96 2c 4f 3d 86 b0 50 bd 02 f8 d7 bb 14 f4 b7 ba
       0.05057963 -0.050949596 -0.006590844 -0.0014034533
000080 57 3f c4 bc 01 6c 44 bd 9f c1 93 3d c8 cc 9b 3d
       -0.023955984 -0.047954563 0.07214665 0.07607418
000090 1f e5 5c bd 99 ab ff 3b 9d 3e 25 3d 20 61 12 bd
       -0.053929444 0.0078024385 0.040342916 -0.035737157
0000a0 05 b9 97 bc 00 7c b0 3d 81 0d d1 3d d3 88 8b 3d
       -0.018520841 0.08617401 0.10207654 0.068132065
0000b0 3a 70 96 3d 39 71 ea bd e8 c6 f1 bd 78 06 8f bd
       0.07345624 -0.11447377 -0.118055165 -0.06983656
0000c0 cf f6 24 bd 05 af 0e 3d 44 98 70 3d 4b 91 1a 3d
       -0.040274438 0.03483488 0.05873896 0.03773622
0000d0 9c fd c5 bd 1a da 9a 3c ae 02 e4 3c fd ce 11 bd
       -0.09667513 0.018902827 0.027833309 -0.03559779
0000e0 0d 46 76 3c e7 5c 77 3c 71 45 08 bd 09 5c 0a 3e
       0.01503135 0.015097833 -0.03326935 0.13511671
0000f0 7e 56 64 bd fd 3f 08 bd 38 ba 11 bd 91 cd 30 bd
       -0.055746548 -0.03326415 -0.035577983 -0.043164793
000100 88 9b 0d 3d f9 da 18 bd bb 23 65 3e 1e 3d 0b bd
       0.034572154 -0.037318204 0.22376911 -0.033993833
000110 80 dd 9b 3c 3b 4c 69 bd c8 78 8a 3d ec 79 2f bc
       0.019026518 -0.056957465 0.067613184 -0.010710221
000120 bc 22 46 bd c7 26 01 3c a8 c9 a2 bd 5e 56 7d 3d
       -0.04837297 0.00788278 -0.07948619 0.061849944
000130 83 a4 98 3d c4 9f da b6 8d 4d 93 bc 30 f9 81 3c
       0.07453253 -6.5155054e-06 -0.017981315 0.015865892
000140 04 18 c8 bc 58 f3 d9 3d 58 40 6f 3d 02 52 00 3c
       -0.024425514 0.10642117 0.058410972 0.007832052
000150 38 e5 0f bc 2a a4 f2 3c 58 cb cf 3b fb 24 f8 bc
       -0.008782677 0.029619295 0.006341379 -0.030291071
000160 e0 fa 08 bd 23 57 e5 3c 57 d3 31 bd 06 33 ed 3d
       -0.033442378 0.027995652 -0.04341444 0.115819976
000170 54 9f 96 bd 02 ea 50 3e 63 89 8e bd 41 d1 77 3d
       -0.07354608 0.20401767 -0.06959798 0.060502294
000180 85 79 6e 3c be 40 49 be c2 78 12 3d cf 27 91 3d
       0.01455534 -0.19653603 0.035759695 0.07087671
000190 34 c2 15 be 92 db 2e bd 10 e0 45 bd 9f b2 01 be
       -0.14624864 -0.042689867 -0.048309386 -0.12665795
0001a0 24 73 2b 3d 6a 86 44 bc 20 27 32 3c dc 59 eb bd
       0.041857854 -0.011994937 0.010873586 -0.11491749
0001b0 c1 07 30 3c 86 ce 46 bc c0 27 77 3d 2b bb 94 3d
       0.010744036 -0.0121342 0.060340643 0.07262262
0001c0 37 1d 74 bd 34 2a 58 bc 89 89 b4 3c 25 36 0a 3b
       -0.059598174 -0.013193656 0.022038238 0.0021089402
0001d0 48 ea d5 3d fc 3e b1 3d bc e5 d5 bd cd 69 39 3d
       0.10445076 0.086545914 -0.10444209 0.045266915

net.3.bias f4 [6]
000000 78 e7 72 36 1b 15 80 36 b7 c0 74 b6 25 0e c6 b6
       3.6195543e-06 3.8171543e-06 -3.6471008e-06 -5.9025065e-06
000010 33 ee 84 37 60 50 0b 37
       1.5846546e-05 8.303759e-06

net.4.weight f4 [6]
000000 b8 c6 1b 3f 31 9d e5 3e e7 71 53 3f 89 d5 77 3f
       0.60850096 0.4484649 0.82595676 0.96810204
000010 db 92 8d 3f d7 27 5b 3f
       1.1060442 0.85607666

net.4.bias f4 [6]
000000 19 8b e2 3e 4b 17 69 3e 23 88 b8 3e 7c c7 ce 3e
       0.44246748 0.22762792 0.36041364 0.4038657
000010 11 6f 0e 3f ac 33 b5 3e
       0.55638224 0.35390985

net.4.running_mean f4 [6]
000000 15 9e 88 3b 95 43 ef 3b 53 2f 79 3b 8b da bf 3b
       0.0041692355 0.0073017576 0.0038022592 0.00585491
000010 cb e1 15 bb ef f5 85 bb
       -0.0022870179 -0.0040881555

net.4.running_var f4 [6]
000000 fc 2b 67 3a 74 48 5e 39 f2 be 6c 3a fb 0e b9 3a
       0.0008818505 0.0002119856 0.00090311386 0.0014118844
000010 b9 33 cb 3a 19 01 ae 3a
       0.0015503085 0.0013275474

net.6.weight f4 [17, 6]
000000 50 8b ae be f7 c1 58 bd 7f 45 be 3e 81 76 87 3e
       -0.34090662 -0.052919354 0.37162396 0.264576
000010 ac 05 de be 31 2e a4 3e ac 45 8f be 53 08 65 be
       -0.43363702 0.3206649 -0.27982843 -0.22366457
000020 2a 5f bf 3e 43 0e 8d 3e 6e 50 bf be 80 06 ad 3e
       0.37377292 0.27549943 -0.3736605 0.33794022
000030 a0 a4 0e be 4c f6 9d bd b5 fa 10 3e f8 2a 8c 3e
       -0.13929987 -0.07712993 0.14158137 0.27376533
000040 bc d6 93 be 0e 8e 5e 3e 07 f4 e7 bd b0 21 36 bd
       -0.28874767 0.21733877 -0.113258414 -0.04446572
000050 ad ad c4 3d 4c 22 69 3e f7 a6 7b be db 30 3e 3e
       0.096034385 0.2276699 -0.24575411 0.18573324
000060 da 14 f2 bd 11 58 b1 bd 10 df 1b 3e 10 be 61 3e
       -0.11820383 -0.086593755 0.1522181 0.2204516
000070 17 b0 25 be 75 ad 2c 3e 14 53 21 be 71 5b b8 bd
       -0.16180454 0.16863044 -0.15754348 -0.09001816
000080 d3 58 29 3e 80 7e 94 3e 35 de 8f be 9a 3d 6e 3e
       0.1653779 0.29002762 -0.28099218 0.23265687
000090 ed 67 82 bd 38 36 b2 bc 24 8d 5a 3d 38 fe 03 3e
       -0.063674785 -0.02175437 0.05335726 0.12889946
0000a0 80 88 03 be cd 16 d4 3d 76 78 86 be a5 ec 51 be
       -0.1284504 0.103559114 -0.2626378 -0.20500429
0000b0 7c 3a b7 3e 4f 95 a5 3e f1 76 a9 be 9f 30 87 3e
       0.35786808 0.32340476 -0.33098558 0.26404282
0000c0 93 20 f6 bc 6f 2b dd bb 31 42 c2 3c 69 e0 7c 3d
       -0.03004483 -0.0067495625 0.023713203 0.06173745
0000d0 c5 88 83 bd 80 45 4b 3d 2a c8 75 be f9 05 3e be
       -0.06422571 0.049626827 -0.24002138 -0.18556966
0000e0 10 b6 98 3e 1e be a8 3e 21 8c b4 be cb 01 91 3e
       0.29826403 0.32957548 -0.3526316 0.2832168
0000f0 3d 41 41 be 32 96 03 be 33 75 54 3e 60 20 9c 3e
       -0.18872543 -0.12850264 0.20747833 0.3049345
000100 41 8d 94 be 6f 6f 82 3e fc ab 90 be b5 30 8e 3e
       -0.29014018 0.25475642 -0.28256214 0.27771536
000110 e5 a2 15 3e 4e 1e 97 3e fb 68 08 bf 7e e3 80 3e
       0.1461292 0.29515308 -0.5328519 0.25173563
000120 f1 eb 29 be 8e 45 d3 bd 91 a7 30 3e f5 3a 97 3e
       -0.16593911 -0.10316001 0.17251422 0.29537168
000130 86 9c 8f be d2 79 72 3e 18 cc 75 bd 3d 55 b1 bc
       -0.28049105 0.23679283 -0.060009092 -0.02164709
000140 94 63 5f 3d 2a f5 fa 3d 2d ae ea bd a7 2c c9 3d
       0.054538324 0.122537926 -0.11459003 0.0982297
000150 81 fe 01 bd 05 31 0c bc 1a ad cc 3c ea e2 83 3d
       -0.031736854 -0.008556609 0.024984885 0.06439765
000160 77 3a 88 bd e0 b8 54 3d 1d 5e d9 bd 0b b5 0f bd
       -0.06651776 0.051934123 -0.10613654 -0.035084765
000170 c3 0e a8 3d fc fd 53 3e b0 49 72 be 4d 80 2d 3e
       0.082059406 0.20702356 -0.23660922 0.16943474
000180 4e 56 61 be 44 0a 8f bc b3 ee 72 3e ab 95 a6 3e
       -0.22005579 -0.01746095 0.23723869 0.32536063
000190 0a d1 c9 be ca 61 97 3e
       -0.39417297 0.29566795

net.6.bias f4 [17]
000000 b1 3c 41 3c 3e 9a f3 bc ac 1c 84 bc 0f 63 11 bc
       0.011794255 -0.029736634 -0.016126953 -0.008873715
000010 bd b2 d1 bc 7e 93 f2 bc 55 c9 5f bb f2 80 1c bd
       -0.025597924 -0.029611345 -0.0034147103 -0.03820891
000020 a2 81 b6 ba e9 e9 08 bd d1 78 02 bd b5 5b 86 3d
       -0.0013924132 -0.0334262 -0.0318535 0.065604605
000030 eb 97 e8 bc 97 33 3a bb 0d b6 e8 ba 5a 2f 01 bc
       -0.028392753 -0.0028412098 -0.0017754451 -0.007884825
000040 be 9b 07 bd
       -0.03310751
