30 weight-optimized multi-task models/model_19.pt (torch_old, 4405 bytes, 14 tensors)

net.0.weight f4 [20, 6]
00000000: a08f 333e 8f2f eabd 00fe 43be b5f6 a83d
00000010: 7e09 a03d 404a c53d e294 91bd 19ea d4bc
00000020: 5335 40be 50a6 e6bc ca54 e8bb efa8 51bd
00000030: c14e b63c 9320 783d 31cb a53d e4a9 ddbb
00000040: 4623 403d 0b31 783c 02bc 813d 8afc b7bd
00000050: c71b e03c e082 09bd 6260 813d 079d 3ab9
00000060: 13a7 d33d 1759 8a3c ea4d 82bd cc74 873d
00000070: 2f4c f7bc 774e 943c ad5a 99bd f739 a6bd
00000080: 9c9e 933d 57e7 b0bc 361e 41be c27e f93d
00000090: cae9 473e 85b7 413e 6482 423e f414 b1bc
000000a0: 32a2 243c 0872 abbc 68a2 b3bc 7cb5 333e
000000b0: d93b 123d fddc 37be e380 8e3d 4cc5 e4bd
000000c0: 9c4f febc 43fd f6bd 3367 593d 9b85 de3d
000000d0: 3297 df3d 706f 163c c9cd ffbd b7de ddbc
000000e0: d26b c7bd 1c6b f73c 42b5 86bd 9d62 2cbc
000000f0: 2baf 29bc a7fb fabb adf4 613d 88bd 833d
00000100: 6f34 db3c 4e23 5e3d b523 133e 3cc5 d53d
00000110: e109 eebd 8505 39be a160 d5bc c904 75bd
00000120: 581c 52bd f4b8 19bc b2ad dc3b 1c04 06bc
00000130: 920b dd3d cd3f 47bd 5106 103e be4c 00bd
00000140: 98e2 aabc 074c 4a3c 9da6 5a3d 2316 a9bc
00000150: 2e2f 6f3d 5947 86be 94c6 823b 5789 bebb
00000160: af22 b33d 03f2 d33c fa7b 523d ec4b 95bd
00000170: d03d c53d d9aa 14bd a782 b8bd 4f35 293d
00000180: 92b8 12bd 6f30 a43c 811e 3e3d 8517 1b3c
00000190: 3bdd d1bd 8f54 93bd 0c55 a2bd 4767 16bd
000001a0: 9594 eebd 312e 09be 40af 4abd aeeb d9bc
000001b0: 1277 2dbd 28fe 4f3d d20f 963a cf4a 623d
000001c0: 08e1 183e d8bd d63c b770 443d 758c e13d
000001d0: a09e b8bc 9c10 0bbd 454e 3bbd 0040 c33b
0.17535257 -0.11434852 -0.19139862 0.08250181 0.078143105 0.09633303 -0.07108475 -0.025990533
-0.18770342 -0.028155476 -0.007090186 -0.0511865 0.02225435 0.06057794 0.08095396 -0.0067646373
0.04690864 0.0151484115 0.06334688 -0.08983715 0.027356995 -0.033572078 0.06317212 -0.0001779684
0.10334601 0.016888184 -0.06362517 0.06614074 -0.030187694 0.018103821 -0.07487998 -0.08116525
0.07207987 -0.021594686 -0.18859181 0.1218238 0.19522777 0.18917663 0.18995053 -0.021616437
0.010048436 -0.020928398 -0.021928027 0.175497 0.035701606 -0.17955394 0.06958177 -0.11170444
-0.03104382 -0.120600246 0.053076934 0.10865327 0.1091751 0.009181842 -0.12490422 -0.027083738
-0.09737362 0.03020244 -0.06577541 -0.010521558 -0.010356705 -0.007659394 0.05516498 0.064326346
0.0267584 0.054232888 0.1436909 0.1043801 -0.11622978 -0.18068512 -0.026047053 -0.059819017
-0.051296562 -0.009382475 0.0067345733 -0.008179691 0.107932225 -0.04864483 0.1406491 -0.031323187
-0.020860001 0.012347228 0.05338155 -0.020640438 0.058394603 -0.2622631 0.0039909575 -0.005814712
0.0874685 0.025872236 0.051387765 -0.072898716 0.096309304 -0.036295746 -0.09009295 0.041310605
-0.03582055 0.020042626 0.04641581 0.009466057 -0.102472745 -0.07193863 -0.07926378 -0.036719587
-0.116494335 -0.13396527 -0.049483538 -0.026601639 -0.042349882 0.05077949 0.0011448807 0.055247124
0.14929593 0.026213571 0.047959056 0.11013118 -0.022536576 -0.033951387 -0.04572894 0.005958557

net.0.bias f4 [20]
00000000: f05d 0533 4e50 d5b4 e5ed 6cb2 8fbd d7b3
00000010: 51b5 d6b2 7a7a 1cb4 ed6e 0032 0571 bbb2
00000020: fe89 14b4 8f07 4035 9ff9 37b2 d2bd 6ab4
00000030: 6a7d 9b33 d3f9 3533 6a74 ad34 3fef d334
00000040: a98c d133 1145 c5b3 1de6 3035 9342 a6b3
3.105191e-08 -3.973277e-07 -1.3791099e-08 -1.0046198e-07 -2.4995332e-08 -1.4573189e-07 7.475802e-09 -2.182106e-08
-1.3833775e-07 7.1536573e-07 -1.0708759e-08 -2.1862004e-07 7.2405626e-08 4.236956e-08 3.2308463e-07 3.9475887e-07
9.757907e-08 -9.1860905e-08 6.589997e-07 -7.742087e-08

net.1.weight f4 [20]
00000000: 8389 643e 9b83 f93d 2ffe b53d f729 ab3d
00000010: f1e6 da3d 28b7 2b3e cbb0 3c3e e27f 013e
00000020: f7c5 e03d 6eb2 2f3e b71a 6e3d 4b47 493e
00000030: d412 e13d fd72 523e 4af7 843e c818 f43d
00000040: 9a3d 193e 1f43 033e 050d 003e 134a cc3d
0.22318082 0.12183305 0.08886372 0.083576135 0.1068858 0.16769087 0.18426816 0.1264644
0.10975259 0.1715791 0.058130946 0.19656102 0.10989919 0.20551677 0.25969917 0.11918789
0.14964905 0.12818573 0.12504967 0.09975066

net.1.bias f4 [20]
00000000: 87dd 0a3d 5a65 333d 28fa 59bd d7ae e13c
00000010: 9339 46bc 9742 e93c 76bd 85bb 39ed 603c
00000020: 795a ad3d 11f7 67bd c7af 88bc 7c9e a6bb
00000030: 58f4 b8bd cbe9 01be 9002 59bd 9e47 313d
00000040: 1b2c f3bc 4fd9 dc3c b4d6 913d edbd 8abc
0.03390267 0.04379783 -0.053217083 0.02754919 -0.012098688 0.028474135 -0.0040814234 0.013728433
0.08464522 -0.056632105 -0.01668538 -0.005084811 -0.0903098 -0.12686841 -0.05298096 0.04328119
-0.029684117 0.02695909 0.071210295 -0.016936267

net.1.running_mean f4 [20]
00000000: ffa0 e9bb 9a1b 043c bd3c b1bb 66c5 61bb
00000010: e78d b0ba 09b5 0f3c 7156 1bbc bafc b83a
00000020: a7cb 05bc 3a48 043c 792e adbb 2ed8 bc3b
00000030: 6fb9 5fbb c6fa 92bb 7c0d 4ebb 1715 433b
00000040: 48c5 e03b 23cd 3b3c bebf 2abc b90d d53a
-0.007129788 0.008063221 -0.005408852 -0.0034449934 -0.0013470025 0.0087711895 -0.009481058 0.0014113404
-0.00816623 0.008073861 -0.005285081 0.0057630753 -0.0034137627 -0.004485461 -0.0031441143 0.002976721
0.0068594553 0.011462483 -0.010421691 0.00162547

net.1.running_var f4 [20]
00000000: 417b d93d 1de9 043d e0af 013c daf9 283d
00000010: bdec 2a3c be0f 533d 36fc 423d 5557 bd3c
00000020: 905c 6e3c ad59 2f3d 541f e23b f199 eb3c
00000030: 2e9b 0b3c 0536 053d 11df df3d 06fc 2f3d
00000040: 7c9a 023d 3520 bd3c 0de1 273d 2f6e 923b
0.10619212 0.032448877 0.007915467 0.041253902 0.010432419 0.051528685 0.04760381 0.023112932
0.014548436 0.04281013 0.0069007073 0.028759928 0.008520884 0.03252222 0.109312184 0.042964958
0.03188561 0.023086647 0.04098611 0.0044687013

net.3.weight f4 [6, 20]
00000000: 9537 9a3d ef04 0b3e ecfb 963d 6ab8 96bd
00000010: 6996 a63c 1c62 313d 5ade dfbc c978 61bd
00000020: 5c4c 3ebd d931 1e3e f137 14bd 862c cabd
00000030: 4bf7 5c3d 5dc1 9c3d b45c 14be 7255 743d
00000040: 9a49 47bd 8767 a9bd b7fb 263d ee9f 45bc
00000050: 963e 833d c7d3 563d edff 91bc d1b6 efbc
00000060: 3600 44bc 05c1 64bd 8509 523d a400 8dbd
00000070: 88ba de3c 7103 adbc 7263 d8bc 7cc1 a63d
00000080: 6e89 b5bc 1a27 b03d e72c 713d 8aab e6bc
00000090: 64b1 88bc dd78 c13c 13a9 a9bd a7e1 993c
000000a0: 9d21 0ebd cb91 f03c 1a15 253d 3f6b 9cbd
000000b0: d7f3 d33d bc46 083c 6231 f9bd 0e24 7abb
000000c0: 421a 80bd 6570 15bd c1a4 1ebd 5ba5 d5bd
000000d0: 2efc 5b3d c788 9e3d c01a b13c bd50 a43d
000000e0: 90e3 80bd e816 0dbd 77d4 173d eaa2 843d
000000f0: a2dc c6bc 878b 873d e36c 553d 4193 fd3c
00000100: 3090 11bc 6185 dcbc 4f9d 933c 1fb9 2ebd
00000110: c503 e83d cfc0 bdbd b573 ab3c bb2b a3bd
00000120: f554 d7bc 26c3 f43d 3cd5 413e daf2 98bd
00000130: 0314 3bbd 3fef 043d 950d b1bd 2b84 67b8
00000140: 1729 afbd 8d04 7fbb 015b b13c af4b 8c39
00000150: 4253 98bc 6789 a03d 4e27 47bd fdfb 713d
00000160: 3efc 2f3d d304 62bb bd2f 533d b1af 7d3d
00000170: 40ae a23d 11c5 d63d 13c5 673d 3f48 023d
00000180: a186 1a3e 153c 7f3d f3ce f83c 2b8c 2bbd
00000190: 1b54 463e 91cf 853c 37e1 20bb b0e1 2fbd
000001a0: aab9 853d c69b 85bd ce56 983d 135b 9dbd
000001b0: 4698 02bc 7147 f73c 7b6c 6f3c 505f 933c
000001c0: 3573 adbc f41d 23be adfd 0e3d 4a1e c93d
000001d0: 44dc fcbc 451e 493d 3cb6 1dbc 6fdc c23d
0.07530133 0.13576101 0.07372269 -0.07359393 0.020335393 0.043306455 -0.027327705 -0.05504683
-0.04645954 0.15448703 -0.036186162 -0.098717734 0.053946774 0.076540686 -0.14488488 0.0596518
-0.048654176 -0.082716994 0.040767398 -0.012062056 0.06408422 0.05244806 -0.01782223 -0.029261978
-0.011962941 -0.05584814 0.05127861 -0.06884888 0.027188554 -0.021119805 -0.026414607 0.08142373
-0.022160258 0.08601208 0.058880713 -0.028157968 -0.016686149 0.023617202 -0.082842015 0.018784357
-0.034700025 0.029366395 0.040303327 -0.07637643 0.10349243 0.008317646 -0.12167622 -0.0038168463
-0.06255008 -0.03648414 -0.03873134 -0.1043193 0.053707294 0.07740932 0.0216192 0.08023212
-0.06293404 -0.034445673 0.037067857 0.06476386 -0.024275128 0.066184096 0.052105796 0.030954005
-0.008884475 -0.026919069 0.018019347 -0.042657014 0.11328844 -0.09265291 0.020929197 -0.07967325
-0.026285628 0.11951284 0.18928999 -0.07468195 -0.04567338 0.032454725 -0.08645169 -5.5197783e-05
-0.08552759 -0.0038912625 0.02164984 0.0002675927 -0.018594388 0.078387074 -0.04862147 0.059078205
0.042965166 -0.0034487739 0.0515592 0.06193513 0.07943392 0.10486806 0.05658443 0.03180718
0.1509042 0.062313158 0.030372119 -0.04188172 0.19368021 0.016334327 -0.00245483 -0.04293984
0.06529553 -0.06523852 0.07438432 -0.07683387 -0.007970875 0.030185433 0.014613266 0.017989784
-0.021173099 -0.15929395 0.034909893 0.0982023 -0.03086675 0.049101133 -0.009625968 0.095147006

net.3.bias f4 [6]
00000000: ff20 8836 3094 c8b4 da77 6637 2dbd bab6
00000010: 7c27 88b4 13fb 9437
4.056957e-06 -3.7360724e-07 1.3736973e-05 -5.565255e-06 -2.5360703e-07 1.775989e-05

net.4.weight f4 [6]
00000000: 3eda 853f 7e40 323f 0f04 263f 0b9e 893f
00000010: dda6 0d3f 9455 513f
1.0457227 0.6962966 0.6484994 1.0751356 0.5533274 0.81771207

net.4.bias f4 [6]
00000000: 676e 1a3f 04e8 7e3e 18e3 8c3e b650 063f
00000010: 0643 893e 01da c13e
0.6032471 0.24893194 0.2751701 0.52466905 0.26808947 0.37861636

net.4.running_mean f4 [6]
00000000: 186b 90b8 ad0a 443c 961c 75bc 003d 163c
00000010: d364 ff3c 0563 f03c
-6.886403e-05 0.011965436 -0.014960429 0.009169817 0.031176006 0.029344091

net.4.running_var f4 [6]
00000000: e0db c33a 8571 9a3a 6594 b839 fd95 a13a
00000010: d8fc 0c3a 22c7 403a
0.0014942847 0.0011783099 0.00035205777 0.0012328025 0.0005378253 0.0007353892

net.6.weight f4 [17, 6]
00000000: 2d77 b9be 49ba 773e fb6e abbe 6810 a73e
00000010: d50b 9cbe 9767 9b3e b1d6 dbbe 4613 453e
00000020: e7e0 b4bd b648 b83e ae09 8abe fb71 bc3e
00000030: 6927 95be 905c 393e db7f 1bbe c8ff 853e
00000040: 4be2 b3bd cfd0 303e 9270 76be f448 173e
00000050: 8b87 03be 1c90 663e 14ff 4cbd 8a08 ff3d
00000060: 8a1d 3fbe 8f13 133e 9319 b7bd b4b7 513e
00000070: 0b8e e0bd fb50 293e 8ad5 91be 5fe1 4a3e
00000080: aeed 1bbe a23f 8e3e 8335 e6bd 3bcd 4f3e
00000090: 8182 06be 240d ac3d 5a16 87bd 3fff 043e
000000a0: 9c76 d5bc e7d8 913d d20a c0be e44c 6f3e
000000b0: ca45 d5bd 8024 a83e 8818 89be 52bf b43e
000000c0: 874d 81bd 9e78 253d cf94 00bd 16b6 823d
000000d0: 328c 1bbc 1f96 083d fc0f c0be fbc7 6e3e
000000e0: 01ef 27be 944d a33e 7d71 74be 05d1 a53e
000000f0: bec2 a0be 7620 563e 8244 0abe fdaa 983e
00000100: 4b03 1dbe 9134 783e e981 a0be 6ced 263e
00000110: 6b55 bfbe 0bac df3e 4b23 82bb c5f3 843d
00000120: e305 94be 04b2 4d3e 0ed6 14be 2dac 8c3e
00000130: 8368 00be 94c3 593e 30b2 f2bd 6d16 a53d
00000140: cc74 6abd 7536 fb3d e562 eabc 3bb9 943d
00000150: 6f73 88bd 2954 2d3d 4509 08bd b8f4 863d
00000160: cf80 35bc 51da 0e3d 958e 6cbe 81e5 0b3e
00000170: 2ef0 fabd 64f0 593e b3dc 17bd 0042 de3d
00000180: 822a acbe 5b81 863e 9ce6 a5be d7bd 8d3e
00000190: beed 36be 174b 843e
-0.36223736 0.24192156 -0.3348311 0.32629704 -0.30477777 0.3035247 -0.42937234 0.19245633
-0.08831959 0.35992974 -0.2696051 0.3680571 -0.2913163 0.18101716 -0.15185492 0.26171708
-0.08783396 0.17267154 -0.2406638 0.14773923 -0.12844674 0.22515911 -0.05004795 0.124528006
-0.18663612 0.1436293 -0.08940425 0.20480233 -0.109645925 0.16534798 -0.2848323 0.19812535
-0.15227386 0.27782923 -0.11240675 0.20293133 -0.13135721 0.08400944 -0.0659606 0.12987994
-0.026057534 0.07121449 -0.37508255 0.23369175 -0.10413702 0.32840347 -0.26776528 0.35302216
-0.06313615 0.040398233 -0.031391915 0.063823864 -0.009493874 0.03334629 -0.37512195 0.23318474
-0.16399767 0.31895125 -0.23871417 0.32386032 -0.31398576 0.2091082 -0.13502696 0.29817954
-0.15333287 0.24238802 -0.31349114 0.16301507 -0.37369856 0.43685946 -0.0039714924 0.06491808
-0.2891074 0.20087439 -0.1453478 0.2747511 -0.12539868 0.21266013 -0.11850393 0.08060918
-0.057240292 0.12266246 -0.02861161 0.072618924 -0.06662642 0.04231659 -0.033211965 0.06589645
-0.011078074 0.03487617 -0.23101266 0.13661768 -0.12252842 0.21283108 -0.03707571 0.10852432
-0.3362618 0.26270565 -0.32402503 0.276839 -0.17864129 0.2583854

net.6.bias f4 [17]
00000000: 533c 423d 1959 79bd 20f2 b9bc 5c12 6cbc
00000010: 1866 23bd e7fa 21bd c066 f1bb 8901 98bd
00000020: 0cbd cfba b591 27bd 5f09 40bd d941 873b
00000030: 880a 22bd 1077 dfbb 42e8 30bb 1398 40bc
00000040: 485a da3c
0.04742081 -0.060875986 -0.022698462 -0.014408674 -0.039892286 -0.03954592 -0.007366985 -0.07422168
-0.0015849187 -0.04091044 -0.046883937 0.0041277227 -0.039560825 -0.0068196133 -0.0026993905 -0.011755007
0.026654378
