30 weight-optimized multi-task models/model_27.pt (torch_old, 4405 bytes, 14 tensors)

net.0.weight f4 [20, 6]
-0.012328014 0.037770327 0.06443522 -0.1341027 -0.2186625 0.13395794 0.008867006 -0.083406396
0.044990793 0.03807811 0.041928686 -0.010969381 3.0201429e-05 -0.00090775447 0.0010732549 -0.00020027699
0.0016610496 -0.0022046864 0.0064318962 -0.066066146 -0.03569847 -0.0051970677 0.08306451 -0.019699812
0.19031279 0.07267969 -0.104745254 0.013933562 -0.015697131 0.052676454 0.034334224 -0.20949788
0.04354387 0.07100413 0.0639793 0.03029962 0.15845002 0.07052594 0.16451883 0.15421453
0.035819273 0.095598504 0.040688843 0.031217996 -0.19089657 -0.12141174 0.005776381 -0.030842511
-0.029333968 -0.0074131847 0.07571118 0.07777337 -0.08176241 0.001750522 0.12759992 0.13506289
-0.07717805 -0.12165543 -0.043461807 -0.032201342 -0.09280083 -0.11330941 0.03039203 0.081977
0.020424731 -0.16079992 -0.06746934 0.048350662 -0.090058506 -0.014515156 0.029009195 -0.021492047
0.090924345 -0.14051233 -0.027516495 -0.061488353 0.088199906 -0.030378217 0.017576765 0.10279006
0.06767505 -0.011333915 -0.06527186 -0.048629005 -0.010268864 0.042581566 -0.14141396 0.030858222
-0.12941831 0.030228399 0.013838744 0.1021871 0.05138967 0.0781894 0.091391355 0.025957553
0.24678333 -0.20973505 -0.066923 0.17571926 0.008752597 0.06566149 0.012932889 -0.011243555
0.023595106 -0.026378063 -0.020343963 0.007005365 -0.012068725 0.010720109 -0.22130382 -0.044959456
-0.0047675855 -0.06220021 -0.13219039 0.011678237 0.001998445 -0.10419928 0.035992775 -0.09464559
00000000: 70fb 49bc 0fb5 1a3d 9df6 833d 3852 09be
00000010: 10e9 5fbe 452c 093e eb46 113c f9d0 aabd
00000020: 4448 383d cbf7 1b3d 6abd 2b3d ebb8 33bc
00000030: 1359 fd37 5ff6 6dba 75ac 8c3a 7201 52b9
00000040: 93b7 d93a 807c 10bb a8c2 d23b b04d 87bd
00000050: 8f38 12bd 2a4c aabb ba1d aa3d 8061 a1bc
00000060: 5be1 423e 17d9 943d ae84 d6bd 9849 643c
00000070: 4597 80bc 44c3 573d 0ba2 0c3d 9d86 56be
00000080: 0f5b 323d 9d6a 913d 9407 833d e936 f83c
00000090: b940 223e e76f 903d a077 283e 6aea 1d3e
000000a0: 3bb7 123d 26c9 c33d 58a9 263d e2bc ff3c
000000b0: 647a 43be b8a6 f8bd cc47 bd3b 6fa9 fcbc
000000c0: ca4d f0bc 4dea f2bb 770e 9b3d a547 9f3d
000000d0: 0d73 a7bd c571 e53a 8ea9 023e ed4d 0a3e
000000e0: 870f 9ebd 7b26 f9bd 0205 32bd 8ee5 03bd
000000f0: 5d0e bebd c40e e8bd b5f8 f83c 8fe3 a73d
00000100: c451 a73c bca8 24be 5e2d 8abd 580b 463d
00000110: 9870 b8bd fad0 6dbc b1a4 ed3c 1710 b0bc
00000120: 8b36 ba3d 77e2 0fbe 466a e1bc 36db 7bbd
00000130: 27a2 b43d bddb f8bc 26fd 8f3c 9883 d23d
00000140: 3799 8a3d e3b1 39bc 41ad 85bd 352f 47bd
00000150: bd3e 28bc 026a 2e3d d2ce 10be 62ca fc3c
00000160: 3c86 04be 8ca1 f73c e6bb 623c 7847 d13d
00000170: fa7d 523d c421 a03d 642b bb3d efa4 d43c
00000180: c5b4 7c3e c9c4 56be ed0e 89bd c0ef 333e
00000190: 0d67 0f3c 8879 863d 78e4 533c e336 38bc
000001a0: 864a c13c cf16 d8bc 62a8 a6bc 438d e53b
000001b0: e7bb 45bc 65a3 2f3c 789d 62be 6827 38bd
000001c0: 6839 9cbb a6c5 7ebd eb5c 07be 1356 3f3c
000001d0: 58f8 023b 6f66 d5bd 296d 133d 8cd5 c1bd

net.0.bias f4 [20]
-1.3901253e-07 2.1648795e-07 -6.32e-43 -1.4632721e-07 -2.20287e-08 -2.1771842e-07 1.7736623e-07 -7.637267e-08
3.1103873e-08 1.5821989e-07 4.0154107e-09 -1.8255909e-06 -2.193306e-08 -3.0455695e-08 -4.839168e-07 7.752552e-08
1.6023215e-07 -3.536485e-08 1.14454565e-07 -1.2788851e-07
00000000: 7943 15b4 c173 6834 c301 0080 1e1e 1db4
00000010: a039 bdb2 fcc5 69b4 0f72 3e34 5202 a4b3
00000020: 1297 0533 27e3 2934 edf7 8931 d306 f5b5
00000030: 4f67 bcb2 64ce 02b3 82e6 01b5 1b7c a633
00000040: 470c 2c34 10e4 17b3 10ca f533 ba51 09b4

net.1.weight f4 [20]
0.13558343 0.11199743 0.0004538546 0.10620059 0.15632038 0.22509775 0.19647264 0.1537334
0.12242257 0.20667289 0.17158009 0.12289929 0.2033154 0.07654675 0.20338057 0.12118879
0.37638217 0.047681116 0.16517995 0.11881226
00000000: 62d6 0a3e e95e e53d 55f3 ed39 b27f d93d
00000010: 7312 203e 0680 663e 2030 493e 4a6c 1d3e
00000020: afb8 fa3d 0fa2 533e b1b2 2f3e 9fb2 fb3d
00000030: ea31 503e 8bc4 9c3d ff42 503e d431 f83d
00000040: 2ab5 c03e 464d 433d ef24 293e d853 f33d

net.1.bias f4 [20]
0.06415304 -0.06254944 -0.0023126523 -0.03669572 0.06090274 -0.023816431 0.032865085 -0.068321936
-0.009566567 -0.087544285 -0.065455474 -0.07532932 0.008414342 0.007773765 -0.052807402 0.10871007
-0.14795293 0.0024761406 0.023375925 0.04769359
00000000: ab62 833d ec19 80bd de8f 17bb 404e 16bd
00000010: 2775 793d ad1a c3bc 8a9d 063d 5fec 8bbd
00000020: 17bd 1cbc 6b4a b3bd 850d 86bd 4246 9abd
00000030: 4fdc 093c 11bb fe3b 934c 58bd 63a3 de3d
00000040: f980 17be bf46 223b de7e bf3c 5b5a 433d

net.1.running_mean f4 [20]
-0.003050977 0.003067415 8.0849995e-06 0.0056498153 -7.383257e-05 0.009792576 -0.0040039415 0.0035354742
-0.0053846072 -0.004250961 -0.0023933246 3.15818e-05 0.009651708 -0.009020808 -0.0036638493 -0.0024838564
0.008898644 0.00013788567 0.0017763128 -0.00044601515
00000000: e6f2 47bb af06 493b cfa4 0737 1622 b93b
00000010: 8fd6 9ab8 0a71 203c 7f33 83bb 6ab3 673b
00000020: 5c71 b0bb a54b 8bbb 53d9 1cbb b376 0438
00000030: 3322 1e3c 03cc 13bc 311d 70bb 32c8 22bb
00000040: 9ecb 113c 6795 1039 2bd3 e83a 24d7 e9b9

net.1.running_var f4 [20]
0.08092722 0.011202579 1.3318002e-05 0.013911751 0.035275325 0.04609699 0.047612295 0.02627501
0.017977485 0.010753728 0.03496665 0.02321957 0.08705863 0.014450324 0.06003715 0.035667926
0.097117715 0.004028038 0.039636377 0.02056286
00000000: 2cbd a53d 068b 373c 6270 5f37 1dee 633c
00000010: dc7c 103d 33d0 3c3d 1c05 433d b13e d73c
00000020: 8545 933c 6830 303c 3139 0f3d f836 be3c
00000030: cc4b b23d 0dc1 6c3c 84e9 753d 8818 123d
00000040: a7e5 c63d a2fd 833b c159 223d 7173 a83c

net.3.weight f4 [6, 20]
0.0028521554 0.03676509 -5.5830613e-05 -0.049839377 0.05422783 -0.005313712 -0.041529927 -0.0013227887
-0.035350595 -0.046442166 0.019013446 0.013541645 -0.070492335 0.0077903457 0.0692751 0.034401264
0.020900246 0.04195306 0.035704613 -0.03920625 0.083552 -0.07200103 -0.0021757246 -0.047373347
0.028159143 -0.18180735 -0.058188487 -0.08234865 0.015115394 -0.023045752 0.015394448 -0.070869476
-0.082872614 0.04279375 -0.09728728 0.023722721 0.09359166 0.033987597 0.038794212 0.013957767
0.048805654 0.012383484 -0.00094403565 -0.015412026 0.07274992 0.004273529 -0.02340741 -0.03127607
-0.064189605 -0.09805951 0.07493641 0.09131753 -0.12811853 -0.094338275 0.1624964 0.064800955
0.029600214 0.019107798 0.11316617 -0.04557119 0.051347695 -0.0006058723 -0.0015659 0.075165235
-0.1729545 -0.07422523 -0.0577097 -0.06349867 0.06241128 0.030489862 0.11525122 -0.023332892
0.015293604 -0.034926314 0.03957992 0.020095943 0.1376017 0.009292599 -0.024258235 0.13293537
-0.079477265 0.05883298 -0.005634016 -0.018084964 0.0044297697 0.039451234 0.073341645 0.050833806
-0.04264472 -0.14322613 -0.07857243 -0.047084298 0.06275631 0.0042502712 -0.05408347 -0.104267396
0.19829355 -0.0013160803 0.12700857 -0.055002972 0.04518179 0.025610687 0.0005929679 0.04041771
-0.094943345 -0.07891944 -0.10833128 -0.09307911 -0.087164305 -0.11992558 0.0016588005 0.059412066
-0.09536078 -0.03165565 0.03730988 0.090184666 0.18023784 0.0033709921 0.072017275 0.024717156
00000000: 3aeb 3a3b fe96 163d aa2b 6ab8 6024 4cbd
00000010: 001e 5e3d a61e aebb 491b 2abd 6c61 adba
00000020: c9cb 10bd 243a 3ebd 16c2 9b3c c7dd 5d3c
00000030: 495e 90bd 2846 ff3b 1be0 8d3d 57e8 0c3d
00000040: fe36 ab3c f9d6 2b3d 003f 123d bc96 20bd
00000050: 501d ab3d 4775 93bd 9a96 0ebb 8e0a 42bd
00000060: 01ae e63c b52b 3abe 0d57 6ebd 69a6 a8bd
00000070: 8fa6 773c 72ca bcbc ff38 7c3c 0424 91bd
00000080: 1eb9 a9bd 8048 2f3d 8e3e c7bd 2756 c23c
00000090: fcac bf3d 9436 0b3d aee6 1e3d 1eaf 643c
000000a0: 70e8 473d 19e4 4a3c 2979 77ba b982 7cbc
000000b0: e9fd 943d f608 8c3b e6c0 bfbc 561b 00bd
000000c0: d775 83bd 6dd3 c8bd 4378 993d af04 bb3d
000000d0: 8131 03be 6d34 c1bd 7565 263e 5db6 843d
000000e0: 267c f23c f587 9c3c aac3 e73d dba8 3abd
000000f0: f651 523d 67d3 1eba e33e cdba 3bf0 993d
00000100: fc1a 31be 6603 98bd 0261 6cbd 970b 82bd
00000110: f8a2 7f3d e0c5 f93c d508 ec3d 9f24 bfbc
00000120: 0692 7a3c e50e 0fbd 8e1e 223d 3fa0 a43c
00000130: 76e7 0c3e fc3f 183c 35b9 c6bc 3620 083e
00000140: fac4 a2bd dafa 703d 8d9d b8bb eb26 94bc
00000150: 9a27 913b 9e97 213d 2534 963d 1c37 503d
00000160: 3bac 2ebd dfa9 12be 95ea a0bd 77db 40bd
00000170: 6186 803d dc45 8b3b a186 5dbd 258a d5bd
00000180: 770d 4b3e 5480 acba 890e 023e cc4a 61bd
00000190: 8a10 393d 81cd d13c 6771 1b3a 0a8d 253d
000001a0: a871 c2bd 84a0 a1bd cadc ddbd 43a0 bebd
000001b0: 3383 b2bd 8b9b f5bd 1c6c d93a 115a 733d
000001c0: 834c c3bd 5ba9 01bd 3fd2 183d bdb2 b83d
000001d0: 4590 383e ddeb 5c3b cb7d 933d a27b ca3c

net.3.bias f4 [6]
1.6850615e-06 2.2047625e-06 9.598933e-06 7.3039096e-06 -2.9705527e-06 3.3816984e-06
00000000: 462a e235 88f5 1336 1a0b 2137 1b14 f536
00000010: b559 47b6 23f1 6236

net.4.weight f4 [6]
0.46447808 0.62221867 0.8825475 0.567736 1.3234178 0.5799629
00000000: 12d0 ed3e b949 1f3f a2ee 613f 2657 113f
00000010: c165 a93f 7378 143f

net.4.bias f4 [6]
0.20976461 0.45159534 0.42260364 0.3930432 0.5108932 0.30447447
00000000: 89cc 563e 8137 e73e 815f d83e f53c c93e
00000010: e6c9 023f 14e4 9b3e

net.4.running_mean f4 [6]
0.0032718782 -0.012392322 0.019270267 0.011911213 0.010325186 -0.0017890679
00000000: 026d 563b 2a09 4bbc aedc 9d3c 4027 433c
00000010: f82a 293c 287f eaba

net.4.running_var f4 [6]
0.0003052042 0.0005504889 0.0016686881 0.00076864095 0.003296581 0.0005120485
00000000: d003 a039 af4e 103a e2b7 da3a 9f7e 493a
00000010: 740b 583b fe3a 063a

net.6.weight f4 [17, 6]
-0.15977618 -0.27839482 -0.34428144 -0.2919244 0.4916602 -0.2506703 -0.08154658 -0.27123648
-0.3465319 -0.36734334 0.4953819 -0.21277954 -0.106037185 -0.1393272 -0.22258054 -0.09887136
0.37486005 -0.13479432 -0.09319923 -0.11312681 -0.18968564 -0.062026594 0.30304182 -0.1010993
-0.051388122 -0.11561174 -0.11831573 -0.12046131 0.30768842 -0.09062149 -0.10003594 -0.15152176
-0.21216331 -0.12200662 0.41439685 -0.13559878 -0.04802606 -0.06064512 -0.09869955 -0.03408574
0.16942231 -0.052474834 -0.085027836 -0.21519417 -0.24167083 -0.3002382 0.5223322 -0.23568368
-0.024189858 -0.02824865 -0.048797175 -0.01393267 0.07806399 -0.024924213 -0.10286145 -0.20828657
-0.2741587 -0.26108065 0.5124414 -0.22793072 -0.098984696 -0.17188321 -0.22479562 -0.16138725
0.45193288 -0.15717106 -0.32446057 -0.28706583 -0.40286595 0.046071775 0.3756852 -0.1909049
-0.098922 -0.15322846 -0.21405545 -0.13446517 0.41813278 -0.13708062 -0.042829696 -0.05797208
-0.08834305 -0.035678368 0.16326436 -0.04772105 -0.024728598 -0.029926812 -0.050174695 -0.015537883
0.082396805 -0.026664931 -0.09097054 -0.10421493 -0.18293872 -0.050233632 0.27915123 -0.094363295
-0.14227892 -0.23069447 -0.3107863 -0.16702771 0.4736764 -0.23371844
00000000: 5e9c 23be c489 8ebe a845 b0be 1d77 95be
00000010: e3ba fb3e dc57 80be e501 a7bd 82df 8abe
00000020: a16c b1be 6d14 bcbe b2a2 fd3e e1e2 59be
00000030: 062a d9bd caab 0ebe 27ec 63be 117d cabd
00000040: a8ed bf3e 8607 0abe 3ddf bebd 07af e7bd
00000050: f43c 42be 990f 7ebd 4c28 9b3e 260d cfbd
00000060: 5a7c 52bd d9c5 ecbd 844f f2bd 6bb4 f6bd
00000070: 5689 9d3e c297 b9bd a5df ccbd 8528 1bbe
00000080: 5741 59be 9bde f9bd d32b d43e 68da 0abe
00000090: f9b6 44bd 0467 78bd fd22 cabd 7d9d 0bbd
000000a0: 0b7d 2d3e daef 56bd 1323 aebd dc5b 5cbe
000000b0: 8f78 77be d2b8 99be 90b7 053f 1057 71be
000000c0: cf29 c6bc b669 e7bc 8cdf 47bd da45 64bc
000000d0: 03e0 9f3d dd2d ccbc 06a9 d2bd 1349 55be
000000e0: 875e 8cbe 5dac 85be 5c2f 033f ac66 69be
000000f0: 7db8 cabd 2702 30be d330 66be b342 25be
00000100: bf63 e73e 73f1 20be b21f a6be 4bfa 92be
00000110: 7244 cebe c2b5 3c3d cf59 c03e 937c 43be
00000120: 9e97 cabd ece7 1cbe 5a31 5bbe 3db1 09be
00000130: 8015 d63e dd5e 0cbe 316e 2fbd 2274 6dbd
00000140: 33ed b4bd 7b23 12bd c62e 273e 2677 43bd
00000150: a193 cabc 1329 f5bc fb83 4dbd 9b92 7ebc
00000160: a8bf a83d 6a70 dabc c34e babd a36e d5bd
00000170: 4a54 3bbe c8c1 4dbd e9ec 8e3e 8b41 c1bd
00000180: 91b1 11be 2c3b 6cbe 621f 9fbe 5009 2bbe
00000190: b785 f23e e353 6fbe

net.6.bias f4 [17]
0.26878613 0.26301044 0.029176788 0.013226691 4.2577245e-05 0.02347918 0.0007671151 0.12851945
-0.00012256723 0.122422956 0.04130075 0.26843655 0.023245525 -0.00059054745 -0.00036254723 0.014127466
0.13214368
00000000: 569e 893e 4ea9 863e 2904 ef3c c3b4 583c
00000010: f894 3238 6957 c03c 3918 493a 9a9a 033e
00000020: 6485 00b9 e3b8 fa3d fa2a 293d 8470 893e
00000030: 666d be3c f8ce 1aba 4414 beb9 e376 673c
00000040: ac50 073e
